results/best_model_classification_MLP_policy.ckpt (torch, 11713 bytes, 12 tensors)

net.0.weight f4 [64, 4]
0.28005946 0.44189423 0.12467475 0.37636787 0.4607736 0.09809737 -0.102877036 -0.13790001
0.082004316 0.17893557 -0.47269094 0.37362808 0.07784657 -0.466765 0.1591544 0.31630683
0.18582861 0.40713668 0.0093367575 -0.41580588 -0.0021342158 0.36242503 -0.23949234 0.21426542
0.11425708 -0.08212526 0.0025533906 0.21172522 -0.34115404 0.31669033 0.33950055 0.28157258
0.49863654 -0.02283324 -0.35206944 0.0238312 -0.14406161 0.17750587 0.42194504 -0.2746668
0.019937744 0.48531812 -0.40014857 -0.08728159 0.48452955 0.34836864 0.1441202 -0.21665056
-0.0466094 -0.4483623 -0.47073424 -0.46846735 0.47923613 0.3944651 0.19733559 -0.12658705
0.42949593 -0.13307168 0.34611452 -0.017273318 -0.23520494 -0.13954836 -0.10676402 -0.4576682
0.14851986 -0.15334012 0.22871839 0.31779236 -0.07849484 0.24348994 0.09889786 0.33478457
-0.32145435 -0.04289775 -0.16761495 0.43911606 -0.44779623 -0.2820366 0.055445004 0.44286788
0.33730507 -0.46887904 -0.35253245 0.48380464 0.07186787 -0.42925328 -0.15852518 0.21759276
-0.1045537 -0.38406432 -0.30870795 -0.2590174 -0.020584894 0.19494574 0.23906426 -0.24389578
-0.082893126 -0.38704294 0.3771217 0.49797708 0.48698676 0.20533754 -0.10561852 -0.011464226
0.17939197 -0.4344045 0.030038346 -0.40642744 -0.49991363 -0.016711771 -0.15917557 -0.31673014
0.08188711 0.019367982 0.07530027 -0.28084385 -0.48974425 0.010942757 -0.20397723 -0.16856813
0.36909294 0.08265908 0.22935756 -0.13873605 -0.39674318 0.099698305 -0.33112335 0.061951637
-0.3912112 0.3759457 -0.34160691 0.43307906 0.35220164 0.37697136 0.29902148 0.11472987
-0.02436924 -0.007981122 -0.19886076 -0.45959824 0.45673716 0.0269062 0.23615958 0.019351434
0.144686 -0.30706537 -0.38768286 0.38232118 0.18860804 0.24588148 -0.49527788 0.032804
-0.46637684 -0.057218492 -0.026432157 -0.35176003 -0.49611259 0.0022908323 0.44864964 0.44961238
-0.3044107 -0.088820696 -0.4181217 -0.39047688 -0.13609318 0.4864294 -0.1294425 0.029929055
0.47138232 0.09010364 0.4043491 0.33324558 0.46985543 0.08674503 -0.40334117 -0.42913163
-0.25933886 0.41168803 0.2865162 0.14533816 -0.38076454 -0.36825234 0.40892464 -0.051901877
-0.4978354 -0.06181097 -0.12003732 0.007542014 0.20825432 0.19339342 -0.38158935 -0.004480172
-0.24678628 0.33921415 0.24659137 0.27344084 0.45357174 0.24460123 -0.50064594 0.12516497
-0.34209275 0.06777044 0.00634439 0.49691057 -0.34161127 -0.48988062 -0.13403958 0.08057219
0.36527205 0.40440083 0.38407308 0.15683655 -0.14289021 -0.10572147 -0.27343643 0.09777528
-0.3487203 0.17090313 0.32190531 0.42328364 -0.49383104 0.40923488 -0.31309634 -0.03982495
0.45743704 0.2719525 -0.1576014 0.2961641 -0.48731834 0.38989025 0.48435915 -0.023705853
0.08228958 -0.11732477 -0.3165264 -0.22615635 -0.033204734 -0.4090572 -0.4041071 0.054873586
-0.3253373 -0.271973 -0.0043239594 -0.26350147 0.46182442 -0.18149973 -0.2770151 -0.13220346
-0.40893668 0.25657904 0.42859775 -0.2893557 -0.18687202 0.46563387 -0.36269706 0.13441978
00000000: f463 8f3e f63f e23e 7a55 ff3d 4ab3 c03e
00000010: 84ea eb3e 46e7 c83d 32b1 d2bd a935 0dbe
00000020: e1f1 a73d e33a 373e 8c04 f2be 2e4c bf3e
00000030: 066e 9f3d d2fb eebe 5ff9 223e f8f2 a13e
00000040: db49 3e3e 3874 d03e 33f9 183c 82e4 d4be
00000050: 33de 0bbb c68f b93e 7b3d 75be 6568 5b3e
00000060: 9eff e93d 4a31 a8bd c956 273b 7fce 583e
00000070: beab aebe 3c25 a23e 04d3 ad3e 482a 903e
00000080: 4a4d ff3e c60c bbbc 7242 b4be a639 c33c
00000090: e384 13be 19c4 353e 2e09 d83e 20a1 8cbe
000000a0: 7b54 a33c 9e7b f83e 46e0 ccbe b1c0 b2bd
000000b0: 4214 f83e 605d b23e 3f94 133e a5d9 5dbe
000000c0: 80e9 3ebd be8f e5be 1404 f1be f4da efbe
000000d0: 705e f53e 54f7 c93e 5712 4a3e 09a0 01be
000000e0: e4e6 db3e f143 08be ec35 b13e c680 8dbc
000000f0: 90d9 70be c4e5 0ebe 18a7 dabd 7c53 eabe
00000100: 9715 183e 3105 1dbe 2735 6a3e aeb5 a23e
00000110: e7c1 a0bd 6d55 793e f68a ca3d e268 ab3e
00000120: aa95 a4be 8db5 2fbd 41a3 2bbe d2d3 e03e
00000130: 8c45 e5be 1a67 90be 4d1a 633d 94bf e23e
00000140: 40b3 ac3e ea10 f0be 227f b4be 3eb5 f73e
00000150: 762f 933d 16c7 dbbe 6d54 22be a3d0 5e3e
00000160: 4020 d6bd 14a4 c4be f80e 9ebe ee9d 84be
00000170: a7a1 a8bc db9f 473e 43cd 743e d1bf 79be
00000180: dfc3 a9bd 7e2a c6be 1816 c13e daf6 fe3e
00000190: 5456 f93e 0144 523e 864e d8bd 73d4 3bbc
000001a0: 87b2 373e 446a debe fa12 f63c 4217 d0be
000001b0: aef4 ffbe 20e7 88bc ecfe 22be 742a a2be
000001c0: 6eb4 a73d 9aa9 9e3c 0737 9a3d c4ca 8fbe
000001d0: c2bf fabe 4049 333c 68df 50be 209d 2cbe
000001e0: c0f9 bc3e 2a49 a93d b5dc 6a3e d310 0ebe
000001f0: ec21 cbbe a02e cc3d 0089 a9be 00c1 7d3d
00000200: d64c c8be f47b c03e 1ae7 aebe 8abc dd3e
00000210: c653 b43e 6402 c13e 5819 993e 7ef7 ea3d
00000220: 00a2 c7bc 40c3 02bc 28a2 4bbe 7650 ebbe
00000230: 74d9 e93e 646a dc3c d1d3 713e e686 9e3c
00000240: 9128 143e ac37 9dbe 5e7e c6be 9abf c33e
00000250: 7722 413e 5bc8 7b3e 1095 fdbe 7d5d 063d
00000260: f2c8 eebe f05d 6abd 4088 d8bc e419 b4be
00000270: 7802 febe ca21 163b 68b5 e53e 9833 e63e
00000280: b8db 9bbe a0e7 b5bd 0c14 d6be 96ec c7be
00000290: 035c 0bbe 460d f93e 938c 04be c72d f53c
000002a0: 0659 f13e 4288 b83d d806 cf3e 2a9f aa3e
000002b0: e490 f03e 61a7 b13d bc82 cebe 24b7 dbbe
000002c0: 10c8 84be c6c8 d23e 40b2 923e 87d3 143e
000002d0: 92f3 c2be 928b bcbe 925e d13e 1097 54bd
000002e0: 48e4 febe 802d 7dbd 20d6 f5bd 0023 f73b
000002f0: 9f40 553e ed08 463e ae5f c3be 68ce 92bb
00000300: 8bb5 7cbe 7aad ad3e 7382 7c3e 7000 8c3e
00000310: 8e3a e83e bf78 7a3e 552a 00bf 3f2b 003e
00000320: c826 afbe 3acb 8a3d 9ae4 cf3b 106b fe3e
00000330: ace7 aebe a2d1 fabe ac41 09be 0803 a53d
00000340: f004 bb3e a00d cf3e 3aa5 c43e c399 203e
00000350: d051 12be 8084 d8bd dcff 8bbe 683e c83d
00000360: 788b b2be 3b01 2f3e c6d0 a43e a2b8 d83e
00000370: 6cd7 fcbe 3c87 d13e 2a4e a0be 7d1f 23bd
00000380: 3035 ea3e 5c3d 8b3e 4362 21be d2a2 973e
00000390: ca81 f9be b29f c73e ecfd f73e c732 c2bc
000003a0: 7087 a83d f847 f0bd c00f a2be 8895 67be
000003b0: b001 08bd f26f d1be 20e7 cebe 20c3 603d
000003c0: 9c92 a6be 0c40 8bbe 00b0 8dbb aae9 86be
000003d0: 4074 ec3e 11db 39be ecd4 8dbe 5860 07be
000003e0: 2660 d1be 545e 833e 2a71 db3e 6e26 94be
000003f0: 615b 3fbe 9067 ee3e 6eb3 b9be 57a5 093e

net.0.bias f4 [64]
-0.40638256 -0.44602275 -0.00024343422 -0.2863688 0.26979285 -0.15365286 0.0039263843 -0.2600392
0.20646745 0.46226144 -0.076164834 -0.30960524 -0.4876619 0.47813165 0.20973837 0.20649308
0.08412718 0.24989247 0.17855507 0.24313788 0.31170785 0.06990003 0.43066907 0.30991012
-0.016305929 -0.22232358 0.032145314 0.3894058 0.31573927 -0.20261222 -0.10338574 0.19852018
0.18739049 0.47512048 0.2427935 0.16029298 0.11655933 -0.47089928 -0.18420881 0.051918138
-0.34783125 -0.43708384 0.33839148 0.17105293 -0.4044829 0.030675953 0.29446137 0.2890374
0.4556043 -0.19870152 0.22363587 -0.40559113 -0.062674776 -0.31799775 -0.09620787 0.28364184
0.25026244 -0.26400733 -0.12398422 -0.10002762 -0.19021338 -0.2748972 0.3661492 0.34461468
00000000: 6011 d0be 185d e4be 6042 7fb9 ee9e 92be
00000010: 4a22 8a3e 2d57 1dbe e6a8 803b dc23 85be
00000020: 346c 533e 88ad ec3e 4ffc 9bbd 9484 9ebe
00000030: d2ae f9be accd f43e a8c5 563e ec72 533e
00000040: df4a ac3d d0e3 7f3e 24d7 363e 23f9 783e
00000050: 2c98 9f3e bf27 8f3d a880 dc3e 8aac 9e3e
00000060: 0394 85bc cba8 63be ceaa 033d 3260 c73e
00000070: 94a8 a13e 9479 4fbe e7bb d3bd e048 4b3e
00000080: 4be3 3f3e fe42 f33e dc9e 783e d823 243e
00000090: a8b6 ee3d b619 f1be 3ca1 3cbe 1da8 543d
000000a0: f016 b2be 74c9 dfbe a641 ad3e 8028 2f3e
000000b0: 6218 cfbe 234c fb3c a4c3 963e b6fc 933e
000000c0: f844 e93e 6978 4bbe cd00 653e a4a9 cfbe
000000d0: a25b 80bd 9ad0 a2be a208 c5bd 8139 913e
000000e0: 6622 803e f82b 87be 70eb fdbd 48db ccbd
000000f0: 4cc7 42be 53bf 8cbe e877 bb3e 5671 b03e

net.2.weight f4 [16, 64]
0.10335344 -0.069638945 0.090535775 -0.038903885 -0.0303677 -0.034654256 -0.007078123 -0.055737313
0.018094728 -0.08156735 0.050411005 -0.10582785 -0.045315415 -0.08830696 0.08332114 0.08588104
-0.10041949 -0.069208935 0.11087302 0.035423886 0.08707194 -0.09483212 0.056415558 0.07856758
-0.03000256 -0.0067601474 0.09114732 0.03408496 0.035866573 0.00038020313 -0.05318586 -0.07650992
0.123740435 -0.010874806 0.1109287 0.10127482 -0.06436386 0.007496436 -0.031973436 -0.00326967
0.08238259 0.06783149 -0.071998686 -0.06285133 -0.08980039 -0.106129795 0.08018686 -0.07823979
0.0006335699 -0.0011698125 0.02038412 -0.007313475 0.06386714 0.017166704 0.08863591 0.025982399
-0.0025590784 0.016712727 0.08331306 0.018866763 0.08805972 -0.010853295 8.383684e-05 0.10401805
-0.11801137 0.012469932 0.11417106 -0.0627265 -0.023057252 -0.007531002 0.04118088 0.04724568
0.028317451 0.04930933 -0.053632036 0.052588597 -0.03963527 0.07854205 -0.03668572 -0.10643862
0.008927166 0.065043524 -0.004898995 0.0016225725 0.00044292212 0.06634168 0.009780571 -0.11166738
-0.089145586 0.0073887855 -0.010037199 0.11948219 -0.029384643 0.0956635 -0.10542081 -0.11880182
-0.011498719 -0.079147235 -0.036452994 0.014079839 -0.10842767 0.08589645 -0.07586193 0.09590922
0.040859655 -0.023442402 -0.109393656 0.020688832 -0.06983228 0.10803287 -0.10515639 -0.0330192
-0.068889976 -0.08039467 -0.065196246 -0.0123925805 0.008456215 0.021174252 0.063874856 -0.05105731
-0.07755706 -0.02633734 0.117795184 -0.015271589 -0.10523282 0.09808239 0.03041464 0.021694824
0.020455929 0.08621204 -0.057917964 0.09010202 0.11919968 -0.033231538 0.077891394 0.06796476
0.11606033 -0.030092446 -0.07535816 -0.047400113 -0.085043535 0.0032883608 0.1195177 0.12126711
0.09341928 0.011368798 0.0017135643 0.08376505 0.07322298 -0.013404436 -0.031614512 0.04842641
-0.0053373403 -0.08881728 -0.059794616 0.10137366 0.10310003 -0.048707634 -0.027824802 -0.061952904
-0.041809168 0.11294483 -0.1111754 0.058648143 -0.11334847 -0.060636617 -0.025454476 0.007661539
-0.020299733 -0.05813926 -0.05675451 -0.07702938 -0.0882507 -0.07687768 0.11986621 -0.05989639
-0.104948506 0.08491284 0.047494877 0.08598313 -0.12533686 -0.11898525 -0.0897183 -0.06485044
-0.0012752691 0.05306979 0.07318273 -0.107513115 0.049851462 -0.07328856 0.02773251 0.038245905
0.02000396 0.044225633 -0.0062414855 0.08252348 0.026070267 0.109511405 0.027096093 -0.06617196
0.08027482 0.006771952 0.12080498 -0.013823837 0.12367682 -0.07297023 0.06282276 -0.0932506
0.0858167 0.022690326 0.070967376 -0.10764727 -0.12434402 0.06022972 -0.05142662 0.049505353
-0.07416108 -0.03864193 0.00056000054 0.07527569 0.07058963 -0.011165798 -0.035356358 -0.002167821
0.06442529 -0.10594626 -0.03819543 -0.12049955 0.018043235 -0.014785394 0.07081187 0.099858806
-0.10687916 -0.055320278 -0.020094946 -0.0012464821 -0.028533503 -0.078593224 -0.048299864 -0.0032191277
0.100522146 -0.03185664 0.082549036 -0.10104376 0.0055899173 -0.09754646 -0.11729582 0.012387767
-0.05723624 0.09202677 0.09873256 -0.12441546 -0.008711323 -0.021354824 -0.07124697 -0.08726783
00000000: f8aa d33d dd9e 8ebd d26a b93d ae59 1fbd
00000010: afc5 f8bc 9ff1 0dbd 99ef e7bb cf4c 64bd
00000020: 653b 943c c80c a7bd c57b 4e3d 46bc d8bd
00000030: a89c 39bd 48da b4bd 46a4 aa3d 66e2 af3d
00000040: bca8 cdbd 6abd 8dbd 6511 e33d a318 113d
00000050: c652 b23d 5837 c2bd 0014 673d 0ae8 a03d
00000060: eec7 f5bc 3a84 ddbb 72ab ba3d ac9c 0b3d
00000070: d4e8 123d 0056 c739 6bd9 59bd 3cb1 9cbd
00000080: a06b fd3d 3e2c 32bc 962e e33d 2c69 cf3d
00000090: 33d1 83bd aaa4 f53b 94f6 02bd f647 56bb
000000a0: 34b8 a83d 3ceb 8a3d 0c74 93bd 33b8 80bd
000000b0: 44e9 b7bd 945a d9bd 0239 a43d 2f3c a0bd
000000c0: 2816 263a 6554 99ba 99fc a63c e0a5 efbb
000000d0: c6cc 823d 30a1 8c3c be86 b53d 0ad9 d43c
000000e0: 36b6 27bb 21e9 883c 0aa0 aa3d 788e 9a3c
000000f0: a858 b43d 05d2 31bc 90d1 af38 6a07 d53d
00000100: f2af f1bd b04e 4c3c 84d2 e93d c076 80bd
00000110: 90e2 bcbc a0c6 f6bb 48ad 283d b084 413d
00000120: 00fa e73c 94f8 493d 44ad 5bbd 2467 573d
00000130: 9858 22bd a8da a03d c443 16bd 7efc d9bd
00000140: 4043 123c 8a35 853d c087 a0bb 80ac d43a
00000150: 0038 e839 26de 873d b03e 203c deb1 e4bd
00000160: f691 b6bd a01d f23b 1073 24bc 14b3 f43d
00000170: 10b8 f0bc 3aeb c33d dee6 d7bd 5e4e f3bd
00000180: 2065 3cbc f217 a2bd bc4f 15bd 20af 663c
00000190: 540f debd 7aea af3d 805d 9bbd 0e6c c43d
000001a0: 745c 273d 480a c0bc c809 e0bd a07b a93c
000001b0: 3a04 8fbd 5640 dd3d 3c5c d7bd 243f 07bd
000001c0: 3016 8dbd f6a5 a4bd 9c85 85bd 400a 4bbc
000001d0: f08b 0a3c a075 ad3c d2d0 823d 7821 51bd
000001e0: 3cd6 9ebd 68c1 d7bc 9a3e f13d b035 7abc
000001f0: 4e84 d7bd 6cdf c83d 2028 f93c 58b9 b13c
00000200: 3193 a73c f08f b03d 633b 6dbd 6887 b83d
00000210: f61e f43d cb1d 08bd 8685 9f3d 1c31 8b3d
00000220: 0ab1 ed3d 6f84 f6bc 6155 9abd 9f26 42bd
00000230: 4e2b aebd 8a81 573b b2c5 f43d e45a f83d
00000240: 9c52 bf3d 3244 3a3c ad99 e03a 038d ab3d
00000250: eef5 953d 489e 5bbc 387e 01bd c55a 463d
00000260: dbe4 aebb d6e5 b5bd 33eb 74bd fe9c cf3d
00000270: 1c26 d33d a881 47bd d7f0 e3bc 54c2 7dbd
00000280: 1740 2bbd 9e4f e73d eeaf e3bd 0939 703d
00000290: 3e23 e8bd 1a5e 78bd e885 d0bc a60d fb3b
000002a0: a04b a6bc 6f23 6ebd 6b77 68bd 94c1 9dbd
000002b0: c8bc b4bd 0c72 9dbd 6a7c f53d eb55 75bd
000002c0: 3eef d6bd c8e6 ad3d fd89 423d ec17 b03d
000002d0: 4e58 00be 8aae f3bd 3abe b7bd 4fd0 84bd
000002e0: ee26 a7ba b55f 593d d4e0 953d d62f dcbd
000002f0: 0c31 4c3d 5018 96bd 4a2f e33c bda7 1c3d
00000300: 58df a33c f025 353d 6085 ccbb 1202 a93d
00000310: 5091 d53c 8447 e03d a0f8 dd3c 2a85 87bd
00000320: 2067 a43d 40e7 dd3b 9a68 f73d 607d 62bc
00000330: 464a fd3d 6a71 95bd 38a9 803d 2cfa bebd
00000340: aac0 af3d 10e1 b93c 5857 913d 2c76 dcbd
00000350: 14a8 febd 70b3 763d b8a4 52bd 20c6 4a3d
00000360: c4e1 97bd 0047 1ebd 00cd 123a 242a 9a3d
00000370: 4c91 903d c0f0 36bc d4d1 10bd 0012 0ebb
00000380: 68f1 833d 5afa d8bd d072 1cbd 78c8 f6bd
00000390: 68cf 933c 703e 72bc d005 913d c682 cc3d
000003a0: 76e3 dabd 8497 62bd 289e a4bc 0061 a3ba
000003b0: 18bf e9bc 7cf5 a0bd 14d6 45bd 00f8 52bb
000003c0: 8ede cd3d 1c7c 02bd 780f a93d 08f0 cebd
000003d0: a02b b73b 70c6 c7bd ca38 f0bd 10f6 4a3c
000003e0: 8c70 6abd 8878 bc3d 4c34 ca3d 88cd febd
000003f0: f0b9 0ebc 50f0 aebc eee9 91bd 7ab9 b2bd

net.2.bias f4 [16]
-0.0022238758 -0.040241748 0.02880943 -0.07123917 -0.087548986 -0.028631298 -0.09010714 0.0031737238
0.01867205 0.123395495 0.03602487 0.000268455 -0.09084728 -0.051243495 -0.02037786 -0.09000592
00000000: 72be 11bb 88d4 24bd c101 ec3c d8e5 91bd
00000010: e24c b3bd 2f8c eabc 188a b8bd 40fe 4f3b
00000020: 21f6 983c c7b6 fc3d d08e 133d 6cbf 8c39
00000030: 240e babd b3e4 51bd 78ef a6bc 0655 b8bd

heads.0.0.weight f4 [10, 16]
0.04766475 0.17992944 0.1420439 -0.10368258 -0.060114585 0.24823092 -0.039028455 -0.22452864
-0.003195149 0.013710658 -0.09287575 -0.028137397 -0.20386168 0.0759867 -0.17350036 0.08604452
0.18936907 -0.16139829 -0.096884236 0.024044812 0.0016029527 0.147579 -0.013988066 0.040415764
-0.06810455 0.08345709 0.07553318 -0.20228897 0.13271499 -0.05223341 0.22386521 -0.24809274
-0.023817677 0.11296275 0.17339282 0.0032498837 -0.1341022 -0.1922491 -0.1883126 0.20129094
-0.21672459 -0.09792315 0.13104683 0.13771369 -0.21868512 0.050565373 0.030223906 0.22945073
-0.00786664 0.10616335 -0.02060749 0.22314611 -0.024518576 -0.14590536 0.04711238 -0.13232866
0.06351392 0.17277864 -0.1944479 -0.18088478 0.0034092963 -0.013623016 -0.07780686 0.20926175
0.11307536 -0.0828886 0.037231933 -0.037614167 -0.1590622 0.10328643 -0.16393365 0.030254185
0.17071222 -0.22861011 0.010957867 0.23187338 0.112904966 -0.09759246 0.039343745 -0.23473644
0.04114319 0.2173627 0.21624888 -0.0039933026 0.09163702 -0.04249127 -0.071173295 0.004808396
-0.14462514 0.10165511 0.1225636 -0.06677177 -0.056881428 -0.17321067 0.031965703 0.09942937
0.2363498 -0.23555511 -0.20977126 0.007069826 0.23003788 0.015088606 0.07039461 0.035494387
-0.030896228 0.1774274 0.18351883 -0.14513414 -0.14971861 -0.19539459 -0.060798943 -0.005631894
0.21024658 -0.24195528 0.17643829 -0.13964692 0.019420497 -0.010683524 0.14020513 -0.20913824
-0.17358331 0.006733693 0.12607354 -0.11927565 0.07748282 -0.065067634 -0.23313019 0.028534979
-0.054280292 0.14789367 0.16566898 0.16356316 0.15759313 -0.19441245 -0.2408399 0.027934462
0.071595654 -0.19330208 0.20433286 -0.027470361 -0.14651209 0.17048965 0.21896082 0.038412005
-0.08072827 0.02713266 -0.18528841 0.15408504 0.15594341 -0.045806725 -0.19719748 0.18558794
-0.20551847 -0.1322806 0.1491282 -0.12324627 0.04761365 0.20649473 -0.03160402 -0.056550324
00000000: 1d3c 433d 6c3f 383e f573 113e 8857 d4bd
00000010: b63a 76bd 3f30 7e3e 4ddc 1fbd d6ea 65be
00000020: b465 51bb aba2 603c a435 bebd 6680 e6bc
00000030: 1ec1 50be ea9e 9b3d 14aa 31be 1c38 b03d
00000040: f7e9 413e 9845 25be 3e6b c6bd a0f9 c43c
00000050: 2b1a d23a f31e 173e 342e 65bc 008b 253d
00000060: 667a 8bbd 8deb aa3d 24b1 9a3d d724 4fbe
00000070: 70e6 073e b3f2 55bd ec3c 653e 060c 7ebe
00000080: 4a1d c3bc 0459 e73d e38d 313e 00fc 543b
00000090: 1652 09be f3dc 44be 05d5 40be 361f 4e3e
000000a0: 0ded 5dbe ef8b c8bd 2431 063e d104 0d3e
000000b0: feee 5fbe a31d 4f3d 2098 f73c 22f5 6a3e
000000c0: 14e3 00bc 2c6c d93d 0ad1 a8bc 6a80 643e
000000d0: 2edb c8bc 3768 15be e9f8 403d 2a81 07be
000000e0: 9613 823d e2ec 303e 5a1d 47be dc39 39be
000000f0: 806e 5f3b 1233 5fbc 3459 9fbd b648 563e
00000100: 0e94 e73d 80c1 a9bd 8380 183d 5011 1abd
00000110: 34e1 22be d687 d33d 39de 27be a0d7 f73c
00000120: 2fcf 2e3e c518 6abe a088 333c 3770 6d3e
00000130: b83a e73d 8ede c7bd e826 213d c05e 70be
00000140: c385 283d 5494 5e3e 5970 5d3e 40da 82bb
00000150: 31ac bb3d 530b 2ebd 4ec3 91bd c08f 9d3b
00000160: 9d18 14be 8e30 d03d a002 fb3d a3bf 88bd
00000170: 80fc 68bd 235e 31be 78ee 023d a0a1 cb3d
00000180: af05 723e 5c35 71be 47ce 56be 00aa e73b
00000190: 0d8f 6b3e 3336 773c 0d2b 903d 9062 113d
000001a0: 161a fdbc 87af 353e 5cec 3b3e 0b9e 14be
000001b0: d64f 19be 8515 48be 5008 79bd c08b b8bb
000001c0: e14a 573e 20c3 77be 3dac 343e 9aff 0ebe
000001d0: bc17 9f3c f309 2fbc ef91 0f3e 5628 56be
000001e0: d3bf 31be 50a6 dc3b 6c19 013e cb46 f4bd
000001f0: 50af 9e3d 2e42 85bd aeb9 6ebe 30c2 e93c
00000200: 0355 5ebd 7071 173e 21a5 293e 1a7d 273e
00000210: 1860 213e 0f14 47be bc9e 76be d0d6 e43c
00000220: bea0 923d fbf0 45be a23c 513e 8609 e1bc
00000230: 4407 16be d794 2e3e 4437 603e e855 1d3d
00000240: dd54 a5bd 5045 de3c 3fbc 3dbe 78c8 1d3e
00000250: a1af 1f3e d59f 3bbd 23ee 49be c40a 3e3e
00000260: 6f73 52be 9174 07be 10b5 183e 8a68 fcbd
00000270: 8806 433d 5b73 533e 3873 01bd 50a1 67bd

heads.0.0.bias f4 [10]
0.23074012 0.04370595 0.088200256 -0.08115058 -0.21468048 0.038137127 -0.14878772 -0.12829621
-0.20607026 0.2151778
00000000: 2347 6c3e 0305 333d 56a2 b43d 4632 a6bd
00000010: 33d5 5bbe ad35 1c3d cf5b 18be 1560 03be
00000020: 1504 53be 9257 5c3e

heads.1.0.weight f4 [10, 16]
-0.16879658 0.07232627 0.050440658 0.17267025 0.13553147 -0.1760288 0.109819874 -0.1269888
0.008175151 -0.0915619 -0.2140373 0.07381533 -0.16681433 0.24362017 0.10075313 -0.08647549
-0.14539717 -0.23042443 -0.12504445 -0.1631001 0.02788288 0.05884089 0.21780236 0.03360486
-0.049783517 -0.11046051 -0.035167128 0.13315006 -0.24105394 -0.22789522 0.09863725 -0.07712361
-0.07299166 -0.16109574 -0.16746227 -0.18722099 -0.15115863 -0.22758 -0.116488956 0.20057148
-0.13733442 0.19102319 -0.2104708 0.029988924 -0.020712644 -0.18778943 0.006080091 0.20823851
-0.11195223 0.22959337 -0.027296942 -0.07905012 0.12440769 0.19643424 0.21477859 0.14798838
-0.22244872 -0.04991912 0.027197719 -0.11293664 0.116823286 -0.054038424 -0.2153787 -0.11056876
-0.16224775 0.095743924 -0.18292211 -0.06301886 0.026714657 0.10680039 -0.19327717 0.17246234
-0.15943624 -0.19058144 0.102155596 -0.14769371 0.18135306 0.10875596 -0.121343255 -0.05487916
-0.11328452 -0.023737967 0.00039736612 -0.0060743988 -0.16237015 -0.20748733 -0.15887795 0.042207807
0.026634615 -0.12484979 -0.04051909 -0.0072858427 0.17888924 -0.22365485 -0.111364216 -0.035525292
-0.04006033 -0.13204548 0.12546177 -0.09397179 0.026707238 -0.14122029 0.24874334 -0.14756837
-0.05144121 0.19930421 0.13578063 -0.2243498 0.15888223 -0.13243695 -0.030686945 0.10211292
0.01713283 0.19239119 -0.09327705 -0.17459503 0.016862873 0.08701019 0.18921463 -0.1270256
-0.026986767 -0.14345835 -0.18137959 -0.19447108 -0.17696607 -0.14988802 0.08225158 -0.034325182
0.15812896 0.19158733 -0.19271807 0.048339844 0.13775349 -0.20129345 -0.07117992 0.18163496
-0.18371995 0.22436862 0.021493167 0.0444886 0.20867178 -0.23253149 0.2132855 -0.22316942
0.11774596 -0.010987103 0.19518755 -0.0031568408 -0.24637316 0.033331912 0.16804983 -0.049443007
-0.23723428 -0.036281776 0.01972118 0.0626611 0.0800347 -0.032257516 -0.013088763 -0.05250594
00000000: 03d9 2cbe cc1f 943d dd9a 4e3d 78d0 303e
00000010: c3c8 0a3e e540 34be 3ee9 e03d 5a09 02be
00000020: 12f1 053c ce84 bbbd 982c 5bbe 7e2c 973d
00000030: 60d1 2abe 9177 793e a857 ce3d 101a b1bd
00000040: ffe2 14be 62f4 6bbe a70b 00be b603 27be
00000050: a36a e43c 2503 713d 9507 5f3e 40a5 093d
00000060: cde9 4bbd 1f39 e2bd 680b 10bd 7d58 083e
00000070: d8d6 76be 5d5d 69be 5402 ca3d fcf2 9dbd
00000080: a77c 95bd 48f6 24be 3b7b 2bbe dcb6 3fbe
00000090: 54c9 1abe bb0a 69be c391 eebd 9c62 4d3e
000000a0: 65a1 0cbe 959b 433e a885 57be 55ab f53c
000000b0: 90ad a9bc df4b 40be 803b c73b 7a3c 553e
000000c0: 3647 e5bd 861a 6b3e d69d dfbc 08e5 a1bd
000000d0: 75c9 fe3d 0f26 493e ebee 5b3e 448a 173e
000000e0: 99c9 63be fe77 4cbd c0cd de3c 534b e7bd
000000f0: 0c41 ef3d 6557 5dbd 3c8c 5cbe e071 e2bd
00000100: 4624 26be 6415 c43d ef4f 3bbe 0810 81bd
00000110: b2d8 da3c 2aba da3d 73ea 45be f899 303e
00000120: 4143 23be c827 43be f436 d13d 053d 17be
00000130: 9eb4 393e 72bb de3d d082 f8bd f8c8 60bd
00000140: b701 e8bd 2076 c2bc 9455 d039 c00b c7bb
00000150: 5c44 26be 8f77 54be e7b0 22be 18e2 2c3d
00000160: d630 da3c 3fb1 ffbd 58f7 25bd 14be eebb
00000170: be2e 373e c705 65be ec12 e4bd f882 11bd
00000180: 4d16 24bd ee36 07be 0d79 003e 4874 c0bd
00000190: 23c9 da3c 0d9c 10be 93b6 7e3e 2a1c 17be
000001a0: 05b4 52bd 6716 4c3e 140a 0b3e f4bb 65be
000001b0: 06b2 223e 8d9d 07be 3063 fbbc 9420 d13d
000001c0: 265a 8c3c 3202 453e 0a08 bfbd 0ac9 32be
000001d0: 0224 8a3c 6632 b23d 7bc1 413e 0013 02be
000001e0: 5a13 ddbc bfe6 12be 92bb 39be 6d23 47be
000001f0: 9836 35be 3f7c 19be 8473 a83d 9098 0cbd
00000200: 8fec 213e 782f 443e e357 45be 0000 463d
00000210: 400f 0d3e df1f 4ebe c7c6 91bd 84fe 393e
00000220: 1521 3cbe e3c0 653e 7012 b03c ae39 363d
00000230: 0eae 553e bc1c 6ebe 8467 5a3e 8686 64be
00000240: cb24 f13d 4003 34bc 3fdf 473e 00e3 4ebb
00000250: 3f49 7cbe 0b87 083d 4115 2c3e c084 4abd
00000260: 8bed 72be 339c 14bd 508e a13c 7654 803d
00000270: 3ce9 a33d 7520 04bd 4072 56bc 7810 57bd

heads.1.0.bias f4 [10]
0.09486817 0.05818249 0.102275744 -0.021836538 -0.024277458 0.1847832 0.03233711 -0.22755627
0.05154301 0.23027198
00000000: 3e4a c23d c350 6e3d f275 d13d 8ae2 b2bc
00000010: 85e1 c6bc cf37 3d3e eb73 043d 8304 69be
00000020: c31e 533d 6bcc 6b3e

heads.2.0.weight f4 [10, 16]
-0.047465373 0.15035576 -0.1789646 -0.038228452 0.1681526 -0.12400295 -0.06275325 0.0021310449
-0.036793847 -0.06925773 0.1724841 -0.04464798 -0.06766221 0.18843655 0.055682868 -0.11813092
0.14902277 -0.12268984 0.2501748 0.20758799 0.024843194 0.06817298 -0.0999255 -0.19323853
-0.17884384 0.08035443 0.12229556 -0.0040504746 -0.08176631 -0.08237161 -0.13834378 -0.15097561
0.16593693 -0.21579379 0.18355758 0.13800594 -0.06720546 -0.031394172 -0.082884185 -0.21011266
0.021118712 -0.19027801 0.0071645677 -0.08599787 -0.19341066 -0.23020147 0.22272876 0.19428658
0.22768043 0.09342313 0.11052151 0.12163639 0.18306886 0.03808825 0.024795191 0.18231928
0.11142789 -0.15287976 0.16813645 0.2403682 -0.094772756 -0.23645042 -0.043655306 -0.16327065
0.24914373 -0.052960545 -0.12642948 0.1597592 0.09675417 0.07263489 0.2258033 -0.24676949
0.119881384 -0.11826026 0.084228754 -0.08879324 0.22837904 -0.04899169 0.024242103 -0.19657919
0.15073119 -0.24746034 0.13654177 0.17667711 0.19984698 0.15135153 -0.08066808 0.051166177
0.06229647 -0.23785828 0.13501048 -0.20265497 0.09004271 0.24042521 -0.06948471 0.03417793
0.23261382 0.2061356 0.20952587 -0.17296681 0.05024848 -0.20795052 0.046851825 -0.23658562
0.029840453 0.12761857 -0.22269651 -0.037053872 -0.10336912 0.20636137 -0.024782032 0.15549323
-0.18337561 0.03488639 0.18022673 0.013868004 -0.086599134 -0.101312414 0.16965847 0.098617494
0.017764164 0.14875436 -0.13007832 -0.18883361 -0.05643311 0.18414144 -0.24179488 -0.12414694
0.061624777 0.09421089 0.1261148 0.07566324 -0.21961892 -0.080372706 0.15473215 0.043062627
0.13820533 0.18833973 0.14296973 -0.102896236 -0.11983454 -0.042745072 -0.0076864064 -0.021756947
-0.04885674 0.033517808 0.15631805 -0.17188835 0.12594484 -0.2482254 0.01791642 -0.22776449
0.2403772 -0.21355544 -0.13969922 0.16615723 0.13224512 0.19561754 0.06850228 -0.2247513
00000000: 0d6b 42bd dcf6 193e 7f42 37be 7095 1cbd
00000010: 3230 2c3e 42f5 fdbd c784 80bd 00a9 0b3b
00000020: 25b5 16bd ffd6 8dbd ac9f 303e cde0 36bd
00000030: 7c92 8abd 83f5 403e b813 643d a0ee f1bd
00000040: 6d99 183e d044 fbbd e916 803e f291 543e
00000050: f483 cb3c 469e 8b3d bea5 ccbd 52e0 45be
00000060: d722 37be dd90 a43d 1876 fa3d d8b9 84bb
00000070: 1875 a7bd 72b2 a8bd fea9 0dbe 5a99 1abe
00000080: 5feb 293e 0cf9 5cbe 85f6 3b3e 6e51 0d3e
00000090: 04a3 89bd 2d97 00bd 2fbf a9bd c627 57be
000000a0: 2601 ad3c 3dd8 42be c0c4 ea3b a71f b0bd
000000b0: 720d 46be efb9 6bbe 0213 643e 10f3 463e
000000c0: 0f25 693e a054 bf3d 1a59 e23d 801c f93d
000000d0: 6776 3b3e 6d02 1c3d 491f cb3c e8b1 3a3e
000000e0: 4e34 e43d 838c 1cbe f62b 2c3e 1523 763e
000000f0: 3818 c2bd 0f20 72be e8cf 32bd 6c30 27be
00000100: 891f 7f3e 28ed 58bd bb76 01be ea97 233e
00000110: 0d27 c63d 9ac1 943d fb38 673e 24b1 7cbe
00000120: 5f84 f53d 6f32 f2bd 2080 ac3d 3bd9 b5bd
00000130: 32dc 693e 83ab 48bd 6097 c63c 0e4c 49be
00000140: 4759 1a3e 3e66 7dbe 9bd1 0b3e d8ea 343e
00000150: b0a4 4c3e e5fb 1a3e 4e35 a5bd a093 513d
00000160: 952a 7f3d 1f91 73be 3040 0a3e c984 4fbe
00000170: 5068 b83d 0732 763e 004e 8ebd 28fe 0b3d
00000180: 5132 6e3e 3615 533e f38d 563e 361e 31be
00000190: 5ad1 4d3d fbf0 54be b3e7 3f3d 8043 72be
000001a0: f773 f43c 71ae 023e 8e0a 64be cdc5 17bd
000001b0: 30b3 d3bd 6550 533e b003 cbbc 9e39 1f3e
000001c0: d1c6 3bbe 08e5 0e3d 5b8d 383e a036 633c
000001d0: e35a b1bd e27c cfbd f3ba 2d3e f8f7 c93d
000001e0: 2786 913c 1053 183e 4033 05be 995d 41be
000001f0: 6826 67bd 938f 3c3e 1499 77be c040 febd
00000200: 436a 7c3d a4f1 c03d 3d24 013e 54f5 9a3d
00000210: c8e3 60be 729a a4bd 1b72 1e3e 7062 303d
00000220: b385 0d3e 21dc 403e a866 123e 43bb d2bd
00000230: d06b f5bd 7515 2fbd 40de fbbb a03b b2bc
00000240: 011e 48bd f849 093d d711 203e 8003 30be
00000250: aff7 003e cd2e 7ebe 75c5 923c 183b 69be
00000260: 7125 763e 47ae 5abe 500d 0fbe 1f25 2a3e
00000270: 446b 073e f74f 483e ec4a 8c3d 3425 66be

heads.2.0.bias f4 [10]
-0.1742789 0.17216481 -0.24243774 0.22415178 -0.043328024 0.044684906 -0.009718078 -0.062006462
-0.060314376 0.07353602
00000000: 2b76 32be f94b 303e 9941 78be 0b88 653e
00000010: ba78 31bd 8507 373d 9338 1fbc 7dfa 7dbd
00000020: 350c 77bd 0e9a 963d

heads.3.0.weight f4 [10, 16]
-0.042909402 0.042277515 0.21049868 0.022509575 -0.195294 -0.18827493 0.15995325 0.08740142
0.04896189 -0.12373572 -0.20473158 0.21606518 -0.23492089 -0.12352203 0.09770146 0.2160716
-0.087449566 -0.2426863 0.057168353 -0.0056345165 -0.0391532 -0.22149037 0.17438553 0.03637144
0.07135843 0.14925008 0.21725038 -0.062290777 0.02199322 -0.1587676 -0.18872064 -0.12602428
0.036379535 -0.15826035 0.14277215 0.08719942 -0.0830845 0.12235801 0.18803997 -0.0832822
0.13810955 0.1548943 0.23443636 -0.18449928 0.19989896 -0.00087903196 0.01668775 -0.0006993115
-0.16045387 -0.09130296 -0.20244996 -0.032512605 0.06323743 -0.176648 0.09541162 -0.24527809
0.11968851 -0.24644385 -0.007933706 0.1851467 -0.22681144 -0.19603764 -0.120603085 -0.0995982
-0.13660108 0.21905091 -0.1788897 0.113147765 -0.17834195 -0.081871554 -0.1992815 -0.23903
-0.13647942 0.009371348 0.13466486 0.09680804 0.09981388 0.2108791 -0.01055342 0.24463117
-0.2171077 -0.11706436 -0.19994153 -0.17227894 -0.18501773 -0.23585011 0.23587434 0.047909737
0.1268261 -0.07999747 0.057065427 -0.13304012 -0.24757147 0.023778658 0.15328646 -0.03974378
0.08001966 0.10525787 0.18086837 -0.23624879 -0.10229417 0.015591906 0.24169241 0.24149042
-0.16842408 -0.16375482 0.23714438 -0.017567923 -0.14556524 -0.12920015 0.14535338 0.15525708
0.20940639 -0.050762177 -0.07416378 -0.011712849 0.22060496 -0.22336142 0.12756453 -0.17409784
-0.027805908 0.21165003 -0.08923298 -0.10412924 -0.008867323 0.109118864 0.20149979 -0.2385337
0.19776689 -0.08536765 0.036360722 -0.13804331 0.06416086 -0.24294437 -0.15918122 -0.113536954
0.15820204 0.06650061 -0.17659676 0.03716178 0.24299017 -0.24049531 0.2181978 0.19490713
0.014740926 -0.1269233 0.112709634 0.11836514 -0.096241675 -0.14058687 -0.16618799 -0.09499946
0.053074133 0.10826901 -0.004999697 0.2169366 0.07171506 0.07428597 -0.12399939 -0.0729883
00000000: c5c1 2fbd 302b 2d3d f78c 573e 0066 b83c
00000010: 26fb 47be 25cb 40be c9ca 233e 84ff b23d
00000020: 438c 483d 2769 fdbd 28a5 51be 3140 5d3e
00000030: 1a8f 70be 1ef9 fcbd b417 c83d e041 5d3e
00000040: c218 b3bd c282 78be 5d29 6a3d c0a1 b8bb
00000050: 1b5f 20bd 5fce 62be 1f92 323e 38fa 143d
00000060: 5e24 923d 03d5 183e e276 5e3e 9d24 7fbd
00000070: 202b b43c f993 22be fc3f 41be 820c 01be
00000080: b502 153d 000f 22be dd32 123e 9c95 b23d
00000090: 3528 aabd d696 fa3d 8d8d 403e dc8f aabd
000000a0: 976c 0d3e 9d9c 1e3e 1610 703e 61ed 3cbe
000000b0: 50b2 4c3e d66e 66ba c0b4 883c 0052 37ba
000000c0: 054e 24be 0cfd babd 0b4f 4fbe f02b 05bd
000000d0: a082 813d 37e3 34be 2b67 c33d 2e2a 7bbe
000000e0: 401f f53d c75b 7cbe 60fc 01bc 1997 3d3e
000000f0: 4241 68be 17be 48be c0fe f6bd 24fa cbbd
00000100: 27e1 0bbe e24e 603e dd2e 37be 04ba e73d
00000110: 469f 36be 46ac a7bd 7310 4cbe 48c4 74be
00000120: 43c1 0bbe 488a 193c 96e5 093e 4b43 c63d
00000130: 386b cc3d b1f0 573e 40e8 2cbc 9880 7a3e
00000140: 7b51 5ebe 70bf efbd 79bd 4cbe e469 30be
00000150: 4a75 3dbe b182 71be 0b89 713e 003d 443d
00000160: b3de 013e b7d5 a3bd 70bd 693d ab3b 08be
00000170: 6083 7dbe 76cb c23c 20f7 1c3e 60ca 22bd
00000180: 59e1 a33d 7091 d73d 8f35 393e 34eb 71be
00000190: 9b7f d1bd 3275 7f3c 377e 773e 4449 773e
000001a0: 5d77 2cbe 58af 27be fad5 723e 9bea 8fbc
000001b0: 0e0f 15be 0b4d 04be 84d7 143e b6fb 1e3e
000001c0: a16e 563e 00ec 4fbd 2ee3 97bd 40e7 3fbc
000001d0: 44e6 613e dbb8 64be 47a0 023e b446 32be
000001e0: 37c9 e3bc c9ba 583e c8bf b6bd b641 d5bd
000001f0: 4048 11bc b679 df3d f655 4e3e 2e42 74be
00000200: 6783 4a3e 3cd5 aebd fbee 143d 3a5b 0dbe
00000210: c566 833d 69c6 78be 6700 23be 1086 e8bd
00000220: b7ff 213e 7931 883d c8d5 34be f336 183d
00000230: 6ad2 783e 6744 76be 3e6f 5f3e bc95 473e
00000240: ed83 713c 2ef8 01be 4fd4 e63d 6c69 f23d
00000250: 5b1a c5bd 01f6 0fbe 2f2d 2abe 148f c2bd
00000260: 4364 593d 25bc dd3d 80d4 a3bb a124 5e3e
00000270: 58df 923d 3e23 983d 64f3 fdbd e47a 95bd

heads.3.0.bias f4 [10]
0.1677443 0.12688185 -0.030418199 -0.1667725 -0.23319857 0.014118654 -0.16104473 -0.04036994
-0.04063778 -0.23322733
00000000: 29c5 2b3e 51ed 013e 962f f9bc 69c6 2abe
00000010: 9bcb 6ebe ed51 673c e9e8 24be f35a 25bd
00000020: cd73 26bd 25d3 6ebe
