results/best_model_regression_MLP_policy.ckpt (torch, 11713 bytes, 12 tensors)

net.0.weight f4 [64, 4]
00000000: d59e 8fbe 27fd fb3e 79a4 013e 1488 a8be
00000010: d36b 8d3e f11c c0be 8dac ec3e e56e a3be
00000020: 6ab2 133e 68de 1e3e c4d2 f73d 7f74 d43e
00000030: b0a8 54be b426 58be a0d7 ddbe 4019 a8bc
00000040: 13ae 72be 2f9b b63c 8dd9 d0bd 5824 2c3e
00000050: 4ec3 de3e 26c9 193e 0a51 22be 94ba 78be
00000060: 58a4 e0be d21c d63e b13c c6bd 17cc c93d
00000070: 0932 833c 1862 a4be 8ad0 8e3e 442c 8e3e
00000080: b981 d33c bf27 91be 5c8d 59be 3f8d f63b
00000090: 2843 92be 5ad6 8ebe 40bf 98bd 3c6e 13be
000000a0: 74da ff3d 2a56 04be 7f43 83bd c46b 43be
000000b0: f0c4 e8be 0d4c e03e 411d c33d ce26 e53e
000000c0: 6807 a5bd 14ac 00be ccaa f0be 545c 42be
000000d0: 2f6a a93e b051 f9be 00ff 33be 87a6 9b3e
000000e0: 6d2b 923e de36 3a3e 2e2e d0bd e8a5 25bd
000000f0: a86b c8bd fb85 3fbe f4c9 523e a401 30be
00000100: dad0 8fbe 619a e53d d009 b9be 1e3d ddbd
00000110: 1959 843e a439 3f3e 3b86 d93e 531f afbe
00000120: 8073 8e3b ec31 17be 622f 8fbe 8203 90be
00000130: 9aec 023e 8d31 5e3d 5cb1 81be 7a73 b3be
00000140: 8e41 d5be 5fa5 f93e bc38 b3bd 3bc5 f1bd
00000150: 8845 3cbe de0a 80be 781d eabe 8049 96be
00000160: 3ec6 9d3e f609 e63d 53f2 31be dcf9 3ebe
00000170: e04a a33e 4d0e ba3e e983 f63e 4b0d 173e
00000180: e697 793e 0098 1bbd e98b 94be 6ccc fabe
00000190: 7f9b 9a3e 3485 9abd 8f33 523e f76d b33c
000001a0: 20ee eebe 402f 7bbe 3acd 0d3e 1042 cfbd
000001b0: b197 f6be ae4c 323e c2c6 883c f4f0 25be
000001c0: 0733 4d3e d048 d53d 5ddb 3fbe 753a e53e
000001d0: ab88 813e cce9 853d 0dcc bebd 8ba1 d7be
000001e0: c445 c43e 6bf6 06be a1bb a6be 22b3 a23e
000001f0: 131f 383e 43f5 003e 9097 c6bd 21c5 1fbe
00000200: 5433 a83d 61af c43e 7ef6 8c3d 96ae 74be
00000210: c1fc fc3e 0248 003c 3b11 c93e d32b f43d
00000220: 87fe e33e 0581 933e 05cd 81be 11e6 b33e
00000230: 00cd 523b e27e cdbe 3893 d6bd 9611 e7be
00000240: b5e3 83be 80d7 b4be 9127 af3e 4552 dabd
00000250: 50b3 b6bd 6359 723e 3c73 4d3e 804e aabe
00000260: 29f1 393e 0db6 563e f1ff ccbe f938 dd3e
00000270: cef0 9bbe 1f1a 48be 1b84 d3be 78ff e93e
00000280: 7f4c c23d b644 d73e e571 f53c 2ff5 893e
00000290: 6479 23be 063b ccbe 3ce6 9f3d 40a3 36bd
000002a0: 62e7 4abd 6b7c 7bbe 76b5 2d3c 9693 133e
000002b0: 9d22 363e 7973 cfbe 24a7 743e 90f8 473d
000002c0: f5b7 af3e 83d2 b33e e63e c9be 7dcf f53e
000002d0: 059c fcbe 1933 923e d392 063d 619e 6f3e
000002e0: e618 8bbe 18fb 993e 67a0 7ebe 149a e1be
000002f0: c1ac 2b3e ff9a 8a3e 0a6a fc3e d0b6 5fbd
00000300: c1cf f43e e601 a33e fa54 80be a2d0 c6be
00000310: ac49 903e 5c7f 8bbe 7387 683e 8e39 dcbe
00000320: 5347 bc3e 9057 1c3e dc11 61bd 4b8b 6d3e
00000330: 2242 b6be 80da dfbd d250 e83b 74ec 93be
00000340: 307a 02be 86df 59be 1e61 f53e 19f6 da3e
00000350: 1201 de3e a660 d23e 55e4 f3be 81f0 2d3e
00000360: e70a 3f3e 507f babe 51e8 513e 23a3 89be
00000370: c93a a73d 7409 2c3e 9d5b de3e fef9 84be
00000380: 90b8 cabe f676 eb3e b624 573e 8dca 783e
00000390: 53c3 373e 738e 35be 9ab7 993e 339d dfbe
000003a0: 8832 893d 6ab9 643e 59e6 ae3e 32af 7fbe
000003b0: 1a07 adbe a8e9 3f3e 584e cbbe 8ec0 d4be
000003c0: ba39 e6be 5c49 78be 7875 c3bd fc99 97be
000003d0: 9e0a 57be 490a e2be 179e 9e3e 59f0 e7bd
000003e0: d0b6 a1be bb65 023e 069e bebe 4235 b33e
000003f0: 5859 943e 2a6c fabe 72d3 c7be 3179 a8be
-0.28050867 0.49216577 0.12660398 -0.3291632 0.27621326 -0.3752208 0.46225396 -0.31920543
0.14423528 0.15514529 0.12100747 0.4149513 -0.20767474 -0.21108514 -0.4332857 -0.020519853
-0.23699217 0.022290794 -0.101977445 0.16810739 0.4350838 0.15018138 -0.15851226 -0.24289924
-0.43875384 0.41818863 -0.09679545 0.0985338 0.01601507 -0.3210609 0.27893478 0.27768147
0.025818693 -0.28350636 -0.2124533 0.007524162 -0.2856686 -0.27897912 -0.07458353 -0.1439752
0.124928385 -0.12923494 -0.06409358 -0.19084078 -0.4546275 0.43808022 0.09527064 0.44756168
-0.08058053 -0.12565643 -0.47005308 -0.18980533 0.33088824 -0.48695135 -0.17577744 0.30400488
0.28548756 0.18184993 -0.10165058 -0.040441424 -0.09786159 -0.18703453 0.20584852 -0.17188126
-0.2808903 0.11211086 -0.361403 -0.10802673 0.25849226 0.18674332 0.42485222 -0.34203586
0.0043472648 -0.14765137 -0.27965838 -0.28127676 0.12785569 0.054246474 -0.25330627 -0.3504904
-0.41651577 0.4875898 -0.087510556 -0.11805197 -0.18385899 -0.2500829 -0.45725608 -0.2935295
0.3081531 0.11232369 -0.17377596 -0.18650001 0.31893063 0.36339036 0.48147514 0.14751165
0.24374351 -0.037986755 -0.29012993 -0.48984087 0.3019676 -0.07544938 0.2052748 0.021903021
-0.4666605 -0.24529743 0.13847819 -0.10120022 -0.48162606 0.17412063 0.016696338 -0.16205198
0.20038997 0.104142785 -0.18736024 0.44771162 0.25299582 0.06538734 -0.09316263 -0.42115435
0.38334477 -0.13179938 -0.32565024 0.31777292 0.17980604 0.1259356 -0.09696877 -0.15602542
0.08212915 0.38415053 0.06882952 -0.23894724 0.49411586 0.007829668 0.39270958 0.11922421
0.44530126 0.28809372 -0.2535173 0.35136464 0.0032165647 -0.40135866 -0.104772985 -0.45130605
-0.25759664 -0.35320663 0.34209874 -0.10660223 -0.0892092 0.23666911 0.2006349 -0.33263016
0.18158402 0.20967884 -0.40039018 0.4320753 -0.30457157 -0.19541214 -0.41311726 0.4570272
0.09487247 0.4204461 0.029961536 0.26944873 -0.15964276 -0.3988878 0.078075856 -0.04458928
-0.04953707 -0.2455918 0.010602346 0.14411768 0.17786641 -0.40517786 0.23891884 0.048821032
0.34320036 0.35121545 -0.393058 0.48009863 -0.49337783 0.2855461 0.032854866 0.2340026
-0.27167434 0.30074382 -0.24865876 -0.44062865 0.16765119 0.27071378 0.4929965 -0.054617703
0.47814754 0.31837386 -0.25064832 -0.3883105 0.28181207 -0.27245605 0.2270792 -0.4301266
0.36773166 0.15267777 -0.054948673 0.23197667 -0.3559733 -0.109303474 0.0070897127 -0.28891337
-0.12741923 -0.21276674 0.47925657 0.42765883 0.43360192 0.41089362 -0.4763514 0.16986276
0.18656503 -0.36425257 0.20498778 -0.26882276 0.08165509 0.16800481 0.4342927 -0.2597198
-0.39593935 0.45989197 0.21010098 0.24296017 0.17945604 -0.17730121 0.3002289 -0.4367462
0.06699091 0.22336355 0.34160116 -0.24969175 -0.3379448 0.18741477 -0.3970821 -0.41553158
-0.44965917 -0.24246734 -0.0954389 -0.29609668 -0.21000144 -0.44148472 0.30979988 -0.113251396
-0.31584787 0.1273412 -0.37229937 0.3500157 0.28974414 -0.48910648 -0.39028507 -0.32904962

net.0.bias f4 [64]
00000000: 5d18 89be 44ae 7e3d 629f fbbe 38ca bdbe
00000010: 1950 6b3e 7e15 25be 5d55 4ebe a21f d5be
00000020: 422c 503e 309f 103d c2a9 43be e78f 9bbe
00000030: c8c6 d93d 3517 0e3e 9e71 603e 9e3f 153e
00000040: 84e8 9ebd 9461 c6be c4f8 a23e da42 1abb
00000050: ce66 abbe 96c5 dc3e 351a 903e bc94 c9be
00000060: 3076 7dbe 16c7 30be 8be7 94be 8bfa 6c3e
00000070: 956d b7be 382c ef3e 907d 56be b445 983e
00000080: 85eb 683c 34f5 63be 5392 a93e 2c56 c3be
00000090: a65d 87be 8a6f 693d 749f c93e 5b3b 5bbe
000000a0: 4a27 9cbe ec8d a4be 8031 61be 4896 33be
000000b0: 48e5 f2bd 71c6 92be bf1d 203e 8c84 b53a
000000c0: 4bb6 a8be b750 93be 5253 de3d 425b a2bb
000000d0: 378f b63e a2a3 96bd 4835 cebe 0606 bcbe
000000e0: a769 16be be74 e4bd 3416 683d 28a7 e5bd
000000f0: 70ea 3c3e aabd 27be b1bc bb3e 7bce ef3d
-0.267764 0.06217791 -0.49145037 -0.37068343 0.22979774 -0.1612148 -0.20149751 -0.41625696
0.20329383 0.035308063 -0.19107726 -0.30383226 0.10633618 0.1387604 0.21918342 0.1457505
-0.077591926 -0.3874632 0.31830418 -0.0023538382 -0.3347687 0.43119496 0.28144994 -0.39371288
-0.24752116 -0.17263445 -0.29082903 0.2314245 -0.35825792 0.46713424 -0.20946336 0.2974068
0.0142163085 -0.22261506 0.3311945 -0.3815168 -0.26438636 0.056991138 0.39379466 -0.21409361
-0.30498725 -0.32139528 -0.21991539 -0.17537796 -0.11860138 -0.28667024 0.15636347 0.0013848706
-0.32951578 -0.28772518 0.10855736 -0.0049547264 0.3565614 -0.07355429 -0.40275025 -0.36723346
-0.1468874 -0.11155079 0.0566618 -0.11213523 0.18448806 -0.16380945 0.36667398 0.11709305

net.2.weight f4 [16, 64]
00000000: dc8e 29bd 780b e43d a6b2 ed3c 9cf9 adbd
00000010: b75e 94bd 14a9 9a3d 5cdb 5d3d 74c5 c13d
00000020: ddda 12bc 3a0d b33d 1fc2 833d 5b4e 123d
00000030: 2800 edbc fcff f53d 1d9e b73c 1bdb f5bc
00000040: 31ef 4abb 52d9 f53d 50f1 ab3d 3bfb 12bc
00000050: 2adf f43d 5cd6 603d 6230 8ebd fdf2 eebd
00000060: 8740 993d 5370 ea3d d5ab 90bd f12c 503d
00000070: e1e2 213b 303a ecbc 5ade 16bd f362 023d
00000080: d158 c93c b40c a73d 209e 2f3d 44fd 683d
00000090: f2c5 e63d 0043 133d ee69 803c 0563 46bd
000000a0: 2dc3 b53d 9025 a93c 293d 9f3d 9087 f83d
000000b0: 6a9d fcbc 6856 ae3d d2f1 e7bc 0904 e13d
000000c0: 147d c33d 7ced 2fbd c64a d23a 00a6 56bd
000000d0: ae18 5bbd dbec e6bc 037a 563a 5a49 3ebd
000000e0: 5fb8 f7bd 6a1d 9cbd 2454 5fbc 2872 23bd
000000f0: 3625 be3d 66d3 d43d 952e 9d3d 11a4 6c3d
00000100: 3b47 c8bd fb2a f33d 9e04 dfbd d052 28bd
00000110: 513c b2bd aaf2 3b3d d21c d3bd 3b63 72bd
00000120: 389d a2bd 0c5c 9dbd d802 6fbd b9de fd3d
00000130: e046 27bc 4721 233d 7864 fdbd 0a9d e33d
00000140: ab2d d4bc e12d e8bd c06c b03d 1071 0abd
00000150: b384 ea3d 28e2 adbd e3c0 ecbd b0b9 bdbd
00000160: 8cc9 5d3d 380b 45bc d029 edbd 5d00 bf3c
00000170: f0bf e2bb 335f 3e3d 986b 80bd f88c b6bd
00000180: ce6f af3d 9abb 6fbd 94c3 b53d f890 cf3d
00000190: 7a07 b3bd f990 6bbd 7f68 813c ced2 f0bd
000001a0: f125 213d b854 55bd 9364 60bd 6718 c1bd
000001b0: b3a9 723d 1ec5 a0bd 7ceb c9bd 2012 01bd
000001c0: 5d94 8dbd f6e1 f8bd b465 523d 68cc 42bd
000001d0: c917 b73d 02c2 b43d f044 a3bd ee51 92bd
000001e0: c53b 31bd 0af4 953d 59f8 3ebb c8e8 36bd
000001f0: 4a96 9e3d d2c6 f23d 8e6a be3d bec3 c3bd
00000200: 330b e9bc 1830 b7bc 34ce d53d c467 84bd
00000210: b226 93bd 3204 27ba c815 f9bc 275d 493d
00000220: 30f0 783c 7ad8 98bd 6c26 ba3d c3fd 9b3d
00000230: f83d e03c 7481 e4bd 409f 653d 80e1 ae3d
00000240: 948a 0e3d 340a 52bd 505a 093c 8cb0 44bd
00000250: 6ca3 ed3d 9c32 f73d 854d 8cbc 2f7a b1bd
00000260: b897 963d 0e97 793d 352e 8c3d 1e9d bbbd
00000270: 4a6e 243d efd7 62bd 12d6 debd 634f b8bd
00000280: f438 4e3d 217c 343d c1c4 e5bd f02b 913d
00000290: 6a05 c93d 5d7d bc3d 5877 8c3d 8d05 b5bc
000002a0: ebbc a63d e7e5 cc3d 3d6b 893d 20b1 b3bd
000002b0: 8740 3cbd 3a7d c83d 037a c43d 9918 9e3d
000002c0: 3a82 60bd 200f bbbc 030e c4bd 676a 8dbd
000002d0: 2821 c23d ff10 d7bd 82ae eebc 4d11 c23c
000002e0: c961 9dbd d1a0 fd3c 351d bbbc ccc2 4c3d
000002f0: 4073 c4bd 238a 9f3c 25ef eabd 0ad2 9e3d
00000300: b9e2 f93d de76 3ebd 0e47 ae3c d4e4 83bd
00000310: 9067 9ebd 5900 77bd cab2 71bd 901e d63c
00000320: 9951 60bc 2099 0f3c 5fa9 c8bd 6ab7 9fbd
00000330: dc9f ddbd 1719 b2bd 8c0b dc3d 16cb 333d
00000340: e971 f1bd ce63 a8bc 305d 243c bcc6 8a3d
00000350: fef6 f23d 6845 f73c 507b ba3d d734 2bbd
00000360: b586 cdbb c1cb 94bd a7f9 d93c 7ee3 eb3d
00000370: 812c a63d 2595 013e efc6 5bbd fffb 4fbc
00000380: b0e2 e83c ab80 d33d 02b3 e5bd e872 7bbd
00000390: cd38 803c 1e86 93bd c2ef 493d 2548 dfbb
000003a0: 4edc f2bc 61d0 843d be90 bc3d 2ca7 f63d
000003b0: 3e94 723d 6cd0 3dbb ba51 d73d 9fd9 cc3d
000003c0: fa5e 74bd cd65 603d d82a 8f3c 8d3b 66bd
000003d0: 88f1 efbc dda8 edbc 2975 b7bd ef32 1cbd
000003e0: 4fd9 2d3d 9774 b73d d458 1f3c 2ae9 f7bd
000003f0: b094 873d 6ce8 24bd 0b80 e93d 29b1 fbbd
-0.041396007 0.11135 0.02901585 -0.08494875 -0.07244628 0.0755178 0.054164276 0.09461489
-0.008963314 0.08742757 0.0643351 0.035719257 -0.028930739 0.12011716 0.022414261 -0.030011704
-0.0030965323 0.12004341 0.08395636 -0.008971031 0.11956628 0.05489193 -0.06942822 -0.1166744
0.07483011 0.114472054 -0.07064024 0.05082411 0.002470188 -0.02883634 -0.036833145 0.031832647
0.024578484 0.0815672 0.04287541 0.056882158 0.11268224 0.035952568 0.015675511 -0.048434276
0.088751175 0.020647794 0.07775337 0.121352315 -0.03083678 0.085125744 -0.028313551 0.10987098
0.09545341 -0.042951092 0.0016044013 -0.052404404 -0.053490333 -0.028189113 0.00081816333 -0.046456672
-0.12095713 -0.07622798 -0.0136309005 -0.03990379 0.09284441 0.103918836 0.076749004 0.057773653
-0.09779211 0.11873432 -0.108895525 -0.0410946 -0.08702911 0.04588572 -0.103082314 -0.059176665
-0.07940143 -0.07683572 -0.05835232 0.123959966 -0.010209769 0.039826658 -0.123726785 0.11113937
-0.025900682 -0.11336876 0.086144924 -0.03379923 0.114510916 -0.084904015 -0.11560228 -0.09263933
0.05414729 -0.012026601 -0.11580241 0.023315603 -0.0069198534 0.046477508 -0.06270522 -0.089136064
0.08566247 -0.05852852 0.08875194 0.101350725 -0.087416604 -0.057511304 0.015796898 -0.11758958
0.039342824 -0.052082747 -0.054783415 -0.094284825 0.05924387 -0.07850097 -0.09859368 -0.031511426
-0.06913064 -0.12152474 0.051366523 -0.04755822 0.089400835 0.088260666 -0.07972133 -0.07144533
-0.04326989 0.073219374 -0.0029139726 -0.04465559 0.07743509 0.11854328 0.092976674 -0.09558819
-0.028447723 -0.0223618 0.10439721 -0.06465104 -0.07185115 -0.00063711696 -0.030405894 0.049161103
0.015193984 -0.07463165 0.0908936 0.076167606 0.027373299 -0.11157504 0.056060076 0.085391045
0.034800127 -0.05127926 0.008383349 -0.04801993 0.11603436 0.120702 -0.017126808 -0.08665883
0.07353157 0.060935073 0.06844751 -0.09160827 0.040144242 -0.05538171 -0.108806744 -0.08999517
0.050347283 0.04406369 -0.112191685 0.070884585 0.09815486 0.09203599 0.068587005 -0.022097373
0.08141502 0.10004788 0.06709907 -0.08774018 -0.045959976 0.0978951 0.095935844 0.077195354
-0.054811694 -0.02283436 -0.09572985 -0.0690506 0.0947898 -0.105012886 -0.029135946 0.02368989
-0.07684667 0.030960472 -0.022841075 0.04999046 -0.09592295 0.019475048 -0.114713944 0.077549055
0.12201447 -0.04650008 0.021274116 -0.0644013 -0.07734597 -0.060303066 -0.059008397 0.02613762
-0.013691329 0.008764535 -0.0979793 -0.07798655 -0.108215064 -0.08696192 0.1074439 0.04389485
-0.11789305 -0.020555403 0.010031983 0.06776187 0.11863516 0.030184463 0.09105551 -0.04179844
-0.006272162 -0.072654255 0.026608301 0.11518 0.08113957 0.1265455 -0.053656515 -0.012694358
0.028428406 0.10327276 -0.11215784 -0.06138888 0.015652085 -0.07203315 0.049300916 -0.00681402
-0.029646065 0.064850576 0.09207295 0.12043604 0.059223406 -0.002896334 0.10513635 0.100024454
-0.05966089 0.054784585 0.017476484 -0.056209136 -0.029289976 -0.029011184 -0.089578934 -0.03813451
0.04244357 0.089577846 0.009725768 -0.121050194 0.06620157 -0.040260717 0.114013754 -0.1228965

net.2.bias f4 [16]
00000000: 3170 db3d 7b90 f03d adae 99bd 88d4 d8ba
00000010: da81 023e 9ffe a2bd 2637 9abc 7f68 b5bd
00000020: 0cb8 b83d 6169 8f3c 084a 4a3d b258 b43d
00000030: 182c b6bc f8e4 ffbd e9d1 8c3b c167 4bbc
0.10714758 0.117463075 -0.0750402 -0.0016542831 0.12744847 -0.07958721 -0.018825125 -0.08857822
0.09019479 0.017506303 0.049387008 0.0880598 -0.022237822 -0.12494844 0.004297484 -0.012414874

heads.0.0.weight f4 [10, 16]
00000000: be0b bd3d 550b f53d df46 fabd 0b63 c7bd
00000010: 2b65 243e 0932 943d 761e 713d 2aac e93d
00000020: 6c13 ee3d d991 36be 9fd9 bb3c 2696 d73c
00000030: 173a 74be 184f 593d 7623 38ba 9a1f 483e
00000040: 26dd 71be d07b 733e 5dbe f5bd ee77 193e
00000050: fa9b 3f3e 3ee6 eabc 3949 03be 81c3 2bbd
00000060: 1ca8 1fbe 91b6 073d f55b dc3d 2b86 5d3d
00000070: f737 15be f2e0 0b3e 8497 6d3e d493 96bd
00000080: 90e8 013e 80d3 9dbc 6f66 cc3d 358f 39be
00000090: 6656 5dbe 80cd 21bc dd95 5abe 22a1 b23d
000000a0: 76a6 6f3e 20b5 54bd 1cae d0b9 430a 203d
000000b0: bede fcbd c090 51bc cf37 873d a731 4c3e
000000c0: 337f 51be edbf 05bb 9d26 4fbe 89dd 9cbc
000000d0: dabb 7cbb 18b3 cfbd e7f1 1c3e ea9e 2f3e
000000e0: ac9f c6bd 8b4b 03bd 603d 97bd daee 153c
000000f0: 593a a73d aaae 6c3e e314 68be 8416 d63d
00000100: dc75 17be d508 4ebe 57bc 473e 74cc 92bd
00000110: f2b0 0dbe bcef 913d d186 4abd 9baa 67be
00000120: 0c88 05be 23b1 d2bd 81b9 89bc 4cd3 26be
00000130: a391 73be 2c62 0e3e aa1a 59be 15e6 e0bc
00000140: ed45 593e ab66 bfbd 78fe 2bbe 3d74 843d
00000150: 2ff7 5c3e 7805 f7bc ce28 8bbc f988 ea3d
00000160: 4044 003d a606 3a3d 4999 053e 7388 ed3d
00000170: cd23 37be 8820 cabd 619b 2c3e 6a12 143d
00000180: 700a 793d 3da6 753e bf44 213e d019 d13d
00000190: 24fd 773e 3d1d 5fbe 1b85 1f3d 7efd 8a3d
000001a0: 100e 32bd 86de eabd 2294 3f3d a07e 52be
000001b0: dfff d3bd c46c 423e e486 b9bd 0beb 8dbd
000001c0: 926e eb3d ffdc 7fbd cf12 223d 002e 80be
000001d0: 7e3a 123e e7f8 60be 80a3 133d 022c 7bbe
000001e0: 64b8 5bbe c3f0 503e 9555 0abe 5b5a 2abc
000001f0: 4290 673c 628e 6b3e 74d6 a83d c109 003e
00000200: 8527 d6bd e668 a9bd c4d2 3b3e 01d3 c03d
00000210: 7ed9 7b3d ec7a 3ebe 760e 4abe 8b83 563d
00000220: ce1c 40be 9fd9 353e 7542 583e ec43 cfbd
00000230: 70ca 22be 16d1 773e 7c05 07be 6ebb 49be
00000240: eaf4 36be 34ef 3d3d e4fc 4a3d 1719 283e
00000250: e0be 503e 556c e03d 4e5e 1e3d 95f0 693e
00000260: 604b d3bd 310b 28bd 80d4 5b3e fd61 a7bd
00000270: 0147 0c3e 789a 5b3d 0135 ba3d f6aa 5fbd
0.09230755 0.11965052 -0.12220549 -0.09735688 0.16054218 0.07236106 0.05886694 0.11409791
0.11624798 -0.17829074 0.022930918 0.026316714 -0.23850285 0.053053945 -0.0007024327 0.19543305
-0.23619518 0.237777 -0.119991995 0.14987156 0.18711844 -0.028674241 -0.12820901 -0.041934494
-0.15591472 0.033133093 0.10759727 0.05408303 -0.1457213 0.13660029 0.2320233 -0.07352415
0.12686372 -0.01926589 0.09980475 -0.18121035 -0.2161499 -0.009875655 -0.21346231 0.0872214
0.23403344 -0.051930547 -0.00039802573 0.039072286 -0.12347172 -0.012790859 0.066024415 0.19940816
-0.20458679 -0.0020408586 -0.20229574 -0.019148605 -0.0038564117 -0.10141581 0.15326653 0.17150465
-0.09698424 -0.032054465 -0.07384753 0.009151185 0.08165426 0.23113504 -0.22664218 0.10453513
-0.14791054 -0.20120557 0.1950544 -0.071679026 -0.1383703 0.07125804 -0.049444977 -0.22623675
-0.13040179 -0.102876924 -0.016812088 -0.16291541 -0.23786025 0.13904637 -0.21201578 -0.027453462
0.21218081 -0.09345754 -0.16796291 0.06467483 0.21578668 -0.030153975 -0.01698723 0.11451907
0.03131509 0.045416497 0.13046755 0.11598291 -0.1788475 -0.09869486 0.16856147 0.036150374
0.06080097 0.23989196 0.15748881 0.102100015 0.24217659 -0.21788497 0.0389453 0.06786631
-0.043470442 -0.11468224 0.04677213 -0.20556116 -0.10351538 0.18986803 -0.090589315 -0.069295965
0.11495699 -0.062466618 0.03956872 -0.25035095 0.14280125 -0.21969949 0.036044598 -0.24528506
-0.21457058 0.20404343 -0.1350921 -0.010397519 0.014133515 0.23003533 0.08244029 0.12503721
-0.104567565 -0.08271961 0.1834212 0.09415246 0.061486714 -0.18601578 -0.19732079 0.052371543
-0.18760988 0.17758797 0.21119101 -0.10120377 -0.15897536 0.24200854 -0.13185686 -0.19700405
-0.17866865 0.0463707 0.04955758 0.16415821 0.20385313 0.10958163 0.038664155 0.22845681
-0.10317111 -0.041026298 0.21467781 -0.08172987 0.13698961 0.05361411 0.09092141 -0.0546064

heads.0.0.bias f4 [10]
00000000: a341 58be b8d7 393e 70b8 4f3e 2537 48be
00000010: 823a eabd 44d8 083c 4d1d 013e 0ace 04bd
00000020: b6aa dbbd 53eb 493e
-0.21118788 0.18148696 0.20285201 -0.19552286 -0.11436941 0.008352343 0.12608834 -0.032423057
-0.1072592 0.19718675

heads.1.0.weight f4 [10, 16]
00000000: a7bd 02be ac73 673e 0422 883b 656b 043e
00000010: 8ff7 703d 504e 2b3d 188b 3c3e 2d3c 4abc
00000020: fc9f 343e 7f53 a43d 0b1f 11be 38a8 293e
00000030: 5d31 33be 7649 053e f2a9 50bd 1604 9a3d
00000040: 667e f6bc 4621 493d e6ff 9fbd 40ef d33d
00000050: 808c ea3d 0a85 6abe 0d2e 5f3e 194f 4ebe
00000060: 0487 e4bd 933c c93d c5cc 6b3e 7fb1 a83d
00000070: 11bb 0ebe c033 343d c259 19be 1746 f03d
00000080: d88c 7d3c 79c9 db3c 26bc 41be 0ab1 0a3e
00000090: 3aa5 723e c0be 2ebe 152f b43d 42a8 dbbd
000000a0: a43b 89bd 4b90 653e 4faa 6cbe 9769 37bd
000000b0: e912 be3d a889 e83d 8dcb c2bd 651b 09be
000000c0: 2ffb 463d e420 66be 6fa7 133d d3e0 23be
000000d0: c286 3fbd eefd 643e ec86 56be 026b 00be
000000e0: def3 44be f806 173e 4033 563e fd77 24be
000000f0: a447 243e c4fb 233e 6645 59be 6c23 ac3d
00000100: d5b0 e93d 29d6 2cbd ffb8 2d3e 254f 72bc
00000110: deed f2bc 4685 0f3e ee2b 6abe ac74 7bbe
00000120: f03d 3e3d 82a6 e53c a713 a03c ba5c 1abe
00000130: cb75 4d3e 684c 1ebe 5ec3 dfbd 0396 57be
00000140: e6f8 7dbe 14ae 753d 4069 c8bd 35e2 1e3e
00000150: 25b7 743e a3ea a83d 6219 603e 34f0 31be
00000160: 1edb 063e 0ef3 0b3e 5c5a d1bd cb02 7bbc
00000170: ce1e 19be 1040 c53c 8ce6 71be cb89 16be
00000180: 13ba 59be 1c33 01bd 4890 e83c bddb 4abe
00000190: 26f8 b5bd 2719 1a3e 1d74 763c a139 3f3d
000001a0: 901b e2bd c38c 90bd abbe 62be 58f4 703e
000001b0: ea82 003d ccd2 eb3d 5f5b 183e 2079 633e
000001c0: 943e 2ebe 4462 923d 3542 5fbe 97a4 bc3d
000001d0: 0202 05be 2840 cd3d c379 39be 2514 0a3e
000001e0: da52 373e 822f 0f3e f8e0 54be 2bfd 1e3e
000001f0: e784 1fbe 3870 6fbe 5d9b 243e c8bc 293d
00000200: 9245 acbd 5ed6 5cbe f792 893d eb3a d7bd
00000210: 68ee 47be 6a21 e9bc 6ff9 56be b125 013e
00000220: f6ad 28be 8d3e a8bd c540 7abe d27b 04bd
00000230: 1b14 98bd 5442 0d3e 39fc 5cbd 145f 2f3e
00000240: 5df0 5d3e 3702 493d 3526 b3bd 2f4a 55be
00000250: 7b57 31be 8c76 aebd 88bc 21be c778 063e
00000260: 0c4d a5bd 125e 2ebc 22cd 0c3c d60c 5fbe
00000270: 1d87 533e 24af c3bd d12b 4dbe f3c3 c1bb
-0.12767659 0.22602719 0.0041544456 0.12931593 0.05882984 0.04182273 0.18412435 -0.012343449
0.17639154 0.08023738 -0.14171998 0.16568077 -0.174993 0.13016304 -0.050943322 0.075203106
-0.030089568 0.049103998 -0.07812481 0.10348368 0.114525795 -0.22902313 0.2179491 -0.20147361
-0.11158565 0.09826007 0.23027332 0.0823698 -0.13938548 0.043994665 -0.14975646 0.117321186
0.015475474 0.026829468 -0.18919429 0.13544098 0.23695841 -0.17064953 0.08798043 -0.10725452
-0.06700829 0.22418325 -0.23111843 -0.044778433 0.092809506 0.11354381 -0.095114805 -0.13389356
0.04857939 -0.22473484 0.03604835 -0.16003732 -0.046759374 0.22362491 -0.20949906 -0.1254082
-0.19233653 0.14748752 0.20917988 -0.16061397 0.16042954 0.1601401 -0.2121788 0.08405194
0.11410681 -0.042196427 0.16965102 -0.014789377 -0.02965444 0.14015684 -0.2286832 -0.24556226
0.046445787 0.028033499 0.019540621 -0.15074435 0.20064466 -0.15458834 -0.10925935 -0.21053319
-0.24801978 0.059980467 -0.097857 0.15515979 0.23897989 0.082478784 0.21884683 -0.17376786
0.13169524 0.13666937 -0.10222313 -0.01532049 -0.14953157 0.024078399 -0.23623103 -0.14701001
-0.21262388 -0.031542882 0.028389111 -0.19810386 -0.08885221 0.15048657 0.015042332 0.04668582
-0.110404134 -0.07058098 -0.22143047 0.2353071 0.03137485 0.11514816 0.14878605 0.22214174
-0.17016059 0.07147649 -0.218026 0.092110805 -0.12989047 0.100220025 -0.18112855 0.13484247
0.17902699 0.13982967 -0.20788944 0.15526263 -0.15578042 -0.23382652 0.16074891 0.0414398
-0.08411707 -0.2156615 0.067174844 -0.105092846 -0.19524539 -0.028458316 -0.20993589 0.12612034
-0.16472611 -0.082150556 -0.2443877 -0.032344647 -0.0742571 0.13794833 -0.053951476 0.17126113
0.21673723 0.049074378 -0.08747522 -0.2082908 -0.17318527 -0.08518705 -0.15794575 0.1313201
-0.08071336 -0.010642545 0.008593829 -0.2178224 0.2065701 -0.0955489 -0.20036246 -0.0059132515

heads.1.0.bias f4 [10]
00000000: 3019 61be 5aae fc3c 0a0f 23be b4b4 66bd
00000010: 41e3 94bd e76d 3b3e 0e6f 483e d7ce 7d3e
00000020: 12f2 f93c f54b 213e
-0.21982265 0.030844856 -0.15923706 -0.056324676 -0.07269908 0.18303643 0.19573614 0.24785934
0.030510936 0.15751632

heads.2.0.weight f4 [10, 16]
00000000: 3303 52be c4b5 28be 5388 083e e4e5 5f3d
00000010: 7351 913d b6b4 123e 55f0 213e fafc f43d
00000020: 34ab bdbd bbb4 9dbd 605c 633d 952a 553e
00000030: 793b 97bc 8467 98bd ee34 103e b6bc 273e
00000040: a10c e3bb 3c0b 9dbd a701 7cbe 5081 563c
00000050: 3832 9d3d 1964 3dbe c785 3bbe b444 7dbe
00000060: 7007 483e 50fa 6d3e 6deb 7a3e cab6 623e
00000070: c962 bfbc 60ba e33d 08bd 183e f0c0 8cbd
00000080: 6074 10be 9b0d 583e f5bf bebc 43f2 c23d
00000090: a561 f3bd e7ff 00be 507e 31bd abe8 0c3c
000000a0: 0c73 173e 4d5d 293e 2546 ebbc 1e2a 7e3e
000000b0: cd3d 05be 00a8 893c 07be 1dbe 3ba2 333d
000000c0: 1f4a 6c3e 9fd6 53be e9b5 7c3d ce34 68be
000000d0: 1cac 64bd be0e ebbd 8136 4b3b 74f3 2ebe
000000e0: 4c08 823d 63a8 6ebe 82be 613d cc74 c0bd
000000f0: 6536 16be f006 593e 5e81 f23c a76b 26be
00000100: 9240 0dbe cd7c debd 2370 16be 50d0 0a3d
00000110: 1c47 cc3b 6528 623e cad9 273c ec87 05be
00000120: 2c20 5c3e 61d4 863d 37cc 50bd 5524 363e
00000130: e5ef 543e 2a84 57be 8e6b 50be 708c 25be
00000140: f7b9 5abe 22a0 93bd d627 bb3d 1c1b 68be
00000150: a197 79be 012a 5cbe ef1f 05be 52bb 203e
00000160: 72f8 623e 0e5a 7f3e fb71 b83b 6f52 56be
00000170: bd6c 793e 1e15 2cbe 41fc c13d eece 003e
00000180: aa61 9d3d b696 a83d fb71 6cbe 4c8c adbd
00000190: 164e 24be 7343 2e3e 4fb7 11be 34b5 c9bb
000001a0: fa8a 633e b6a8 413e 2b73 38be a679 54be
000001b0: 93cb 4a3e dc59 933d 838b 41be 5eda 5c3e
000001c0: 4a9f 3abe e7ac 5f3e 4a68 353e bd73 343e
000001d0: 4fda 49bd 2839 a83c e9c5 57be 7e4e 0e3e
000001e0: 002c 6c3c c4b2 3b3e 2f2a dabd 16b1 793e
000001f0: 53ac 283e 046c 8fbd abc2 873d 27d4 3cbe
00000200: dfb2 2abe 4c00 2dbe 240d 10be 0f63 8e3d
00000210: d2a2 dfbd bfbf acbd efe9 343e ee41 263d
00000220: 0889 f9bd 733c 87bd d5d6 82bd 84e0 f33d
00000230: dfbd 353e 54fd 4b3e 71b0 2cbe 1393 c6bc
00000240: 8445 7b3d 3bb6 c2bd d879 263e ae54 cdbc
00000250: dc07 f33c 1192 5abe 3ff6 383e 6cd5 26be
00000260: c001 c5bb 0c55 50be 17c4 423e b670 873c
00000270: 6866 e73d 3837 49be a8d7 c33c 07f5 d13d
-0.20509033 -0.16475588 0.13333254 0.0546626 0.07095613 0.14326748 0.15814336 0.11962314
-0.0926117 -0.07700487 0.055508018 0.20817025 -0.018460976 -0.07441619 0.14082691 0.16380581
-0.0069289957 -0.076681584 -0.24610005 0.013092354 0.07675594 -0.18495215 -0.18312751 -0.2473324
0.19534087 0.23240018 0.2450387 0.22140041 -0.023362534 0.111195326 0.1491586 -0.068727374
-0.14106894 0.2109894 -0.023284892 0.09518864 -0.118838586 -0.12597619 -0.04333335 0.008600394
0.1478998 0.16539498 -0.028719971 0.24820754 -0.13011856 0.016803741 -0.15404521 0.043855887
0.2307515 -0.2068734 0.06169692 -0.22676393 -0.0558282 -0.11477421 0.0031007829 -0.17085057
0.06349239 -0.23306422 0.055113323 -0.09397277 -0.14669187 0.21194053 0.029602703 -0.16252004
-0.13794163 -0.108636476 -0.14691214 0.03389007 0.006234063 0.22085722 0.010244796 -0.13040131
0.21496648 0.06583477 -0.050976004 0.17787297 0.20794638 -0.2104651 -0.20353529 -0.16166854
-0.21360002 -0.07208277 0.091384575 -0.22666591 -0.24374248 -0.21500398 -0.13000463 0.15696457
0.22165087 0.24936697 0.005628822 -0.20929883 0.24357887 -0.1680493 0.09471942 0.12578937
0.076846436 0.08231871 -0.23090355 -0.08474025 -0.16045412 0.17017917 -0.14230083 -0.0061556343
0.22220984 0.18912014 -0.18012683 -0.2074953 0.1980422 0.07194874 -0.18900876 0.21567675
-0.18224826 0.21843301 0.17715564 0.17622276 -0.04928046 0.020535067 -0.2107159 0.1389713
0.014414787 0.18329912 -0.10652577 0.24383959 0.16471986 -0.07003024 0.06628927 -0.18440305
-0.16669796 -0.16894644 -0.14067513 0.06952488 -0.109197274 -0.0843501 0.17667364 0.04059022
-0.1218434 -0.06603327 -0.06388632 0.11908057 0.17748211 0.19920856 -0.16864182 -0.024240052
0.061345592 -0.09507414 0.16257417 -0.025064792 0.029666834 -0.21344782 0.18062685 -0.16292351
-0.0060121715 -0.20344943 0.19020115 0.016533237 0.11298829 -0.1964997 0.023906544 0.102518134

heads.2.0.bias f4 [10]
00000000: 9f1d 323e f089 393e f584 2abd 9112 b8bc
00000010: ef17 b03d 2e10 b6bd 275f d1bd 409d 6dbe
00000020: 3c1f 79be 7154 06be
0.17394112 0.18119025 -0.041630704 -0.02246979 0.08598315 -0.08889805 -0.10223227 -0.23204517
-0.24328321 -0.1311815

heads.3.0.weight f4 [10, 16]
00000000: 6019 e93c 1488 a33c 9b64 973c cede 0f3d
00000010: aa52 3abd b6fe 7fbe 4650 623e 1aa1 3cbe
00000020: 80db 3fbb 7847 c53d 679a 823d 00e8 e1bd
00000030: cf8f 5fbe ccf9 4c3e a0db 0c3c a8f1 663e
00000040: 8b0a ea3d 2ac4 d53d 2ad4 5d3d 9535 68bd
00000050: 607f 16be 177c e53c 68e4 753e 6a42 193e
00000060: bc93 683e 8ca8 6d3e e851 453e df36 0dbe
00000070: 440b 0bbe 6084 0cbc 2140 04be b9e3 8fbd
00000080: 0a3b aabd faf8 623e 6242 71bc 4b11 7a3e
00000090: 5b8d 46be 6900 7abe 8286 1d3d 3d55 563d
000000a0: 609b cebd 56a7 fdbd acde 973d 05cb 5e3c
000000b0: b70f 00bd 9ef6 013e 08e8 d4bd 67ff 4b3e
000000c0: 187e 2ebe 4130 05be 695c b73d a0ff 1f3e
000000d0: a62c 59bb b013 49be 3c97 1cbc 3f4c acbd
000000e0: c499 a3bd cc34 3dbd fd93 733d 7479 64bd
000000f0: a28d 30be b0a3 ffbd 0396 53be f927 7fbe
00000100: eac4 fc3d ec04 123e 33fe 423e 04c3 b03c
00000110: d692 ccbd 172d 17be d00a 023e 4ba6 17be
00000120: e44f 3f3e 97d8 07be 08d8 6bbe 1ae4 35be
00000130: 6d82 533e 023b 413e a3bc 823d afc5 053c
00000140: 0917 5e3e cda2 1c3e 7c87 1a3e be33 2cbe
00000150: fb28 303d e48c 6a3e ba95 31be 83ef 803e
00000160: 96ac 27be 51f0 90bd 438a 15bc 8e68 873d
00000170: 8f6d a33d fa6a 12be 1b29 f03d c85b 8c3d
00000180: 60a3 e2bc 0833 7ebe b0d7 7b3e eb14 bdbd
00000190: 35e3 05be 9e8a 7d3e ccf1 01be b663 2d3e
000001a0: 9e36 1c3e f993 26be 6cb8 4ebe 78be 08be
000001b0: 151e a13d b87c 713e f400 34bc a359 99bd
000001c0: 4b90 94bd c432 30be c11c 7f3e 1430 6bbb
000001d0: 9a21 4cbe bd3c 2cbe 39db 213e 2281 f63d
000001e0: 3828 253e e54e dabc 79b5 3fbd fd88 a53d
000001f0: aa47 083a 88d4 a4bd 4b47 6a3d f42e 12be
00000200: 02c0 2ebe 5d7f 56bd 0676 35be d217 163c
00000210: 60df 143d c0a3 7d3e 459f 963d 824d c1ba
00000220: 240e 3abe 2106 c9bd 96f9 1abd 0bdc 35be
00000230: 2ded 483d 6c3f 383e e650 153e 946d cfbd
00000240: ba52 7ebd 72d4 803e 3627 1cbd 4873 65be
00000250: 54cd 56b9 28e7 433c 5906 c2bd 02f1 e9bc
00000260: 1ec1 50be b86e 9b3d 977a 32be 172c b53d
00000270: 51ee 3e3e 9845 25be 7651 c3bd 29c8 c13c
0.028454483 0.019962348 0.01848059 0.035124592 -0.04548899 -0.24999508 0.22100934 -0.1842083
-0.002927512 0.09632772 0.06377106 -0.110305786 -0.21832202 0.20017165 0.008597285 0.22553122
0.11427792 0.10437806 0.054157414 -0.056691725 -0.14697027 0.028013272 0.24012911 0.14966741
0.22712606 0.23208827 0.19269526 -0.13790463 -0.13578516 -0.008576483 -0.12915088 -0.070258565
-0.08312042 0.2216529 -0.0147253 0.24420659 -0.1938986 -0.24414219 0.038458355 0.052327383
-0.10088229 -0.123854324 0.07415518 0.013598208 -0.031264987 0.12691733 -0.10395819 0.19921647
-0.17040288 -0.13006689 0.08953173 0.15624857 -0.0033138185 -0.19636416 -0.009557541 -0.0841298
-0.07988313 -0.04619293 0.059467304 -0.05577989 -0.17241529 -0.12482393 -0.20662694 -0.24917592
0.12342246 0.1425969 0.19042282 0.021577366 -0.09988944 -0.14763294 0.12699437 -0.1480953
0.1868282 -0.13266216 -0.23031628 -0.17762795 0.20655222 0.18870166 0.06383636 0.008164807
0.21688475 0.15296479 0.15090746 -0.16816613 0.043007832 0.22905308 -0.17342272 0.25182733
-0.1637443 -0.07077087 -0.009127202 0.06611739 0.07979881 -0.14298621 0.1172659 0.068534434
-0.027665794 -0.24824154 0.24593997 -0.092325054 -0.13074954 0.2475991 -0.12689894 0.16932568
0.1525521 -0.16267385 -0.20187539 -0.13353908 0.07867066 0.23582733 -0.010986555 -0.074878
-0.07254084 -0.17206866 0.24913312 -0.003588681 -0.19934693 -0.16820045 0.15806283 0.12036349
0.16128623 -0.026648948 -0.046803925 0.08082769 0.0005198667 -0.080483496 0.057196897 -0.14275724
-0.17065433 -0.052367557 -0.17720804 0.009160953 0.03634584 0.24769497 0.07354597 -0.001474783
-0.18169457 -0.09815622 -0.03783568 -0.17759721 0.049054313 0.17992944 0.14581642 -0.10128322
-0.062090613 0.25162083 -0.038123332 -0.22407258 -0.00020485121 0.011956967 -0.09473867 -0.028557304
-0.20386168 0.07589477 -0.17429577 0.088463 0.18645598 -0.16139829 -0.09537022 0.023655014

heads.3.0.bias f4 [10]
00000000: 4a40 15bb fabe 153e 8f86 4bbc a0ea 253d
00000010: 83b7 88bd a30b ae3d 7895 9a3d c3a9 4ebe
00000020: 5fb4 0a3e f557 55bd
-0.0022773915 0.14623633 -0.012422218 0.04050696 -0.06675627 0.08498313 0.0754804 -0.20181946
0.13545369 -0.052085835
