results/classification_policy_model2.ckpt (torch, 5519 bytes, 8 tensors)

rnn.weight_ih_l0 f4 [16, 10]
00000000: e2e0 0e3e e4bc 613e 3049 7d3d 3830 403e
00000010: 966d 6c3e 90f3 4a3d e8a4 50bd 842f 8cbd
00000020: 98e5 253d 0841 b83d 7a81 71be 40cf 3f3e
00000030: 507a 213d c078 6ebe 84ff a33d 0a76 223e
00000040: 0050 bf3d 4af7 503e 805b a93b 7061 54be
00000050: 00aa 14ba d812 3a3e a043 f6bd 4062 da3d
00000060: e80b 6c3d 0025 26bd 00e0 e83a a4d4 d93d
00000070: d02e 2fbe 2aa2 213e f24f 2d3e 36a7 0f3e
00000080: 5cd0 7f3e a0db 32bc 84c5 34be 8008 3b3c
00000090: 088b 94bd f4bd b43d 408c 583e 0e1e 0cbe
000000a0: a085 2b3c b0fe 783e 345d 4cbe 68b4 30bd
000000b0: 5497 783e 72e0 323e 649a 943d 80d3 dcbd
000000c0: 80e9 bebc be8f 65be 1404 71be f4da 6fbe
000000d0: 82e1 753e 667a 4a3e 7c18 cb3d e499 80bd
000000e0: f669 5c3e cc3d 87bd feb8 313e a04f 05bc
000000f0: 90d9 f0bd c4e5 8ebd 18a7 5abd 7c53 6abe
00000100: bc1b 993d 0cff 9bbd 4c3b eb3d c038 233e
00000110: 30ce 22bd 484f f83d 4097 4c3d f4eb 2b3e
00000120: bc18 25be 20ce b3bc 1c9d aabd c050 603e
00000130: 9ec8 65be 08e4 0fbe e032 e73c a642 633e
00000140: 5236 2d3e d88d 6fbe 10fc 33be 5038 783e
00000150: c03b 153d 0444 5bbe 484e a1bd c8d6 df3d
00000160: 4020 56bd 14a4 44be f80e 1ebe ee9d 04be
00000170: 8070 20bc 00a6 c83d 68d3 f53d acb9 f8bd
00000180: 28d0 2bbd 6ca7 45be 2a99 413e ec79 7f3e
00000190: 42d3 783e dc3d d13d d05a 5abd c036 ccbb
000001a0: acb8 b83d 32e7 5dbe 2044 7e3c 4217 50be
000001b0: aef4 7fbe 20e7 08bc ecfe a2bd 742a 22be
000001c0: b8c0 293d c0da 263c 5043 1c3d b247 0fbe
000001d0: c2bf 7abe 4049 b33b 68df d0bd 209d acbd
000001e0: ae76 3c3e e03c 273d 90d6 e93d f816 8fbd
000001f0: ec21 4bbe a02e 4c3d 0089 29be 00c1 fd3c
00000200: c4c9 47be 06ff 403e 0864 2ebe 9c3f 5e3e
00000210: d8d6 343e 7685 413e 6a9c 193e c803 6d3d
00000220: 00a2 47bc 40c3 82bb 28a2 cbbd 7650 6bbe
00000230: 6256 693e 4039 543c accd f03d c055 163c
00000240: 6c22 933d beba 1dbe 7001 47be 883c 433e
00000250: 9c28 c23d 80ce fc3d 2218 7ebe 1076 8a3c
00000260: f2c8 6ebe f05d eabc 4088 58bc e419 34be
00000270: 667f 7dbe 00ab d73a 7a38 663e aab6 663e
0.13952973 0.22044712 0.061837375 0.18768394 0.23088679 0.049548686 -0.050938517 -0.068450004
0.04050216 0.08996779 -0.23584548 0.18731403 0.039423287 -0.2328825 0.0800772 0.15865341
0.09341431 0.20406833 0.0051683784 -0.20740294 -0.0005671084 0.18171251 -0.12024617 0.10663271
0.057628542 -0.04056263 0.0017766953 0.10636261 -0.17107701 0.15784517 0.16925028 0.1402863
0.24981827 -0.0109166205 -0.17653471 0.011415601 -0.072530806 0.08825293 0.21147251 -0.1368334
0.01046887 0.24315906 -0.19957429 -0.0431408 0.24276477 0.17468432 0.0725601 -0.10782528
-0.0233047 -0.22418115 -0.23536712 -0.23423368 0.24011806 0.19773254 0.099167794 -0.06279352
0.21524796 -0.06603584 0.17355725 -0.00813666 -0.11760247 -0.06977418 -0.05338201 -0.2288341
0.07475993 -0.07617006 0.11485919 0.15939617 -0.039747417 0.12124497 0.04994893 0.16789228
-0.16122717 -0.021948874 -0.083307475 0.21905804 -0.2243981 -0.14051831 0.028222501 0.22193393
0.16915253 -0.23393953 -0.17576623 0.24240232 0.036433935 -0.21412665 -0.07876259 0.10929638
-0.05227685 -0.19203216 -0.15435398 -0.1295087 -0.009792447 0.09797287 0.12003213 -0.12144789
-0.04194656 -0.19302148 0.18906084 0.24948853 0.24299338 0.10216877 -0.05330926 -0.0062321126
0.09019598 -0.21670225 0.015519172 -0.20321372 -0.24995682 -0.008355886 -0.07958779 -0.15836507
0.041443557 0.01018399 0.03815013 -0.13992193 -0.24487212 0.0054713786 -0.10198861 -0.08428407
0.18404648 0.04082954 0.11417878 -0.06986803 -0.19837159 0.049849153 -0.16556168 0.030975819
-0.19510561 0.18847284 -0.17030346 0.21703953 0.17660081 0.18898568 0.15001073 0.057864934
-0.01218462 -0.003990561 -0.09943038 -0.22979912 0.22786859 0.012953103 0.11757979 0.009175718
0.071843 -0.15403268 -0.19434142 0.1906606 0.09480402 0.12344074 -0.24813893 0.016902
-0.23318842 -0.028609246 -0.013216078 -0.17588001 -0.2475563 0.001645416 0.22482482 0.22530618

rnn.weight_hh_l0 f4 [16, 16]
00000000: b8db 1bbe a0e7 35bd 0c14 56be 96ec 47be
00000010: 2862 8cbd 348a 783e b892 85bd a0fc 6c3c
00000020: f4d5 703e f87b 363d c683 4e3e 181c 2a3e
00000030: d20d 703e 189b 2f3d ce05 4fbe 363a 5cbe
00000040: fe44 04be d84b 533e 5235 133e acd9 953d
00000050: 92f3 42be 928b 3cbe 80db 503e 1097 d4bc
00000060: 48e4 7ebe 802d fdbc 20d6 75bd 0023 773b
00000070: c446 d63d c802 c53d c0e2 43be 0093 33bb
00000080: b0bb fdbd 682a 2d3e 9888 fd3d 8283 0c3e
00000090: a0bd 683e e47e fb3d 98d1 7fbe 6431 813d
000000a0: daa9 2fbe f0be 083d 0020 2f3b fee7 7d3e
000000b0: ace7 2ebe a2d1 7abe ac41 89bd 0803 253d
000000c0: 0288 3b3e b290 4f3e 4c28 453e e89f a13d
000000d0: d051 92bd 8084 58bd dcff 0bbe 683e 483d
000000e0: 6608 32be 6007 b03d d853 253e b43b 593e
000000f0: 5a54 7cbe 4e0a 523e 3cd1 20be 1038 a7bc
00000100: 1eb2 693e 4aba 0a3e 6868 a2bd c01f 173e
00000110: b8fe 78be c422 483e fe80 783e a001 3abc
00000120: 7087 283d f847 70bd c00f 22be 8895 e7bd
00000130: b001 88bc f26f 51be 20e7 4ebe 20c3 e03c
00000140: 9c92 26be 0c40 0bbe 00b0 0dbb aae9 06be
00000150: 52f7 6c3e ecd4 b8bd fe57 0ebe 7c66 88bd
00000160: 14dd 50be 66e1 033e 3cf4 5b3e 5ca3 13be
00000170: 3c55 bebd a2ea 6e3e 5c30 39be 7cab 8a3d
00000180: 7294 50be 06da 63be 0054 c639 dc1b 12be
00000190: 5ca5 0a3e 505d 9ebd 806d 213b eea6 05be
000001a0: 1066 d23d 9a30 6d3e 08f0 19bd 8201 1ebe
000001b0: d2ae 79be be50 753e cccb d73d ec72 d33d
000001c0: 2857 2e3d fa74 003e 00d1 b53d 48ff f93d
000001d0: 3e1b 203e 0834 113d a880 5c3e 9c2f 1f3e
000001e0: c0c5 fabb f0ae e4bd 60c3 873c 3260 473e
000001f0: a62b 223e 9479 cfbd 30c8 55bd e048 cb3d
00000200: 70e9 c03d 10c6 733e dc9e f83d b41d a33d
00000210: 60aa 6c3d a496 70be 3ca1 bcbd b0c0 d83c
00000220: f016 32be 864c 60be 94be 2c3e 5c22 ae3d
00000230: 5095 4ebe 201b 733c a4c3 163e a479 133e
00000240: 0ac8 693e 4472 cabd a8fa e33d a4a9 4fbe
00000250: b09e fcbc 9ad0 22be 58fc 42bd 92bc 113e
00000260: a83e ff3d e6a8 06be 70eb 7dbd 48db 4cbd
00000270: 4cc7 c2bd 423c 0cbe fafa 3b3e 68f4 303e
00000280: 42b7 553e 9492 0cbe 1c77 3b3e 1c41 9bbd
00000290: 8894 70bd 0cd9 89bd 002b 47bc 3c34 e0bd
000002a0: 400a 0c3d 7e00 25be 5894 d23d fcaf 56be
000002b0: a89c b9bd fecd 32be 90b0 2c3e 66e2 2f3e
000002c0: 729c 4bbe 20b1 0bbe ae1d 653e 3431 953d
000002d0: 7c46 303e a043 44be 0014 e73d 54f4 223e
000002e0: c896 6dbd a0bf 3cbc 72ab 3a3e ac9c 8b3d
000002f0: d4e8 923d 0056 473a d8c0 d5bd 3cb1 1cbe
00000300: ea77 7f3e f0c9 a1bc 962e 633e 7675 513e
00000310: 7cdd 05be a034 8b3c 94f6 82bd c0be 94bb
00000320: 34b8 283e 86f7 0c3e c267 11be d457 fdbd
00000330: fadc 35be 945a 59be 0239 243e e62f 1ebe
00000340: 801d 563b 0010 b2b9 c02d 2f3d e0a5 6fbc
00000350: 10d9 043e 30a1 0c3d 0893 373e 300a 5d3d
00000360: 005a 4cbb 481a 113d 0aa0 2a3e 788e 1a3d
00000370: a858 343e 5034 c2bc 800f 0e3b b413 573e
00000380: f2af 71be b04e cc3c 84d2 693e c076 00be
00000390: 90e2 3cbd a0c6 76bc 48ad a83d b084 c13d
000003a0: 00fa 673d 94f8 c93d 44ad dbbd 2467 d73d
000003b0: 9858 a2bd a8da 203e c443 96bd 7efc 59be
000003c0: 4043 923c 8a35 053e c087 20bc 80ac 543b
000003d0: 0038 683a 26de 073e b03e a03c deb1 64be
000003e0: f691 36be a01d 723c 1073 a4bc 14b3 743e
000003f0: 10b8 70bd 3aeb 433e dee6 57be 5e4e 73be
-0.15220535 -0.044410348 -0.20906085 -0.19523844 -0.06854659 0.2427147 -0.06522125 0.014464527
0.23519117 0.04455182 0.20167455 0.1661228 0.23442772 0.04287252 -0.20217058 -0.2150658
-0.12916943 0.20634401 0.14375809 0.07316908 -0.19038227 -0.18412617 0.20396233 -0.025950938
-0.2489177 -0.030905485 -0.06001866 0.003771007 0.10462716 0.09619671 -0.19129467 -0.0027400851
-0.12389314 0.16910708 0.12379569 0.13722041 0.22728586 0.12280062 -0.24982297 0.06308249
-0.17154637 0.033385217 0.0026721954 0.24795529 -0.17080563 -0.24494031 -0.06701979 0.040286094
0.18313602 0.2027004 0.19253653 0.07891828 -0.07144511 -0.052860737 -0.13671821 0.04888764
-0.17386016 0.08595157 0.16145265 0.21214181 -0.24641553 0.20511743 -0.15704817 -0.020412475
0.22821853 0.13547626 -0.0793007 0.14758205 -0.24315917 0.19544512 0.24267957 -0.0113529265
0.04114479 -0.058662385 -0.1582632 -0.11307818 -0.016602367 -0.2045286 -0.20205355 0.027436793
-0.16266865 -0.1359865 -0.0021619797 -0.13175073 0.2314122 -0.090249866 -0.13900754 -0.06660172
-0.20396835 0.12878951 0.21479887 -0.14417785 -0.09293601 0.23331693 -0.18084854 0.06770989
-0.20369127 -0.22251138 0.00037828088 -0.1426844 0.13539642 -0.07732642 0.0024631917 -0.1305196
0.10273373 0.23163071 -0.037582427 -0.15430263 -0.24383095 0.23956582 0.10536918 0.10324654
0.042563587 0.12544623 0.08877754 0.12206894 0.15635392 0.03545001 0.21533453 0.15545505
-0.007652968 -0.11166179 0.016572654 0.1947029 0.15836963 -0.10130611 -0.052192867 0.09926009
0.09419525 0.23806024 0.12139675 0.0796465 0.05777967 -0.23494965 -0.092104405 0.026459068
-0.17391562 -0.21904191 0.16869575 0.08502647 -0.20174146 0.01483801 0.14723068 0.14401871
0.22830215 -0.09885076 0.11131793 -0.20279557 -0.030837387 -0.15899888 -0.047603935 0.1423209
0.124631226 -0.13150367 -0.06199211 -0.05001381 -0.09510669 -0.13694862 0.18357459 0.17280734
0.20870689 -0.1372779 0.18307155 -0.07580778 -0.0587354 -0.067308515 -0.012156248 -0.10947463
0.034189463 -0.16113469 0.102822006 -0.2096557 -0.09063083 -0.17461392 0.16864228 0.17176208
-0.19883898 -0.13641787 0.22374603 0.072847754 0.17214388 -0.19166422 0.112831116 0.15913516
-0.058005124 -0.011520296 0.18229464 0.06816992 0.07173315 0.00076040626 -0.10437173 -0.15301985
0.24948087 -0.019749612 0.2218574 0.20454964 -0.13072771 0.016992867 -0.06394687 -0.0045393407
0.16476518 0.13766298 -0.14199737 -0.123702675 -0.17760077 -0.21225959 0.16037372 -0.1544796
0.0032671392 -0.00033962727 0.04276824 -0.01462695 0.12973428 0.034333408 0.17927182 0.053964794
-0.0031181574 0.035425454 0.16662613 0.037733525 0.17611945 -0.023706585 0.002167672 0.2100361
-0.23602274 0.024939865 0.22834212 -0.125453 -0.046114504 -0.015062004 0.08236176 0.09449136
0.056634903 0.09861866 -0.10726407 0.105177194 -0.07927054 0.1570841 -0.07337144 -0.21287724
0.017854333 0.13008705 -0.00979799 0.003245145 0.00088584423 0.13268337 0.019561142 -0.22333476
-0.17829117 0.014777571 -0.020074397 0.23896438 -0.058769286 0.191327 -0.21084163 -0.23760363

rnn.bias_ih_l0 f4 [16]
00000000: 2065 bcbc f217 22be bc4f 95bd 20af e63c
00000010: 540f 5ebe 7aea 2f3e 805d 1bbe 0e6c 443e
00000020: 745c a73d 480a 40bd c809 60be a07b 293d
00000030: 3a04 0fbe 5640 5d3e 3c5c 57be 243f 87bd
-0.022997439 -0.15829447 -0.07290599 0.028159678 -0.21685535 0.1717929 -0.15172386 0.19181845
0.08171931 -0.046884805 -0.21878731 0.041377664 -0.13966456 0.21606573 -0.21031278 -0.0660384

rnn.bias_hh_l0 f4 [16]
00000000: 3016 0dbe f6a5 24be 9c85 05be 400a cbbc
00000010: f08b 8a3c a075 2d3d d2d0 023e 7821 d1bd
00000020: 3cd6 1ebe 68c1 57bd 9a3e 713e b035 fabc
00000030: 4e84 57be 6cdf 483e 2028 793d 58b9 313d
-0.13777995 -0.16078934 -0.13039249 -0.024785161 0.01691243 0.042348504 0.12774971 -0.10211462
-0.15511411 -0.05267468 0.23559037 -0.030543178 -0.21046564 0.19616479 0.06082928 0.04338965

net.0.weight f4 [8, 32]
00000000: 7092 f83c d297 fc3d 1fda a4bd 08ee 033e
00000010: 5711 2e3e 7cb4 3abd 6f7e e43d 48be c73d
00000020: 7f85 293e 7d85 28bd 425d d7bd 9b63 86bd
00000030: f84f f6bd 09ba c63b 3d87 2e3e 109d 2f3e
00000040: d6bb 083e a34b 8f3c 7c7f 7b3b 9ab6 ef3d
00000050: 04f9 d63d 5ab5 8fbc 7d21 37bd 7727 8f3d
00000060: 19ff c8bb 9458 febd 9349 aabd 03ce 123e
00000070: c1c0 163e 8712 8dbd c762 1bbd 4d6f b3bd
00000080: 5764 6cbd 7e02 253e caff 20be 6cc2 ac3d
00000090: adb2 22be e2b9 acbd b572 13bd 24b1 483c
000000a0: 5e2d ebbc 347e a5bd 797b a1bd 6034 dcbd
000000b0: 7bb4 fcbd d08e e1bd b695 2d3e 0995 aabd
000000c0: 9488 16be 85d4 f83d c774 8c3d a308 f93d
000000d0: 1a0f 34be 1e4f 2cbe 527a 00be 23b9 bebd
000000e0: 8919 ccb9 539a 9c3d b7f5 d33d 14b2 1bbe
000000f0: a062 903d ba5e d1bd bc6f 263d 2856 633d
00000100: 29c0 e73c 5317 803d 419e 10bc 7603 ef3d
00000110: df03 173d e696 1e3e 14f5 1c3d 8ba7 bfbd
00000120: 2f80 e83d cae8 1c3c bdf1 2e3e 0627 a0bc
00000130: 691a 333e 2758 d3bd 43f4 b53d 920a 07be
00000140: 3c8d f83d b86f 033d 218b cd3d d0e3 1bbe
00000150: c211 34be a371 ae3d 89f2 94bd 0062 8f3d
00000160: 1fcb d6bd 85d6 5fbd 8f9b 4f3a 8d05 da3d
00000170: 0c73 cc3d c15b 81bc 4fce 4cbd f2ea 48bb
00000180: 7798 ba3d 346d 19be 6740 5dbd 8280 2ebe
00000190: 0009 d13c d44a abbc d417 cd3d 6a9c 103e
000001a0: 0ec7 1abe 8239 a0bd 02ce e8bc 7b0d e7ba
000001b0: a148 25bd 5ba1 e3bd 2fe4 8bbd 6c2d 95bb
000001c0: 5592 113e 8b88 38bd 6916 ef3d b653 12be
000001d0: 6385 013c 2a43 0dbe ccdc 29be e683 8f3c
000001e0: 1bc6 a5bd dd44 053e e2fa 0e3e 3e2c 34be
000001f0: 72d8 49bc 9566 f7bc 6f5a cebd 30c1 fcbd
00000200: f034 99bd 8dd7 9f3d fe28 2c3d 36e5 d93d
00000210: 6dbc 2cbc db08 bc3d 4605 0c3d 0fe4 1dbd
00000220: 0052 29bc caa2 24be 5307 85bb e8de 6dbd
00000230: f950 72bd 7869 91bd e04e 1ebd 7ca4 05be
00000240: 0cf6 293c 016a ebbb 55b4 3ebd 4523 1d3e
00000250: 5cf8 f23d 5d7e 4c3d d158 85bd e4b4 b83c
00000260: 071a f9bd 7743 fc3d ce13 293e 2b37 d8bc
00000270: 709a 0b3e ebe2 293e bb06 2ebc 356f 86bd
00000280: 172c 123c 6951 ef3c 8890 27be 5bad 34bc
00000290: c0e6 82bd 3b96 f13d 0148 a6bb b032 ee3d
000002a0: a403 213e 23ec 62bd 4adc 1b3d e3c1 77bc
000002b0: c7c6 9dbd 7dd5 c8bd 7a0a 863b 5cfe 5b3d
000002c0: ddb3 febc c8ed f53c e83e e23d 60ed 963d
000002d0: 6b4b 953d f87d 4b3d 3027 0bbe 0409 dbbd
000002e0: 723d 06be bee8 ed3d a66f 1fbe 2d25 07be
000002f0: c36c ee3d ec00 d63d f61e 2bbe 2c31 d13d
00000300: e737 25bd e3ff 1b3d 28cb e2bd 6bd4 dbbc
00000310: 4bee 203d 7406 0a3e 248a db3d 7ede c4bd
00000320: 8779 edbd 4e40 30bc e43e 633d 5b81 c63d
00000330: e562 34be 36ae 6cbc ecd7 cc3b 2914 a9bd
00000340: d4c6 0e3e b034 40bd 5795 2cbe 462a d8bd
00000350: 91ba b93b 81b5 06be 3063 253d 9a18 303e
00000360: 7821 ed3b 2261 32bd 1d8a 2a3e ada2 053e
00000370: d594 f03d 46b3 5b3c 9468 043c a862 0cbe
00000380: c269 933c b711 303e b21c 193c fb89 21be
00000390: dcb5 c63d 2675 223e 9fc1 173e 959a 083c
000003a0: 0b07 083d 0c5b ea3c e061 94bd 3a4d d3bc
000003b0: 3fad 133e bebe 933c ad9b 2a3e fe6a f0bd
000003c0: c6a4 d3bc 01c3 073b 4779 d7bd 21c3 0b3e
000003d0: 14da fc3d e448 c3bd a679 1f3e 8ecb 283e
000003e0: 62df d4bd 91cc c7bb 1666 343e 8a09 ebbd
000003f0: 3bdf e2bc 1c74 f8bd b39d 023e 82c2 ea3c
0.030343264 0.12333645 -0.08049416 0.1288377 0.16998802 -0.04558228 0.11156928 0.0975309
0.16554831 -0.04114293 -0.105158344 -0.06561967 -0.120269716 0.0060646576 0.17043777 0.17149758
0.13352904 0.017492121 0.0038375547 0.1170475 0.10496715 -0.01754253 -0.04470967 0.06989949
-0.0061339256 -0.12419239 -0.083148144 0.143364 0.14721967 -0.068882994 -0.037936 -0.08761463
-0.05771288 0.16114232 -0.15722576 0.084355205 -0.15888472 -0.08433892 -0.035998065 0.012249265
-0.028708156 -0.08080712 -0.07884879 -0.10752177 -0.123391114 -0.110135674 0.16951641 -0.083292075
-0.14700538 0.1214991 0.06858211 0.121598504 -0.17583886 -0.16827056 -0.12546661 -0.09312656
-0.00038928937 0.076466225 0.10349601 -0.1520465 0.07050061 -0.10223146 0.040633902 0.055502087
0.028289871 0.06254449 -0.008826793 0.11670582 0.036868926 0.1548725 0.038319662 -0.09358128
0.11352574 0.009576986 0.17084403 -0.019549858 0.17490543 -0.10319548 0.0888448 -0.13187626
0.12136313 0.032088965 0.10036302 -0.15223622 -0.17584899 0.08517768 -0.072728224 0.07001114
-0.10487961 -0.05464794 0.00079196034 0.1064559 0.09982881 -0.015790822 -0.05000144 -0.0030657616
0.091111116 -0.14983064 -0.054016497 -0.1704121 0.025516987 -0.020909704 0.100143105 0.14122167
-0.15114996 -0.07823469 -0.028418545 -0.0017627919 -0.040352467 -0.111147605 -0.06830632 -0.004552534
0.14215977 -0.045052093 0.11674196 -0.14289746 0.007905337 -0.13795152 -0.16588134 0.017518949
-0.08094426 0.1301455 0.13962892 -0.17595002 -0.012319671 -0.030200282 -0.100758426 -0.12341535
-0.074808 0.07804785 0.04203128 0.10639422 -0.010542971 0.091813765 0.034184717 -0.03854757
-0.010334492 -0.16077724 -0.004059711 -0.058073908 -0.059159253 -0.07100195 -0.03864944 -0.13051027
0.010373604 -0.0071842675 -0.046558697 0.15345486 0.11863777 0.049925197 -0.06511081 0.022547193
-0.121631674 0.123175554 0.16511461 -0.026393494 0.13633132 0.16590469 -0.010621722 -0.0656418
0.008921645 0.029213624 -0.16363728 -0.011027659 -0.06391668 0.11796232 -0.0050745015 0.116307616
0.15724045 -0.05540098 0.03805188 -0.01512191 -0.077039294 -0.09806345 0.0040906044 0.053709373
-0.031091625 0.03002061 0.11047155 0.073694944 0.072897755 0.04968068 -0.13589168 -0.10695079
-0.13109377 0.11616658 -0.15569934 -0.13197775 0.116418384 0.104493946 -0.1671103 0.10214457
-0.040336516 0.03808583 -0.11073905 -0.026834687 0.039289754 0.13479024 0.107197076 -0.096127495
-0.11595445 -0.010757519 0.0554799 0.09692641 -0.1761585 -0.014445832 0.006251326 -0.08255798
0.13943034 -0.046925247 -0.16853844 -0.10554938 0.0056679924 -0.13155176 0.040377796 0.17196885
0.007236656 -0.043549664 0.16654249 0.13050337 0.117471375 0.013409441 0.008081574 -0.1370951
0.017994765 0.17194258 0.00934522 -0.15775292 0.09702656 0.15865001 0.14819954 0.0083376365
0.03320984 0.028607868 -0.07245231 -0.02579366 0.14421557 0.018035289 0.16660948 -0.11739157
-0.025835406 0.0020715597 -0.10521179 0.13648655 0.123462826 -0.09535387 0.15573749 0.164839
-0.103941694 -0.0060973843 0.17617068 -0.11476429 -0.027694335 -0.12131521 0.1275547 0.028657202

net.0.bias f4 [8]
00000000: 50b7 963d ebe4 013e f1c4 e5bc d6f1 34be
00000010: 2ad4 0d3c 0924 60bc bb4c 833d 1dff a83d
0.07359183 0.12684982 -0.02804801 -0.17670378 0.008656541 -0.013680466 0.064111196 0.08251784

net.2.weight f4 [10, 8]
00000000: 1808 34be 129b 0ebe ea39 643e dc20 ce3d
00000010: abde a53d 6731 213e 5658 283e e4cb 82be
00000020: 6746 e73c 3571 0a3d c1db aebe 1fa9 993d
00000030: e094 9abb 1969 8c3e 3ec8 acbe 5d47 aa3e
00000040: 1b2c 31be f348 553e 55bb 853e e6ac 33bd
00000050: 9039 39be 456d 70bd e4c9 61be 4600 333d
00000060: 912e 183e f2a4 953d 0c7d 50be 7fd1 453e
00000070: bd1c a63e 634f dcbd 40fe 3b3e 4ee8 bebc
00000080: 97ed 113e 7919 81be 9092 9abe d772 24bc
00000090: 6686 98be b86a 023e 5475 a93e de00 8ebd
000000a0: 3385 5f3b 763a 5c3d b3f3 2ebe 652f 94bc
000000b0: e789 ba3d cc63 923e 902e 96be 8a53 e5bb
000000c0: d4ae 93be d235 00bd 3fc3 18bc 1ff7 16be
000000d0: 100f 5e3e 5765 783e bc72 0cbe 4ae4 49bd
000000e0: c9eb ddbd c004 1c3c 46a9 ee3d 125c a73e
000000f0: 7409 a6be c709 133e 9e05 5abe 0ad3 93be
00000100: 8f67 8b3e 93b8 d7bd 4f03 4bbe 16a1 c63d
00000110: ddaa 96bd d8b0 a5be 8bd7 3cbe 88f1 18be
00000120: 48e3 e1bc 3700 6fbe 9956 aebe 545c 493e
00000130: 8a71 9bbe e151 2fbd a461 9b3e 3241 05be
-0.17581213 -0.13926342 0.22287717 0.10064861 0.08099111 0.15741502 0.16439947 -0.2554618
0.028231813 0.03379937 -0.34152034 0.075029604 -0.0047174543 0.27423933 -0.33746523 0.3325757
-0.17301981 0.20828609 0.26119485 -0.04386606 -0.18088365 -0.058697958 -0.22049671 0.043701433
0.14861514 0.073068514 -0.20360202 0.19318198 0.324438 -0.10757329 0.18358707 -0.02330413
0.1425079 -0.25214747 -0.30189943 -0.010037146 -0.29790038 0.12736022 0.33097327 -0.06933759
0.0034106493 0.05376669 -0.17085151 -0.018089006 0.09108334 0.28591764 -0.293324 -0.006998484
-0.2884432 -0.031301327 -0.009323894 -0.14742707 0.21685433 0.24257408 -0.13715643 -0.04928998
-0.10835988 0.009522617 0.1165338 0.32687432 -0.32429087 0.14359199 -0.21291205 -0.28871948
0.27227446 -0.105332516 -0.19825481 0.096986935 -0.07356808 -0.32361484 -0.18441598 -0.14935887
-0.027574196 -0.23339926 -0.34050444 0.19664127 -0.3036006 -0.042802695 0.3034793 -0.13013151

net.2.bias f4 [10]
00000000: 386b 6fbe 295a c13d 36f8 9d3e 1eb4 1fbd
00000010: 7ee5 aabc 9829 293e 7865 353d 6cb5 8a3d
00000020: 2e95 3f3e 658e 243e
-0.23380744 0.09441025 0.30853432 -0.038990133 -0.020861384 0.16519773 0.04428622 0.06772885
0.18709251 0.16069944
