results/Mnist_best_model_classification_MLP_policyW.ckpt (torch, 6175 bytes, 4 tensors)

ht f4 [16, 64]
0	0x3d965d27	0.07341986
1	0x3da52222	0.08063151
2	0x3c70f4ce	0.0147068035
3	0x3d33e6dd	0.04392134
4	0xbde42745	-0.111403026
5	0x3df4efea	0.119598225
6	0xbd8109c2	-0.06300689
7	0xbde42bc4	-0.1114116
8	0xbd821afa	-0.063528016
9	0xbd8f2d38	-0.06991047
10	0xbd5721c7	-0.052522447
11	0xbcb4588d	-0.02201488
12	0x3dbb2968	0.09138757
13	0x3c2aba33	0.01042037
14	0x3d974477	0.073861055
15	0x3dd557a2	0.10417105
16	0xbdf0f07c	-0.11764619
17	0x3d65ed44	0.056134477
18	0x3de8c7e9	0.11366255
19	0x3d295e30	0.04134959
20	0x3daa1423	0.08304622
21	0x3c83ffc7	0.016113175
22	0xbd03c3ff	-0.03216934
23	0xbdd0d936	-0.1019768
24	0xbd99b0fe	-0.07504462
25	0xbddda80c	-0.10823068
26	0x3d8b5778	0.06803793
27	0xbdb217b2	-0.08695926
28	0x3b62af80	0.003458947
29	0xbdbf7fee	-0.093505725
30	0x3dda778d	0.10667334
31	0x3d34b81f	0.044120904
32	0xbdbcf0d8	-0.09225625
33	0x3da4d025	0.08047513
34	0xbdbf8fcb	-0.09353598
35	0xbc9b3bd8	-0.018949434
36	0xbd13bf40	-0.036071062
37	0x3df987ca	0.12184103
38	0xbd26c5c4	-0.040715948
39	0x3df3edb9	0.119105764
40	0x3d9de4dc	0.07709667
41	0xbd69ec9d	-0.057110418
42	0x3c35f3c9	0.011105486
43	0x3defdb8b	0.117117964
44	0xbd537060	-0.05162084
45	0xbdf5b06c	-0.119965404
46	0x3dbf4e38	0.09341091
47	0xbdb8d69d	-0.09025309
48	0x3d5ba1d7	0.05362114
49	0x3dc13b76	0.094351694
50	0x3d3e1805	0.046409626
51	0x3d9022cd	0.07037888
52	0x3de2ca0a	0.11073692
53	0xbda34c95	-0.07973591
54	0xbb887d49	-0.004165326
55	0x3df5c6b8	0.12000793
56	0xbdc6b4c2	-0.097024456
57	0xbc86ff83	-0.01647926
58	0x3dc128f2	0.09431638
59	0x3d3aa089	0.045563255
60	0x3dffe3a0	0.12494588
61	0xbc9690f8	-0.018379673
62	0xbd9f1d76	-0.07769291
63	0xbd5c8a3b	-0.053842764
64	0x3ab73b80	0.0013979524
65	0x3d3e0b60	0.046397567
66	0xbd724108	-0.05914405
67	0xbd44c6ed	-0.048041273
68	0xbdebc2e6	-0.11511783
69	0xbdaf3202	-0.0855446
70	0xbc1de054	-0.0096360035
71	0x3c331f90	0.010932818
72	0xbdcff328	-0.101538
73	0x3da7a8d2	0.08186497
74	0x3ac21580	0.0014807433
75	0xbdc32f70	-0.09530532
76	0xbd2a6a54	-0.04160531
77	0xba8300d9	-0.000999476
78	0x3d8d86b5	0.06910459
79	0x3d034a4d	0.03205328
80	0xbd043c03	-0.032283794
81	0x3d3dc21c	0.046327695
82	0xbd5854c1	-0.052815203
83	0xbb884a8b	-0.004159277
84	0xbdbdb82a	-0.09263642
85	0xbbb35620	-0.0054729134
86	0x3c342849	0.010995933
87	0xbdef417a	-0.116824105
88	0x3d789714	0.060690954
89	0x3c9af756	0.018916767
90	0x3c50f5f0	0.012753949
91	0x3da908fc	0.08253667
92	0xbdc7e4b6	-0.0976042
93	0x3d4a9c51	0.04946548
94	0x3cfdf63c	0.031001203
95	0xbd90ecee	-0.07076441
96	0x3dc25313	0.094885014
97	0xbc833e3b	-0.016020885
98	0xbbba625d	-0.0056879953
99	0xbdbf67a3	-0.09345939
100	0x3ded8853	0.115982674
101	0xbdafd872	-0.085862055
102	0x3d62d24b	0.055376332
103	0xbd7fa148	-0.06240967
104	0xbddf0fac	-0.10891661
105	0xbda5016e	-0.08056913
106	0x3de8eee2	0.11373688
107	0x3cd27288	0.025689378
108	0xbd8cc290	-0.06873047
109	0xbdaf4750	-0.08558524
110	0xbd1f1ae4	-0.038844004
111	0xbdb515c2	-0.088420406
112	0x3de9fdd2	0.114253655
113	0xbd1dd3b2	-0.038531967
114	0xbddc8950	-0.10768378
115	0x3d1d9a43	0.038477194
116	0xbd96b81f	-0.07359337
117	0x3d93ddd6	0.07220046
118	0x3ac00f00	0.0014652908
119	0xbdd14698	-0.10218543
120	0x3ddeffca	0.10888632
121	0xbdd4d469	-0.103920765
122	0xbd6332f8	-0.05546853
123	0x3dbe3558	0.09287518
124	0x3dddef3a	0.108366445
125	0xbd425d46	-0.047452234
126	0x3da58a3c	0.08083007
127	0xbd8c14eb	-0.06839927
128	0xbdb821d3	-0.089908265
129	0x3d68cff1	0.056838933
130	0xbd14d250	-0.036333382
131	0xbdcf5885	-0.10124306
132	0xbdc1e2b7	-0.094670705
133	0xbc8dece8	-0.01732488
134	0x3defde52	0.11712326
135	0x3ddd6bef	0.10811602
136	0x3d9f666b	0.077832066
137	0xbd181962	-0.037133582
138	0x3cb92709	0.022601621
139	0xbdcb78af	-0.09935128
140	0xbcd7bef8	-0.026336178
141	0xbdcb777c	-0.09934899
142	0x3d7cb423	0.06169523
143	0x3d2b3920	0.041802526
144	0xbd29e81e	-0.04148113
145	0x3da94c96	0.08266561
146	0xbc55b9d2	-0.013044791
147	0x3dc33ae8	0.0953272
148	0x3d9d1d17	0.07671564
149	0x3b817344	0.0039505083
150	0xbda7a42d	-0.08185611
151	0x3daae4c6	0.08344416
152	0xbddaf166	-0.10690574
153	0x3de0eb8a	0.109824255
154	0x3dd9c42e	0.106331214
155	0x3db60dfb	0.08889385
156	0xbd36620c	-0.0445271
157	0x3d674937	0.056466307
158	0xbc204d46	-0.009784048
159	0x3d33fbf3	0.04394145
160	0x3dc372f4	0.0954341
161	0x3c8abb21	0.016934933
162	0x3dc4690c	0.095903486
163	0x3d518544	0.051152483
164	0xbdd7432a	-0.105108574
165	0x3de71d56	0.11284892
166	0x3d21c473	0.03949399
167	0xbca5491f	-0.020176468
168	0x3b78fcc8	0.0037992466
169	0xbc522d60	-0.012828201
170	0xbd5d52d6	-0.054034077
171	0x3cf63368	0.03005381
172	0x3d0d4456	0.034489
173	0xbdaa256e	-0.083079204
174	0x3cd906a8	0.026492432
175	0xbdf6477d	-0.12025354
176	0xbd01a14f	-0.031647976
177	0x3c5ddca7	0.013541377
178	0xbd805b4e	-0.06267415
179	0x3dd4616f	0.103701465
180	0xbdbd0db2	-0.09231128
181	0xbda7e11c	-0.08197233
182	0xbd9712d9	-0.07376642
183	0x3d0b5848	0.03401974
184	0x3d1f4e64	0.03889312
185	0xbbe3f13b	-0.006956247
186	0xbb9b873f	-0.004746347
187	0x3da11368	0.078650296
188	0x3d9ba941	0.07600642
189	0xbd92528b	-0.0714465
190	0xbc87ced1	-0.01657811
191	0xbb19d550	-0.0023473091
192	0xbc99d5d0	-0.018778712
193	0xbdeb3abf	-0.11485814
194	0x3d1d0768	0.03833714
195	0xbdc880f2	-0.09790219
196	0x3d82b357	0.063818626
197	0xbd85e05a	-0.06536932
198	0xbd0abd93	-0.0338722
199	0xbd15b594	-0.03655012
200	0x3d141ae1	0.036158446
201	0xbd968781	-0.07350064
202	0xbdbe3df8	-0.09289163
203	0x3dbc6df9	0.09200663
204	0x3d93e2ec	0.07221016
205	0x3da51afd	0.08061788
206	0xbd91709e	-0.07101558
207	0xbbbc1f0c	-0.0057410058
208	0xbdd59788	-0.10429293
209	0xbdb5d840	-0.08879137
210	0xbd94ba93	-0.07262149
211	0x3d501ac5	0.05080678
212	0xbd4afd73	-0.049558114
213	0x3dcfb50a	0.10141952
214	0xba8a41f7	-0.0010548224
215	0xbddf39f2	-0.10899724
216	0x3bb5db60	0.005549833
217	0x3ca66eac	0.020316444
218	0x3c915388	0.017740026
219	0xbcff8da0	-0.031195462
220	0xbd74e348	-0.059787065
221	0xbd62ee8d	-0.05540328
222	0xbd1b4175	-0.03790422
223	0xbcae0115	-0.02124075
224	0x3c8ee2c1	0.017442109
225	0xbde1a3e0	-0.11017585
226	0x3dd1c9e0	0.10243583
227	0x3dc1ef2c	0.094694465
228	0xbdf908e9	-0.121599026
229	0xbdc2efb4	-0.09518376
230	0x3d4f619d	0.0506302
231	0x3d87df03	0.06634333
232	0xbd04641e	-0.03232204
233	0xbcf79cb2	-0.030226085
234	0xbdf7c4e6	-0.12098102
235	0x3ddc7312	0.107641354
236	0x3cafa3e0	0.021440446
237	0x3df51f92	0.11968912
238	0xbdf8eef1	-0.121549495
239	0x3ddcbc72	0.107781306
240	0xbd0b8ca8	-0.034069687
241	0x3d2fd0ef	0.042923864
242	0xbda73e3e	-0.08166169
243	0xbd91fe52	-0.07128586
244	0xbb98db6d	-0.0046648295
245	0xbdfae4e4	-0.12250689
246	0x3d9ca6a2	0.0764897
247	0x3cf01cf0	0.029310673
248	0x3db18819	0.08668537
249	0x3dfa991b	0.12236234
250	0x3df3acff	0.11898231
251	0x3c309b89	0.01077927
252	0xbde2b1b8	-0.110690534
253	0xbd764e3c	-0.060133204
254	0x3df64e5e	0.12026666
255	0xbdcaccdd	-0.09902356

 f4 [16]
0	0x3d60426b	0.05475084
1	0xbcc594fa	-0.02411889
2	0x3de6bade	0.11266111
3	0x3d1cd456	0.038288437
4	0x3df2b1ab	0.11850294
5	0xbc155f20	-0.009116918
6	0x3b3e207d	0.0029011064
7	0xbdff721e	-0.12472938
8	0x3de9d593	0.11417689
9	0x3da54dd2	0.08071484
10	0xbd850c08	-0.064964354
11	0x3d91cbe0	0.07118964
12	0x3da47718	0.08030528
13	0xbd82196b	-0.06352504
14	0x3dac1954	0.084032685
15	0xbd3d6eac	-0.046248123

weigh f4 [10, 16]
0	0x3dfbafea	0.12289412
1	0xbd5384e3	-0.051640403
2	0x3d1fc6cb	0.039007943
3	0x3e1ca537	0.152974
4	0x3dbd9a63	0.092579626
5	0xbd9e15f8	-0.07719034
6	0xbd54ce21	-0.051954392
7	0xbd86e5d8	-0.06586808
8	0xbe518bf3	-0.20463543
9	0xbc13f78b	-0.009031187
10	0x3da28969	0.07936365
11	0x3ddec568	0.10877496
12	0x3d84a87f	0.064774506
13	0xbe6f9a4f	-0.23398708
14	0xbacbd500	-0.001555115
15	0xbdc65f8c	-0.09686193
16	0xbe1ab77b	-0.15109055
17	0x3da80fe0	0.08206153
18	0xbe40b89e	-0.18820426
19	0x3e0df988	0.1386472
20	0xbe7d3f09	-0.24731077
21	0xbe4defa4	-0.20110947
22	0x3e0db612	0.13838986
23	0x3df55e00	0.1198082
24	0xbc5b4ac8	-0.013384528
25	0x3dce9086	0.100861594
26	0xbe55bd79	-0.2087306
27	0xbe212bca	-0.1573936
28	0x3e00cdbd	0.12578483
29	0x3ce26b6f	0.027639119
30	0xbe36071a	-0.17776147
31	0xbe5b14c2	-0.21394637
32	0x3da48280	0.080327034
33	0x3c94fba2	0.018186394
34	0xbe45bbcc	-0.1930992
35	0xbe3b5aa6	-0.18296298
36	0xbe07bc7b	-0.13255493
37	0xbd91e574	-0.07123843
38	0xbe4208d2	-0.18948677
39	0xbe3b1974	-0.18271428
40	0xbdfb5433	-0.12271919
41	0xbdc83c9d	-0.09777186
42	0xbe03aa01	-0.1285782
43	0xbddd9dac	-0.10821089
44	0x3e100f8e	0.14068434
45	0xbbf88460	-0.0075841397
46	0x3e74d484	0.23909193
47	0xbe5426d8	-0.20717943
48	0xbdbc82e4	-0.09204653
49	0xbd71006b	-0.05883829
50	0x3e75df9f	0.24011086
51	0x3e0f360c	0.13985461
52	0x3e6469a4	0.22305924
53	0x3e770486	0.2412282
54	0x3d8c5cb6	0.06853621
55	0x3e5aecb4	0.21379358
56	0xbe06ea6d	-0.13175364
57	0x3e24bd6f	0.16087888
58	0xbda70b11	-0.081564076
59	0x3dcc0b6c	0.09963116
60	0x3e539e1f	0.20665787
61	0x3d800eb7	0.06252807
62	0x3e6c8882	0.23098949
63	0xbc40ffc0	-0.011779726
64	0x3dc8bd84	0.09801772
65	0x3e0a5379	0.13508405
66	0x3e78701c	0.24261516
67	0x3e2e5aa8	0.1702677
68	0x3e6689f8	0.22513568
69	0xbcdab520	-0.026697695
70	0xbd8ff03b	-0.07028242
71	0xbdc0048c	-0.09375867
72	0x3e4007c7	0.18752967
73	0x3e16b80e	0.14718649
74	0xbd8b22c6	-0.06793742
75	0xbe4adac8	-0.19810021
76	0xbe1b5345	-0.15168484
77	0x3e7b92e9	0.2456776
78	0x3cff0060	0.031128109
79	0xbe22eb0c	-0.15909976
80	0x3de8cab8	0.113667905
81	0x3e4f7d2f	0.20262598
82	0xbdda3fe8	-0.106567204
83	0x3e041446	0.12898359
84	0x3d8cf041	0.06881762
85	0x3cd26dc0	0.025687099
86	0x3cb6adeb	0.022299727
87	0x3d5ed588	0.054402858
88	0xbe1576cd	-0.145961
89	0x3e3d9ea8	0.18517554
90	0x3d961e6d	0.07330022
91	0xbc83d7e0	-0.016094148
92	0x3c9245cc	0.017855547
93	0xbe16d981	-0.14731409
94	0xbd921654	-0.07133165
95	0xbc2346c0	-0.009965599
96	0xbbad8d47	-0.0052963826
97	0x3e76451d	0.24049802
98	0xbe58e02e	-0.21179268
99	0x3d393229	0.045213852
100	0xbe24da05	-0.16098793
101	0xbe55a9c4	-0.20865542
102	0xbde5a456	-0.11212985
103	0x3e54f80a	0.20797744
104	0xbbf41c67	-0.007449675
105	0xbe5b1783	-0.21395688
106	0xbdcb0633	-0.09913292
107	0x3cabc850	0.02096954
108	0x3e7787d4	0.24172908
109	0xbd0e9761	-0.034812335
110	0xbcd14180	-0.025543928
111	0xbe66b3da	-0.22529545
112	0x3d79c64c	0.060980126
113	0x3e095ef4	0.13415128
114	0xbe673d13	-0.22581892
115	0xbe66ec16	-0.22550997
116	0x3e41e2fa	0.18934241
117	0x3e038b70	0.1284616
118	0x3e017d7b	0.12645523
119	0xbe01fa1a	-0.12693062
120	0x39e4e61d	0.00043658997
121	0x3e01ceef	0.12676595
122	0xbd764153	-0.06012089
123	0x3e1fc6a0	0.15603113
124	0xbe6be7ec	-0.2303769
125	0x3e2a658e	0.16640303
126	0xbd803d3c	-0.062616795
127	0x3e110a36	0.14164051
128	0xbe30e516	-0.1727489
129	0x3e2a0ee4	0.16607243
130	0x3e53f032	0.20697096
131	0xbdcca801	-0.09992982
132	0x3c6d9a82	0.01450217
133	0x3dec2b28	0.11531669
134	0x3c9956d0	0.018718153
135	0x3d621138	0.055192202
136	0x3da14bb7	0.078757696
137	0xbe63698b	-0.2220823
138	0x3d9e42b7	0.077275686
139	0xbe127f16	-0.14306292
140	0xbc3373d6	-0.01095291
141	0x3e2bc723	0.16775183
142	0xbe357b14	-0.17722732
143	0xbe52fc9c	-0.20604175
144	0xbe5c4c5a	-0.21513501
145	0xbe06cee6	-0.13164863
146	0xbe48a06e	-0.19592449
147	0x3dd5fcd1	0.104486115
148	0xbe65b142	-0.224309
149	0x3e679c8e	0.22618315
150	0xbda3db2c	-0.08000788
151	0xbc84cfb0	-0.016212314
152	0x3d8d8086	0.069092795
153	0x3d8f396b	0.069933735
154	0xbd95e871	-0.07319725
155	0x3e4d33f2	0.20039347
156	0x3b63e02e	0.0034771073
157	0xbe4e6987	-0.20157443
158	0xbd682200	-0.05667305
159	0xbcf56720	-0.0299564

bias f4 [10]
0	0xbe1a55c0	-0.15071774
1	0x3e49cd41	0.19707204
2	0xbcb0a0b7	-0.02156101
3	0xbe49a2fe	-0.19691083
4	0xbe1def6b	-0.15423362
5	0x3e3318ee	0.17489979
6	0x3d9be42f	0.07611882
7	0x3e420541	0.18947317
8	0x3e5ea507	0.2174264
9	0xbe358c28	-0.17729247
