results/Mnist_best_model_classification_MLP_policy.ckpt (torch, 11841 bytes, 12 tensors)

net.0.weight f4 [64, 4]
00000000: 36a6 de3e 511f d9be ccfb e63d ba2c 123e
00000010: 045e a53e 3577 a23e c85f 9d3e d14f e9be
00000020: 18d1 763e 84ba 04bd 45a5 febe 68c1 ffbe
00000030: 726d 83be 3adf e7be 4081 60bc a4a0 8cbe
00000040: 069f f4be 16c5 153d aba1 223e 4243 81be
00000050: 4d41 c03e cb92 8ebe 1ccd 07be fb12 983c
00000060: af35 fb3d 14e5 593d 6f0a 19be 035f e5be
00000070: 00a3 783c 9065 f6be 2006 5abe e8b7 f1be
00000080: 89ff 383e a7ef e53e a9a5 bebe 3b75 1ebd
00000090: 41c3 98bd 8b64 a0be 5336 1c3e 7406 4abe
000000a0: f05d a73e 1084 efbd cc2e ee3e 08de e13d
000000b0: 2243 a6be 0e36 8abe 98f9 84bd 2045 c6be
000000c0: 0ac4 da3e 6008 893e dff6 bebd 0fbe 7b3d
000000d0: 3765 f0be cdb0 0d3e f0b4 ea3c ec2c 79be
000000e0: 59f6 f93e 01dd b4bb e8b7 b83e a127 ed3e
000000f0: f927 f5be b3d0 8f3e ac02 64be 73d7 aabe
00000100: ae9d c4be f032 8bbe e211 debe 54c6 88be
00000110: 7457 eabe e30b 92be 2ca5 57be 2b4f 983e
00000120: 40cb f1be f5fd 84bd dc68 b03e 89bf 03be
00000130: 4223 873e 2cfa 963e ae2e 213e 789b 663e
00000140: 5e53 f03d 3a05 b23e 68bc fe3e cff5 35be
00000150: 4c14 f1be f9be 6e3d f3ed af3e ff03 87bd
00000160: 675f f0be a211 62bd 06da 4c3e 9a3c 2b3c
00000170: 5f58 e9bd 2a81 05bd 9fa7 30bd c25f e63e
00000180: 3e1b febe a40b 1ebe 02d5 af3e 79ac 32be
00000190: 83f5 1f3e 5d38 2fbd 3003 763d f402 ed3d
000001a0: 4ed8 c6be 9a1c 82be e83a 9f3d a016 08be
000001b0: e955 90be 66c9 fc3e cf0b 763e b2eb 8bbe
000001c0: 272c 7d3e 224d d3be 43ae c03d 0779 42be
000001d0: b206 023d 97d4 a6be c897 183e 66b7 5ebe
000001e0: 2fdc d23e 0f19 943e 5617 ca3e 3257 ec3e
000001f0: b3d7 b03e a9ae 7d3e 8728 8e3c 44fe e63d
00000200: 1409 43be 88d3 f3bd f05c c3bd 80f3 4ebd
00000210: f84c e53e 9f6d b43e 0c96 923e 6564 a63e
00000220: 59bb 643e 75ca 803e fa8e 88bd f942 5dbd
00000230: 8bab 91be 146e c33c a1e8 e33e 0d1d 033e
00000240: a78a 823e 25e6 983c 5d5d fdbe 609f b4be
00000250: a99e b4be 3821 503e bb72 93be dc48 493e
00000260: 4b85 c73e 885e d13e 8f5e f63d 8f6f 80be
00000270: b2e6 6fbe a41f 363e 13f1 183e e247 a53d
00000280: 78ee 7d3e 8d82 57be d1cb 223e 90e7 fdbe
00000290: 29ed f63e 9859 aebe 7556 e73c 0717 443e
000002a0: 117c a4be e6d1 473e d826 11be 1347 d5be
000002b0: 5dd0 8dbe 56f1 5ebe 0b25 81be 6deb b63e
000002c0: a616 a93d 6835 2f3e d077 033e 08ca c1be
000002d0: 0fbb 9e3e 1247 84be a289 a63e 2741 9ebe
000002e0: ecf8 e83e e7cd 9abd f814 53be 3fc4 69bd
000002f0: e037 9dbc 787a efbe 54bc e7be ac8a 4ebe
00000300: 3b7d ce3e da6e a7be a777 503e 2f95 b6be
00000310: 6fb7 abbd dae0 c53e 2248 e5be 14f3 8b3d
00000320: 62f6 a1bd 1679 f73e 2568 b9bd d332 b9be
00000330: b629 a1be 36a5 a23d 4f01 8e3d d2a7 bbbe
00000340: 3268 c03e 1170 e1be 6db2 a7be 01e2 89be
00000350: fff9 ecbe bf24 cabe 1857 423e d04e 273e
00000360: 8e96 a5be 038c 7abe 396d 373e 591d e2bd
00000370: abed 81bd 6aa9 a33e 2482 c8be 9531 41be
00000380: d3a8 843d a47f d63d c66d 75be f050 40be
00000390: ca7c 8cbe 243e 37be 1efa a4be 2ccd 033e
000003a0: c3f1 9e3e d08a e83e b7b2 acbe afed 2a3e
000003b0: 0a20 f43e b0a5 8dbe b721 253e 3e5b b53e
000003c0: ed91 a53d 476e c1be bb46 513e 9394 d23e
000003d0: 6110 8d3e 9948 043e 77c3 723d 8103 e43e
000003e0: dd28 b63e 9050 a5be b197 d03e 8fa4 b03d
000003f0: ac23 94be c484 45be 7a5d e3be e02c 0fbe
0.43486184 -0.42406705 0.11278495 0.14274874 0.3229829 0.31731573 0.30737138 -0.45568708
0.241032 -0.032404438 -0.49735466 -0.49952245 -0.25669438 -0.45287496 -0.013702691 -0.2746631
-0.47777575 0.03656491 0.15881984 -0.25246626 0.3754982 -0.2784637 -0.13261837 0.018563738
0.12266099 0.05319698 -0.14945386 -0.4479905 0.015175581 -0.4812436 -0.21291399 -0.47210622
0.18066229 0.44909403 -0.37235764 -0.03868602 -0.07459117 -0.31326708 0.15255098 -0.19729024
0.32688856 -0.11695111 0.46520078 0.11028677 -0.32473093 -0.26994365 -0.06492919 -0.38724613
0.4272769 0.26764202 -0.09324431 0.06146055 -0.4695222 0.13836975 0.02865073 -0.24333543
0.4882076 -0.00551951 0.3607781 0.46319297 -0.4788206 0.28088912 -0.22266644 -0.333675
-0.3840155 -0.271873 -0.43373019 -0.26713812 -0.45769846 -0.28524694 -0.21059102 0.297479
-0.4722538 -0.06493751 0.34455 -0.12866034 0.26394087 0.2948774 0.15740463 0.22520244
0.11734651 0.34769613 0.49753118 -0.1776955 -0.47085798 0.058287594 0.34361228 -0.06592559
-0.46947786 -0.055192597 0.20005044 0.01045146 -0.113938086 -0.032593884 -0.043128606 0.44994932
-0.4963016 -0.15434128 0.343422 -0.17448606 0.15620999 -0.04277836 0.060061634 0.11572829
-0.38836902 -0.25412446 0.07774907 -0.13289881 -0.28190544 0.49372405 0.24027942 -0.2732826
0.24723874 -0.41269785 0.09408238 -0.18991481 0.031744666 -0.32584068 0.1490165 -0.21749648
0.41183612 0.28925368 0.3947093 0.46160275 0.34539565 0.24773659 0.01735331 0.11278966
-0.19046432 -0.11905581 -0.09539211 -0.05052519 0.44785285 0.35239884 0.28630102 0.3249847
0.22337092 0.25154462 -0.066678956 -0.05401895 -0.2845119 0.0238562 0.4451342 0.1280405
0.25496408 0.018664429 -0.49485293 -0.35277843 -0.35277298 0.20325172 -0.2879847 0.196567
0.38968882 0.40892434 0.12029754 -0.25085112 -0.23427847 0.17785507 0.14935713 0.08070351
0.24798 -0.21045895 0.15898062 -0.4959073 0.48227814 -0.3405273 0.028239468 0.19149409
-0.32125905 0.19513664 -0.14174974 -0.41655788 -0.2769803 -0.2177175 -0.25223574 0.3572649
0.08256273 0.17110217 0.12838674 -0.3784945 0.3100209 -0.25835472 0.3252688 -0.30909082
0.45502412 -0.07558804 -0.20613468 -0.05707192 -0.019191682 -0.46773124 -0.4526087 -0.20170087
0.40329918 -0.3270176 0.20358144 -0.35660693 -0.083845966 0.3864811 -0.44781595 0.06833473
-0.07908322 0.4833457 -0.09053067 -0.36171588 -0.31477135 0.07941668 0.06933843 -0.36651474
0.37579495 -0.44030812 -0.32753316 -0.2693024 -0.46284482 -0.3948116 0.18978536 0.16338658
-0.32341427 -0.24467473 0.17912759 -0.11040754 -0.0634416 0.3196519 -0.3916179 -0.1886657
0.06477513 0.10473564 -0.23967656 -0.18780875 -0.27438956 -0.17894799 -0.32222074 0.12871236
0.31043825 0.45418406 -0.337301 0.16692232 0.47680694 -0.27665472 0.16126142 0.35421175
0.08084474 -0.37779447 0.20437138 0.41128978 0.2755156 0.12918319 0.05926844 0.44533923
0.3557805 -0.32288027 0.4074073 0.08625137 -0.28933465 -0.19288927 -0.44407254 -0.13981962

net.0.bias f4 [64]
00000000: 38d0 be3e eb3f 53be 8d68 b0bd f093 76be
00000010: 3c58 e8be 03d8 bc3e 2a2a 6a3d d059 c63d
00000020: b56c 87be 3693 ed3e ebb7 f93e 66b6 bfbe
00000030: 1e3d 873e 2930 83be 8df6 8c3e d796 ce3e
00000040: 2017 3ebd 1f6e 18bd 55eb d4be b0a7 93be
00000050: 16c8 76bd 4e99 cdbe 020d 7fbe e888 80bd
00000060: 16b3 eebd a29c 7b3d 5823 093e a068 10be
00000070: 76fd 22bd 2556 bbbe 8fe3 acbe e5bb 873e
00000080: f2a2 f7be 8d70 e93e 1873 133d d27a 1bbe
00000090: 3732 ae3e 6396 efbe e1f8 c43e 3cf4 293d
000000a0: 30b6 d63e f758 a93e fb6e c83e f11c 93be
000000b0: 53eb 2abd 3c50 f6be f9b6 db3e 6010 ee3e
000000c0: 976b a83c 4483 be3e 4dee 143e 564e cc3e
000000d0: 42e2 2b3e 887a 4bbe 124a fabe c40e f8bd
000000e0: d62a d3be 4a5f cfbe ee32 ef3e 8fd9 ad3e
000000f0: a43a ab3e af2c 45be 3474 a83d f02a a9be
0.37268233 -0.20629852 -0.086136915 -0.24079871 -0.45379817 0.36883554 0.057169117 0.09685099
-0.26450124 0.46401376 0.4877313 -0.37443846 0.26413816 -0.2562268 0.27531853 0.40349457
-0.046408772 -0.037214395 -0.41585794 -0.28838873 -0.06024941 -0.40156025 -0.24907306 -0.06276113
-0.11655252 0.061428674 0.13392389 -0.14102411 -0.0397925 -0.3658916 -0.33767363 0.2651054
-0.48366505 0.45593682 0.035998434 -0.15183571 0.34022686 -0.46794423 0.3847113 0.041492686
0.41935873 0.33075687 0.3914717 -0.28733018 -0.04172833 -0.4810809 0.42913035 0.46496868
0.020559115 0.37209523 0.1454403 0.39903516 0.1678553 -0.1987096 -0.48884636 -0.12112191
-0.4124362 -0.40502387 0.46718544 0.33955047 0.33443177 -0.19255327 0.08225289 -0.3304057

net.2.weight f4 [16, 64]
00000000: 7ef5 ef3d c8ee dd3c ee67 a03d 0620 8d3d
00000010: b8cf df3d ec08 8d3d 0019 af3a 62bf 89bd
00000020: 683e dd3d 447b d7bd 929d a8bd b44d d03d
00000030: b0bf ccbc 009e 53ba f061 e5bd e038 42bd
00000040: fc10 773d 4894 eebd 0035 9b3a 1029 d8bc
00000050: c00c cabc 9242 95bd 6237 eb3d 343d 59bd
00000060: 02a7 df3d 7064 ecbd 28ff 48bd fcc2 e6bd
00000070: 9a87 b1bd b6ce cc3d 988e 38bd 2422 e5bd
00000080: 24c8 1cbd be93 c5bd 180b 0d3d 9c73 a93d
00000090: d863 b9bc 802b 86ba 74ba 043d 0a26 83bd
000000a0: e282 8abd b03a df3c 1473 703d 60c7 283d
000000b0: 5e13 e4bd e48b e7bd 4833 5a3d 10b5 df3d
000000c0: 3672 bdbd 0044 263b 5077 26bd dc6f c9bd
000000d0: 42fd afbd 4868 42bd 9871 a83c c8e5 e1bc
000000e0: 907b 0dbc 1aa3 f13d 68ff ec3c ae55 a8bd
000000f0: c2dd 8fbd d29a d1bd ded5 8c3d c8b3 c43d
00000100: be8d 19bd d7b0 5ebc bee9 f13d 7071 373c
00000110: fa02 07bc d6f5 abbd f985 12bd 40a0 1b3d
00000120: ff66 993d fd69 853d dcaf ab3d 8af2 e03d
00000130: 8f5c f6bd 5320 a6bd e7c4 ff3d d6f9 ce3d
00000140: 9698 f73d 3364 9abc cdb1 18bc 060f 763d
00000150: 759b 99bc 39c5 11bd cb1d 01be bc6b cabc
00000160: 65be a13d 79ea 443d c082 b3bb f002 9c3c
00000170: 69af c3ba 4a64 c43d 40bd 13bc 1704 8cbd
00000180: b4bc a8bd b23b debc e500 ab3b db9a 73bd
00000190: 748f b2bd 84d0 d8bd 3288 f33d 2613 f23d
000001a0: af03 ea3c f47a 573c 179e 8bbd 9024 1b3d
000001b0: eb9b 2b3d 9ec2 f13c f55f aabd a08c c9bd
000001c0: 7aa0 f33d b83f a8bc 2cd1 f93b 8e42 32bd
000001d0: 185a 0a3d d44c 75bd d683 4ebd 385c 533d
000001e0: 8dc5 b33d 40aa 83bc 8794 02bd 5876 e93d
000001f0: 1ee4 ebbd 3757 553d 5eae b8bd ec39 29bd
00000200: 145c f8bd 184a d53c 0420 52bd 547c 29bd
00000210: 8444 73bd 3e03 c5bd a223 c9bd f8e9 80bc
00000220: 4406 e63d 04d6 cb3d 5410 fdbd 0e15 803d
00000230: 0086 8e3b 0c39 b7bd f4c3 01bd 3077 473d
00000240: e030 e83d e063 12bd ec2f 923d a4d4 b7bd
00000250: 56f0 f03d 183e 18bd 2484 893d 620b bc3d
00000260: f8af fcbc 0e60 edbd 80c6 ba3d 3859 11bd
00000270: 545f 56bd 988d 99bc 88bc bdbd d06f a23d
00000280: 4053 5c3d fe52 b3bd 641b 283d 9eb3 89bd
00000290: 10cc cf3c 7871 96bc 647e 613d 405a cc3d
000002a0: 8807 c3bd c6fc d0bd c05e 893d 2cfe 553d
000002b0: 687e 263d 9261 ab3d c003 d9bb 40e3 4e3d
000002c0: 98fb 20bd 54a0 14bd a632 8d3d 48dc a7bc
000002d0: f81b 6d3d 269a b33d 00fc 80bd f0cf 98bd
000002e0: d038 563d 30ec 79bc ba61 c1bd 0433 9ebd
000002f0: a491 6b3d c098 70bc 4a91 a13d 3ea7 adbd
00000300: 3c54 fcbd c614 74bd 2c6e 20bd c85a cd3d
00000310: 600c e9bb 1a8b eb3d 4ab5 ad3c 40d2 743d
00000320: f8f3 72bd 0033 663d aa97 2ebc fea3 8abd
00000330: 5e6a 543d 4655 cfbd 7e09 1a3d cc7b 933d
00000340: f08d 5bbc 50c8 e03c 2cde 2c3d 10e2 fcbb
00000350: 2280 84bd c022 fb3c 7003 8c3d 549b e83d
00000360: 20ef 383c 46ab 7c3d 40a6 22bb 7621 bebd
00000370: 06d1 cb3d da3e 8abd fabb 4cbc 883f d73d
00000380: 9442 7b3d de05 7bbd 6e91 febb 5925 9dbd
00000390: f2cd a2bd 97d2 0b3d d21d 66bd d032 eebd
000003a0: fa84 b7bd 3ce0 9e3c 38d9 b23d 8032 e53d
000003b0: 5eb8 2d3d 5e41 363d 0a01 61bd 125d c53d
000003c0: 5271 443d 610f 333c 00f5 703b 1655 a5bd
000003d0: 0a11 dd3d 9888 f7bd fce1 8e3d 48f4 c9bd
000003e0: 7ab6 90bd 42af bd3d 6ac2 d1bd 0423 bd3c
000003f0: 50d1 edbd defa 13bd ee20 9f3d 002d 2f3d
0.11716746 0.027091399 0.07832323 0.068908736 0.10928291 0.06886467 0.0013358891 -0.067259565
0.10802919 -0.10521558 -0.08233179 0.10171071 -0.024993747 -0.0008072555 -0.11200321 -0.04741752
0.060318932 -0.11649376 0.0011841357 -0.026386768 -0.024664283 -0.07288088 0.11485173 -0.053036883
0.10920526 -0.115425944 -0.04907146 -0.11267659 -0.08668442 0.100003645 -0.045057863 -0.111881524
-0.038276806 -0.0964732 0.034434408 0.08274004 -0.022630617 -0.0010236353 0.032404378 -0.0640374
-0.06763245 0.027249664 0.058703497 0.041205764 -0.111365065 -0.11305979 0.05327156 0.10923207
-0.092503 0.002537012 -0.04064113 -0.098357886 -0.08593227 -0.04746273 0.020561978 -0.027575389
-0.008635417 0.11798687 0.028930381 -0.08219467 -0.07024719 -0.10234608 0.068767294 0.09604603
-0.03748869 -0.013591967 0.11812161 0.011196479 -0.008240456 -0.08396499 -0.035772298 0.037994623
0.07490348 0.06514356 0.08383152 0.10983761 -0.12029373 -0.08111634 0.12488728 0.10106246
0.1208965 -0.018846607 -0.009319735 0.06007292 -0.018750886 -0.035588477 -0.12609021 -0.024709575
0.07897643 0.048075173 -0.005478233 0.01904437 -0.0014929596 0.09589441 -0.009017289 -0.068367176
-0.08239117 -0.027128074 0.0052186125 -0.059473854 -0.08718768 -0.10586646 0.118912116 0.118200585
0.02856621 0.013151873 -0.068172626 0.037876666 0.04189674 0.029511746 -0.083190836 -0.09841275
0.11895843 -0.020538196 0.007623812 -0.043520503 0.033777326 -0.059887722 -0.050418697 0.05160162
0.08777914 -0.016072392 -0.031879928 0.113995254 -0.11518119 0.052085128 -0.09017633 -0.041315004
-0.121269375 0.026036307 -0.051300064 -0.041378334 -0.059391513 -0.09619759 -0.098212495 -0.015736565
0.11231664 0.099529296 -0.1235663 0.06254016 0.00434947 -0.08946428 -0.031681016 0.04869765
0.11337447 -0.03573978 0.071380466 -0.08976105 0.117645904 -0.037168592 0.06714657 0.091818586
-0.030845627 -0.115905866 0.09119892 -0.035485476 -0.052337006 -0.018744275 -0.09264475 0.07931483
0.05379033 -0.08756064 0.041041747 -0.067237124 0.02536586 -0.018364653 0.055052176 0.09978151
-0.09522921 -0.10204463 0.06707525 0.05224435 0.040647894 0.083682194 -0.0066227615 0.05050969
-0.03930244 -0.036285713 0.06894426 -0.02049078 0.057888 0.08769636 -0.06298065 -0.07461536
0.052300274 -0.015254065 -0.09442468 -0.07724574 0.05751194 -0.014684856 0.0788904 -0.084791645
-0.12320754 -0.059590124 -0.039167568 0.10027081 -0.007112071 0.11501141 0.02120461 0.059770823
-0.059314698 0.05620098 -0.010656277 -0.0676956 0.051859252 -0.101236865 0.03760671 0.07201347
-0.01340054 0.027439266 0.042204067 -0.0077173784 -0.06469752 0.030656219 0.06836593 0.113577515
0.011287481 0.061686777 -0.002481833 -0.09283726 0.099519774 -0.06750269 -0.012495989 0.105101645
0.06134279 -0.061284892 -0.0077688014 -0.07673139 -0.07949437 0.03413638 -0.056180783 -0.116307855
-0.0896091 0.019394033 0.087328374 0.11191273 0.042412154 0.044495933 -0.05493263 0.096368924
0.047959633 0.01092896 0.0036767125 -0.080728695 0.107942656 -0.120866 0.06976697 -0.09861046
-0.07066055 0.092619434 -0.1024216 0.023087986 -0.11612189 -0.036127917 0.07769953 0.042767525

net.2.bias f4 [16]
00000000: b006 60bc 8a5d 033d 8414 9bbd 1cf8 d23d
00000010: a4f0 ffbd de23 a9bd 2d4a edbd 0abc 90bd
00000020: b257 963d 52e5 cfbd 279c 8cbd 26b5 bfbd
00000030: 7d5f 59bd e550 ac3d 7ce7 2ebd 1816 463d
-0.013673469 0.032071628 -0.075722724 0.10301229 -0.124970704 -0.08258794 -0.115864135 -0.070671156
0.07340945 -0.10151161 -0.06865721 -0.09360723 -0.05306958 0.08413867 -0.04270123 0.048360914

heads.0.0.weight f4 [10, 16]
00000000: 7475 7cbe 6c45 a03d 60c8 3d3e c54d a7bd
00000010: 2552 1f3e 78a7 453e 71ef 603e b1ee 6dbe
00000020: e592 793e c0be 313c 2c78 16be 027a 2fbe
00000030: 3486 4b3e a56e 19be 40a3 853d bc04 29be
00000040: a08e 943d ba46 3e3e e825 17bd 038d b93d
00000050: 30c9 2bbd 74eb 7b3d 62a9 6abd 5539 31be
00000060: 34b6 3bbe d0c0 9c3c 52e1 cabd 00b5 15bc
00000070: 5227 6abe 23e4 f3bd 00bc 22bb 6279 4fbe
00000080: 4059 fd3c 477b 37be e098 29bc aa1c 1cbe
00000090: e36a 6f3e 8376 33be 4c55 16be 21c6 513d
000000a0: c7f7 623e 2c50 4dbe c903 043e b0e8 dd3c
000000b0: c82a 49be e71b fcbd c0e1 dfbd e8f8 e8bd
000000c0: c60e 6d3e 4331 143e e86e 5b3e 1a47 fb3d
000000d0: 47bb 6c3e 4079 34bd 20b6 d33d 2ccf 9e3d
000000e0: a2f5 163e 909f d7bd 9089 5ebe e035 87bc
000000f0: 68b8 8dbd d5cd 2fbc 067a 71be 74df 23be
00000100: 8476 733e c511 1fbd 9091 a1bc 53d0 6e3e
00000110: b34d a0bd 07c7 163d ca8e 473e 8701 4b3e
00000120: 4f05 903d 3235 0c3e de49 603e 8893 0c3e
00000130: 953c 503e 0458 0b3e 3093 8b3c 8061 5bbb
00000140: 7816 10bd 5907 d9bd 4046 663c 0a05 4ebd
00000150: 72c4 763d cec8 3d3e 7724 583e 3c5d be3b
00000160: c922 13bd ba20 08be 7b72 e8bd 4004 273d
00000170: 3df5 5cbe 9e64 2a3e 6052 94bc 9c94 0c3e
00000180: 0853 513e f5ea b0bd 382c d23d 8bfb 633d
00000190: 8c96 f93d 2d4b 7f3e 9c8d 583e cc7a d0bd
000001a0: f049 083b b2bf 7e3e fd3d 0bbe 6078 7c3c
000001b0: bc96 71be 7549 a6bd 7ce0 5c3e f497 b43d
000001c0: bce7 86bd d876 473e 00f0 7f39 23d9 16be
000001d0: a786 193e 609d 4ebe 28d8 1f3e ece1 06be
000001e0: cea7 1f3e a217 59be 7029 573e 323b 053e
000001f0: 3be2 49be 20a1 16be 987a 853d 0cab 8fbd
00000200: a8bb 6fbd 5481 5bbd 0074 953c 59b2 6bbd
00000210: 7bb5 5c3e e7d4 713e f3bd 4f3e d36e e93d
00000220: b6de 40be a050 7a3d 1743 0abe 4c22 64be
00000230: ea3f 493d 4690 293d f063 2abe 3af9 35be
00000240: 60ad 0abd 9f1f 34bd f697 71be c743 5a3d
00000250: 62ba d83d 7b6d 66be 1b38 fb3d ec00 153e
00000260: bf27 653e e8fe d23d 6bae 2a3e 2840 0b3d
00000270: 4cd6 f33b 1ad7 a9bd 6096 3ebd 880d 213d
-0.2465418 0.07825741 0.18533468 -0.0816913 0.1555868 0.19302166 0.2196634 -0.23235585
0.24372442 0.010848701 -0.1469428 -0.17136386 0.19875413 -0.14983614 0.06525278 -0.16505712
0.07253766 0.18581668 -0.036901385 0.09060099 -0.041939914 0.061503842 -0.057290442 -0.17307027
-0.18331224 0.019134909 -0.09906258 -0.009137392 -0.22866562 -0.11908748 -0.0024831295 -0.20261148
0.030926347 -0.1791812 -0.01035139 -0.1524531 0.23380618 -0.17525677 -0.14680976 0.05121434
0.22164832 -0.20050114 0.12892069 0.027088493 -0.19645226 -0.123100094 -0.1093173 -0.113756
0.23150167 0.14471917 0.21429026 0.12269421 0.23118316 -0.044060946 0.10337472 0.07754359
0.14742139 -0.10528481 -0.21732163 -0.016505182 -0.06919938 -0.0107302265 -0.23581704 -0.1600321
0.23775679 -0.038835306 -0.01972273 0.23321657 -0.0782732 0.0368109 0.19488063 0.19824801
0.070322625 0.13692167 0.21903178 0.13728154 0.2033561 0.13607794 0.017037958 -0.0033474863
-0.035177678 -0.105971046 0.014054835 -0.050297774 0.06024594 0.18533632 0.2110766 0.0058094542
-0.035921846 -0.13293734 -0.113499604 0.040775537 -0.21577926 0.16639945 -0.018105686 0.13728565
0.2044183 -0.086385645 0.1026234 0.055659812 0.12186918 0.24931021 0.2114777 -0.10179672
0.0020796023 0.24877813 -0.13597865 0.015409559 -0.23592657 -0.081194796 0.21570009 0.08818045
-0.065871686 0.19478929 0.00024408102 -0.14731269 0.14992772 -0.20177221 0.15609801 -0.1317212
0.15591356 -0.21200421 0.21011901 0.13010862 -0.19715206 -0.14709902 0.065175235 -0.070150465
-0.058528572 -0.053590134 0.01824379 -0.057543132 0.21553604 0.23616372 0.20287304 0.11398091
-0.18834957 0.061112046 -0.13502155 -0.22278708 0.04913322 0.041397355 -0.16639686 -0.17770854
-0.03385675 -0.04397547 -0.23593125 0.053287294 0.10582425 -0.22502701 0.12266561 0.14551133
0.22378443 0.10302526 0.16668098 0.03399673 0.0074413177 -0.082929805 -0.046530128 0.039319545

heads.0.0.bias f4 [10]
00000000: 35a4 503d 4b3b 1b3e f493 263c b0c8 603e
00000010: 0177 17be c5ff 6d3d a8d5 8b3d 8721 52be
00000020: c137 db3d 6c6b 92bc
0.05093785 0.15159337 0.010167111 0.21951556 -0.1479149 0.05810525 0.06827861 -0.20520602
0.107039936 -0.017873488

heads.1.0.weight f4 [10, 16]
00000000: 70d2 b73c 436e 56bd e8c5 a0bd 1f27 ea3d
00000010: 820e 94bd dc54 ee3d e3c6 4bbe 11b7 5ebe
00000020: b3c4 8cbd 285c 23be f96f 483d ec9b 2ebe
00000030: 206b 31be db76 ee3d f464 ef3d 4e0b 423e
00000040: b819 6e3d f8b3 8dbc 4057 22be 6c27 633d
00000050: 4207 873d 50ac 593e 3535 29be 8627 bd3c
00000060: 1e7d fbbc 5ed5 0bbe 29be 11bd ce73 0a3e
00000070: 4082 76be b9d5 1b3d d653 3bbe c0cb aebb
00000080: e09a f1bc 4a79 1ebd 30a1 0a3e 7073 08be
00000090: 8549 78bd cf7e 61be c0f4 b83c b78f 543e
000000a0: 3b87 83bd 84cb 68be cd98 61bc 4e57 073e
000000b0: a2eb 37bd e05c 073e 08e3 0e3e 46c9 6c3e
000000c0: 44d5 6bbe a608 e03d f482 f43d 2ded dabd
000000d0: 4bbe e43d 7cce 67be 405e 6e3e 5a42 163c
000000e0: 90eb 043d f0f0 05bd ce51 e7bc 8416 b63d
000000f0: 06c9 433e 52e6 64be ce3a 1e3e b455 1cbe
00000100: b878 54bd 24ec ffbc f881 7e3d a9fc 523e
00000110: 7749 7e3e 315d e9bd 4e2e 67be 818d 083e
00000120: 6f6e 82bd c00d 723c 5445 b8bd 6265 01be
00000130: 4add c03a bf0b 40bc 6a77 51be f410 4cbe
00000140: 188b cebd 04cd 1abd 76a7 34be 203b 92bc
00000150: 2ea5 f0bd 2002 213c cd6e 433e fd17 443e
00000160: 9b39 be3d e0cf 8a3c 0261 fd3d f01e b8bd
00000170: d44d 20be f01d 533e 18a7 463e 10ba 6abe
00000180: a427 fb3d 26d8 b83d e04a 97bd 06a9 40be
00000190: 5d51 163d 81f2 d03d ff4c 8abc 7676 1fbe
000001a0: aa80 cdbd 104c 8dbd ac87 623e 78bd c5bd
000001b0: de19 5cbe 742f 3a3e a014 80bc 3261 42be
000001c0: 6a26 2d3e 0ef6 2d3e f80c 3e3d 9033 683e
000001d0: 5729 623e 9cfa 523b 5127 b7bb 9c7d 033c
000001e0: 3845 c53d 6c97 6bbe a5a5 f93d be8f 4f3e
000001f0: 0db9 fe3c ba60 e23d 5cb4 45be 206e 0dbe
00000200: 8409 0f3e b686 0c3e c895 1bbe 674a 6fbe
00000210: d1b8 db3d 1586 473d 3c14 583c 9f1f a33d
00000220: af60 debd e461 c7bd bf07 0c3e 208b dfbc
00000230: 1e6e 8f3c 7233 4d3e 5496 f2bd 80b6 dcbb
00000240: f6c3 373e 1b63 abbd 304e ccbc f573 803b
00000250: d029 14bc 7039 42bd 4552 28be 50a9 4abc
00000260: f6cd 1cbe a8ec 74be 3edd 5ebe 6ad3 19be
00000270: 95df 273e 48e7 26be 10e6 353d 840b 85bd
0.022439212 -0.052351248 -0.078502476 0.11433243 -0.0722933 0.116372794 -0.19900088 -0.21749522
-0.06873455 -0.15953124 0.04893491 -0.17051667 -0.17326021 0.11643764 0.11689177 0.18949625
0.058129996 -0.01729773 -0.15853596 0.055457518 0.06593181 0.21257138 -0.16524203 0.023090135
-0.030699309 -0.13655612 -0.03558174 0.13520738 -0.24073124 0.03804562 -0.182937 -0.0053343475
-0.029492795 -0.03868989 0.1353805 -0.13325286 -0.06061699 -0.2202103 0.022577643 0.20757948
-0.064222775 -0.22733885 -0.013769341 0.13216898 -0.04490245 0.13219023 0.13953793 0.23123655
-0.23030573 0.109391496 0.1193904 -0.10689769 0.11169108 -0.22637361 0.23278141 0.009171093
0.032451212 -0.03270048 -0.02823725 0.08891013 0.19119653 -0.22353485 0.1545212 -0.15267068
-0.05187294 -0.03124053 0.062135667 0.20604195 0.24832712 -0.11394728 -0.22576258 0.1333523
-0.0636872 0.014773786 -0.08997598 -0.1263633 0.0014714387 -0.0117215505 -0.20455709 -0.19928342
-0.10085124 -0.037793174 -0.17642006 -0.017850459 -0.117502555 0.009827167 0.19085236 0.19149776
0.09288331 0.016944826 0.123720184 -0.08990276 -0.15654689 0.20616889 0.19399679 -0.2292254
0.1226342 0.09025602 -0.07387328 -0.18814477 0.036698688 0.10202504 -0.016882418 -0.15572533
-0.10034306 -0.068992734 0.22122067 -0.09655279 -0.21494243 0.18182164 -0.015634835 -0.1898239
0.16909185 0.16988394 0.046399087 0.2267592 0.22086082 0.0032192832 -0.0055894037 0.008025553
0.09632343 -0.23006982 0.12189797 0.20269677 0.031094098 0.110536054 -0.19307083 -0.1381154
0.13968474 0.13723263 -0.15193856 -0.23368226 0.1072861 0.048711855 0.013188418 0.079650156
-0.10858285 -0.09735468 0.1367483 -0.02728802 0.017508563 0.20039156 -0.11845079 -0.006735623
0.17945847 -0.08368512 -0.024939626 0.003920073 -0.009043172 -0.047418058 -0.16437633 -0.012369469
-0.15312943 -0.23918402 -0.21764085 -0.15022054 0.16393884 -0.16299164 0.044408858 -0.06496337

heads.1.0.bias f4 [10]
00000000: 4e0b 253e 0af0 d4bd 0e2e d43d baf5 86bd
00000010: 372c d8bd 85b5 9f3d ac67 96bc 12bb 713e
00000020: 8a7c 163e e6cb 94bd
0.16117594 -0.10397346 0.10360347 -0.06589837 -0.10555308 0.07798294 -0.018359981 0.23606518
0.14695945 -0.07265453

heads.2.0.weight f4 [10, 16]
00000000: 68b0 103d fa28 7fbd 484c 713d 0e47 bd3a
00000010: d06e 29bd 59ec 0ebe fac1 473e bcd5 17be
00000020: d25b 70be b899 3ebe 3282 193e fe4f 263e
00000030: 3324 793e 2341 e5bd a031 2dbd 7aa0 5ebe
00000040: c2f1 18be dfd5 203e 5e30 283e e8bf 6cbe
00000050: ac92 26bd 1834 24be ef50 34bd e365 4d3e
00000060: 33f3 a9bd 9846 1cbd 4d6b 3cbe b06e 8cbc
00000070: 1f78 c93d 0e52 303d 3042 4cbe 8ccd 4ebe
00000080: f0bb 1dbe 009d 4c3e a044 24bc 3220 7e3e
00000090: 78a7 4ebe e84b dd3d 7509 ad3c 0a67 983c
000000a0: da55 2bbe 0c56 5bbe b3e9 12be c00d 6c3e
000000b0: de0f 5b3e db21 353e 303e 8cbd 3a6d 4c3e
000000c0: 64cb 18be 858d 803e 56e9 1fbe ca0e ec3c
000000d0: 8c81 973d 5b93 e73d 8e40 803e f950 ef3d
000000e0: 22d9 20bd ec6f 58be 9163 a1bd 8a98 1f3e
000000f0: 7543 dabd a200 53be 246f c8bd bc5a d63d
00000100: 00c4 58bd dafa 4fbd c0df 143e 0a18 3e3e
00000110: 1c71 b5bd e596 143c 42a3 403e a510 10be
00000120: ea6e bd3d b0b2 04be 28ba 643e feb0 4ebe
00000130: 8de1 233d e2a8 2d3e d25d 44be 2062 af3d
00000140: ccb5 e3bd 4e20 543e 4465 79be 9cb8 e2bd
00000150: 9f89 90bc 88f0 4b3d 71a2 fe3d ce8e 79bd
00000160: 28ff 18be 7e25 3d3e b9f4 263e aef4 4e3e
00000170: 08f5 70be 2c1c 953d 30ce eb3d 108d 373d
00000180: 74d8 6ebe 2c15 273e 162b 15be 161c 12be
00000190: aa7f 9cbd 5ab9 49be 7a7a 1bbe 8997 2abe
000001a0: 6296 61bd 008f 323c 6427 76be 9095 bc3d
000001b0: f2df c8bd 006e 3fbe 2830 003d 18df 28be
000001c0: 18bf 2fbd c772 d03d 883e a73d 74d9 4e3e
000001d0: e247 1c3e d076 36be 33ff 62bd 225c a8bd
000001e0: 1d82 09bd 7a01 593e d6cd 1ebe 30c9 b9bc
000001f0: b525 a63d 00e0 f43d 1008 c3bd 3416 e93d
00000200: d443 a73d b326 723e bc44 ec3d 3857 a43d
00000210: 57e6 8abd 2341 773e 83ef c2bd af67 373e
00000220: 64de 37be a827 9dbd 8622 3a3d 344e 873d
00000230: 18aa 5fbe be47 b73b 90df 6a3d a0d3 4dbd
00000240: 5840 4ebd a472 573e 4278 0c3e 08ed 0b3e
00000250: 0c9c 173e 00fd a4bd 4b0a 03bd 74e6 0f3e
00000260: bb14 563e 7c77 013e 3a34 46be 362f 4f3e
00000270: c4f7 09be 5a4e 223e a04f 78bc eaa0 17be
0.035324484 -0.062294938 0.058910638 0.0014440732 -0.041365445 -0.13957347 0.1950759 -0.14827627
-0.23472527 -0.18613327 0.14991072 0.16241452 0.24330215 -0.111940645 -0.042283654 -0.21740904
-0.14935973 0.15706585 0.164247 -0.23120081 -0.04066722 -0.16035497 -0.044022497 0.20058398
-0.0829834 -0.03815326 -0.18400307 -0.017142624 0.098373644 0.043047003 -0.19947124 -0.20195597
-0.15403724 0.19981766 -0.010026127 0.24816969 -0.20181072 0.108054936 0.021122674 0.01860382
-0.16731969 -0.21419543 -0.14346962 0.2305212 0.21392772 0.17688696 -0.06847799 0.19963542
-0.14921337 0.2510797 -0.15616354 0.028815646 0.07397756 0.11307403 0.2504925 0.11685366
-0.039269574 -0.21136445 -0.07880319 0.15585533 -0.10657398 -0.2060571 -0.097868234 0.10466525
-0.052921295 -0.05077634 0.14538479 0.18563858 -0.088594645 0.009069179 0.18812278 -0.1406885
0.09249671 -0.12958789 0.22336638 -0.20184705 0.040010024 0.16958955 -0.19176415 0.08563638
-0.111186594 0.20715448 -0.24355036 -0.11070368 -0.017643748 0.049789935 0.12433327 -0.060927205
-0.14941084 0.18471333 0.16304292 0.20210525 -0.23530972 0.07280764 0.115139365 0.044812262
-0.23324758 0.1631667 -0.14567217 -0.14268526 -0.076415375 -0.19699612 -0.1518344 -0.16659369
-0.055075057 0.010898352 -0.24038464 0.09208214 -0.09808339 -0.18694305 0.031295925 -0.16491354
-0.04290685 0.10178142 0.08166224 0.2020014 0.15261796 -0.17818761 -0.05541916 -0.08220698
-0.03357135 0.2119197 -0.15508208 -0.022678941 0.08112661 0.11956787 -0.09523022 0.11381188
0.08167234 0.23647575 0.115365475 0.08024448 -0.06782215 0.24145941 -0.095183395 0.17910646
-0.17955929 -0.076735795 0.04544308 0.06606713 -0.2184223 0.005593269 0.057342112 -0.05025065
-0.05035433 0.21039826 0.1371775 0.13664639 0.14805621 -0.080560684 -0.031992238 0.14052755
0.20906346 0.12643236 -0.1935586 0.20232853 -0.13473421 0.15850201 -0.015155703 -0.14807478

heads.2.0.bias f4 [10]
00000000: e4f2 523e 2164 debd 6927 8f3d 0939 7c3e
00000010: eb7b 03bd 7a2b 6f3e d44d 53bc 43a9 d03d
00000020: 236f 28be 10f1 8f3d
0.20600468 -0.10858942 0.06989939 0.24631132 -0.0321006 0.23356429 -0.012896974 0.10188534
-0.16448645 0.07028401

heads.3.0.weight f4 [10, 16]
00000000: 1077 773d 57b2 bc3d f677 1a3e 5165 773c
00000010: f23d 4fbd e157 f73d 3dd4 4a3d 1721 923d
00000020: 9e25 683e c0aa d63b a79c cd3d ba65 7f3e
00000030: 0941 793d d55f 563e c2de 0e3e 2a92 48be
00000040: 4609 383e 7647 7d3e d065 babc 07d6 1dbe
00000050: ea89 77be 5666 84bc c5c7 2c3e 1bbd 263d
00000060: 1638 8a3c 5076 1d3e 7bb5 67be c2d1 483e
00000070: 0f89 7cbe 91c9 40be 6634 4b3e ccc5 2fbe
00000080: a08c 623e 57cc 843d 8ae1 0c3e c072 b23d
00000090: 710d df3d abaf 713e e4b6 07be 92a4 b73a
000000a0: 91af 7a3d 60a3 80bd 0281 5d3e 1073 523d
000000b0: d73c 00bd 2581 123e d467 b4bd 4ce2 fdbd
000000c0: 90fa cb3d f9c5 3f3e c0d2 42bd f325 39be
000000d0: f91a ba3c 2a55 9bbd cc88 1c3c 1eea df3b
000000e0: 3041 7e3e 0003 d1ba b7db a6bd b4ac 00be
000000f0: 1b1b 01be e42d 7c3e 4083 eb3d ccaf 12be
00000100: eaf6 093e 8861 c1bd 20fc 40bc 655e a0bc
00000110: 7407 f83d ceab 70be b97e cbbc 48ca c2bd
00000120: 5c43 24be 063d 123e e837 3abe 6c6c eb3d
00000130: 7997 f53d 7ca6 b3bd 74dd 69be 3c5c 34be
00000140: 8258 07be a56d cdbd dab8 643e 2a0f 503e
00000150: 0a75 43bd 0b95 1f3d 23f0 313e 65ec dd3c
00000160: 9a04 5b3e beb6 4cbe f915 1dbc 80b4 f1bc
00000170: 1fca 3a3e 1d29 403e 341e 4b3e e091 3e3e
00000180: cab7 183e 65bc ed3d 602e 6fbd 4c98 6f3e
00000190: 3421 293e 0ab5 6b3e 2c3d f83d 2f69 98bd
000001a0: 54b3 09bd 7c24 0dbe 55ba 62bc 8853 66be
000001b0: 6fdf 08be a842 d7bd e8f6 24be f21b 5b3e
000001c0: 1446 e03d f532 3ebe c8fd 773d 3d22 6fbd
000001d0: 8ee8 133e f602 2d3e 5862 673e cd23 5ebe
000001e0: cbe2 79be a851 20be 0e10 5ebd 38ac 4f3d
000001f0: f2be 0b3e 7efb d7bd 86f0 12be 48f6 c43d
00000200: a065 8b3c 7f7c 1dbd 96f3 5fbe 2a18 153e
00000210: e87c ff3d 65cc 1a3e 0f43 08be a661 30be
00000220: da3e 993c c06b d8bb 6d9c 413e e4f0 e33d
00000230: 544e 72be dc4d 2d3e 6c2d 193e c8f6 e3bd
00000240: e0e9 cdbc a6e5 3dbe 6cd3 883d 27b0 78be
00000250: f593 843d c19f 31be 6e05 23be adcb 433e
00000260: 4b36 72be ace2 debd 86c8 273e 4a6c 4e3e
00000270: ee8e fcbc a748 2cbe 7285 573e 7cbb d5bd
0.06041628 0.09213703 0.15084824 0.015099839 -0.050596185 0.120773084 0.049518812 0.07135218
0.226706 0.0065511167 0.10039645 0.2494115 0.060853038 0.20934995 0.13952163 -0.19587007
0.17972288 0.24734291 -0.022753626 -0.15413676 -0.24173704 -0.016162079 0.16873081 0.04070769
0.016872447 0.15377164 -0.22627823 0.19611266 -0.24661659 -0.18826891 0.19844207 -0.17165297
0.22123957 0.06484287 0.13757911 0.08713293 0.108912356 0.23602168 -0.13253361 0.0014010838
0.06120259 -0.06281161 0.21631244 0.051379263 -0.03130802 0.14307077 -0.08808866 -0.12396678
0.099599004 0.18727864 -0.047564268 -0.18080883 0.02271794 -0.07584603 0.009554099 0.006833329
0.24829555 -0.0015946329 -0.08147376 -0.12565881 -0.12607996 0.24626881 0.11499643 -0.14324874
0.13473096 -0.09442431 -0.011778861 -0.01957626 0.121107966 -0.23503038 -0.0248407 -0.09511238
-0.1604132 0.14281091 -0.18185389 0.11495289 0.11991782 -0.08771989 -0.22838384 -0.1761331
-0.13217357 -0.10030679 0.2233614 0.20318285 -0.04771904 0.038960498 0.17376761 0.02709026
0.21388474 -0.19991586 -0.009587758 -0.029505014 0.18241166 0.18765683 0.1983574 0.18610334
0.1491386 0.11608199 -0.058393836 0.2339794 0.16516572 0.2301828 0.121210426 -0.07441937
-0.033618286 -0.13783449 -0.01383837 -0.22492802 -0.13366483 -0.105107605 -0.16109812 0.21397379
0.10950866 -0.18574126 0.06054476 -0.05838226 0.14444181 0.16895661 0.22596109 -0.21693344
-0.24402921 -0.1565615 -0.05421453 0.05070135 0.13647059 -0.10546015 -0.14349565 0.09617287
0.017016232 -0.038448807 -0.21870264 0.14559999 0.12474996 0.15117033 -0.13306831 -0.1722475
0.018706728 -0.0066046417 0.18907328 0.111299306 -0.23662692 0.16924232 0.14958733 -0.11131054
-0.025135934 -0.18544635 0.066809505 -0.24285947 0.06473533 -0.17346098 -0.1592004 0.19120665
-0.23653524 -0.10883078 0.16385087 0.20158496 -0.030829873 -0.1682459 0.21046999 -0.104361504

heads.3.0.bias f4 [10]
00000000: 041c 74bc ead0 0a3e 1549 c23d 9969 3f3d
00000010: 1042 bd3d 24a8 a1bd f6dd 473e 194c a3bc
00000020: 33dc 4ebe 7276 573c
-0.014899258 0.13556257 0.094865955 0.046731565 0.09241116 -0.078933984 0.19518265 -0.019933747
-0.20201187 0.013150798
