results/Mnist_best_model_regression_MLP_policy.ckpt (torch, 11841 bytes, 12 tensors)

net.0.weight f4 [64, 4]
0	0xbe290d45	-0.16508968
1	0xbee66a8a	-0.45003158
2	0x3e4745af	0.19460176
3	0x3e6adacb	0.22935025
4	0xbeebc8d0	-0.46051645
5	0x3eb30036	0.34961098
6	0xbda39b07	-0.079885535
7	0x3dcb1902	0.09916879
8	0xbe819ada	-0.25313455
9	0xbeb2181c	-0.3478402
10	0xbc1be4c0	-0.0095149875
11	0x3c8e8260	0.017396152
12	0xbe28d808	-0.1648866
13	0x3dfd8528	0.12378913
14	0xbd9d7d50	-0.07689917
15	0xbebc2520	-0.36747074
16	0x3e93b9b4	0.28852618
17	0x3eaaf67c	0.33391178
18	0x3ecdb25a	0.40175134
19	0x3d4847cd	0.0488966
20	0x3ecac548	0.3960364
21	0x3e434815	0.19070466
22	0xbc07c4f3	-0.008286702
23	0xbe6c0ac5	-0.23050983
24	0xbe8f2772	-0.27959782
25	0xbeb9a8c6	-0.36261576
26	0x3eb4ea92	0.35335213
27	0xbea8816c	-0.3291124
28	0xbd48ca0d	-0.049020816
29	0xbe8d621c	-0.27613914
30	0x3e3dc20b	0.18531053
31	0x3eb05914	0.3444296
32	0x3edbc7c2	0.4292584
33	0x3ec48684	0.38383877
34	0xbeaf6f22	-0.34264475
35	0x3c616033	0.013755846
36	0x3eef2f1c	0.4671563
37	0xbec83ede	-0.39110464
38	0x3c8c59e7	0.017132713
39	0x3ee1aaae	0.4407553
40	0x3e0decbf	0.13859843
41	0xbeae6dc6	-0.34068125
42	0xbeade4ac	-0.33963525
43	0x3eb0a238	0.34498763
44	0xbe9508cc	-0.29108274
45	0xbec66616	-0.3874976
46	0xbd6105c0	-0.054937124
47	0x3e9ea6c4	0.30986607
48	0x3e864586	0.26224917
49	0x3ea8abd4	0.32943594
50	0xbe7cac2d	-0.24675055
51	0x3efc43f4	0.49270594
52	0x3e006151	0.12537123
53	0xbece7c30	-0.40329123
54	0xbeb39d06	-0.35080737
55	0x3e85f17c	0.261608
56	0x3dca8e86	0.098904654
57	0xbeac979a	-0.33709413
58	0x3e7fc2db	0.24976675
59	0x3e92dca8	0.28683972
60	0x3e497e4d	0.19677086
61	0xbec65534	-0.3873688
62	0xbec732de	-0.38905996
63	0x3ee017bc	0.43768108
64	0x3ec8f07e	0.3924598
65	0xbd217cb3	-0.039425563
66	0xbecbfec0	-0.39842796
67	0x3caf1399	0.02137165
68	0x3eeef8ec	0.46674287
69	0xbe927db8	-0.2861154
70	0x3edd563c	0.43229854
71	0xbe92c62a	-0.28666812
72	0xbebd2c5a	-0.369479
73	0xbe068b84	-0.13139158
74	0xbe852210	-0.2600255
75	0xbe8f1170	-0.2794299
76	0xbdfeb95a	-0.12437697
77	0x3ef8332a	0.48476535
78	0xbc96181a	-0.01832204
79	0x3e32c227	0.17456876
80	0xbdb5e636	-0.088818
81	0x3ec7e38e	0.39040798
82	0x3d91ba06	0.07115559
83	0x3eb28648	0.34868073
84	0x3e2eb3c4	0.17060763
85	0xbe078870	-0.1323564
86	0xbe62b080	-0.22137642
87	0xbede8980	-0.4346428
88	0x3eeba07e	0.46020883
89	0xbedf3cda	-0.43601114
90	0xbca0bc07	-0.019620908
91	0x3c57b70e	0.013166202
92	0xbc897cd9	-0.016783165
93	0x3aacb06b	0.0013175135
94	0xbdd1876a	-0.10230906
95	0x3ef9e840	0.48810005
96	0x3ea208ca	0.3164733
97	0x3b0ca837	0.0021462569
98	0x3eaa0758	0.33208728
99	0x3ece7886	0.40326327
100	0xbed2225e	-0.41041845
101	0xbee82d42	-0.4534703
102	0x3efde24e	0.4958672
103	0xbd8eca77	-0.06972211
104	0x3eb98e68	0.3624146
105	0xbed57f88	-0.4169886
106	0x3ef052ec	0.46938264
107	0x3ea82896	0.32843465
108	0x3e8219ca	0.254103
109	0x3e909cb8	0.28244567
110	0x3c98b5c5	0.018641362
111	0x3ccbe6f9	0.02489041
112	0x3ed1b28c	0.40956533
113	0x3d0099bd	0.031396616
114	0xbb7ca736	-0.0038551814
115	0xbea0a3d2	-0.31374985
116	0x3d001f03	0.031279575
117	0xbd6cba4d	-0.057794858
118	0x3ef28794	0.47369063
119	0xbef1881f	-0.47174165
120	0x3de06b77	0.10957997
121	0x3daee087	0.08538919
122	0xbe8c1150	-0.27356958
123	0xbeb64b37	-0.3560426
124	0x3dd02bd6	0.10164611
125	0xbc964d07	-0.018347276
126	0xbd74cf53	-0.059768032
127	0x3e0e289f	0.13882683
128	0xbdc5c062	-0.09655835
129	0x3db3c586	0.08777909
130	0x3e8956fa	0.2682417
131	0x3bd92a19	0.006627333
132	0x3eb1a7b0	0.34698248
133	0x3eaa8e8e	0.33311886
134	0x3dc7b602	0.09751512
135	0x3ea0be34	0.31395113
136	0x3ec911bc	0.39271343
137	0xbe25a677	-0.16176783
138	0xbe856876	-0.2605626
139	0x3e03fe21	0.12889911
140	0x3e296ef7	0.16546236
141	0x3eee3d56	0.4653117
142	0xbe268591	-0.16261889
143	0x3eb73d34	0.35788882
144	0xbdc991b2	-0.09842242
145	0x3d10d38d	0.035358
146	0x3e953b6c	0.29146898
147	0xbe762781	-0.24038507
148	0xbd917240	-0.071018696
149	0xbede34e6	-0.43399733
150	0xbe644410	-0.22291589
151	0x3e907974	0.2821766
152	0xbef76d80	-0.4832573
153	0x3e1336ad	0.14376326
154	0x3ea1aff2	0.31579548
155	0x3ee322ea	0.44362575
156	0xbe9f7a02	-0.31147772
157	0x3edee5b0	0.43534613
158	0xbd5ed463	-0.054401767
159	0x3ecec7aa	0.40386707
160	0x3daf4e5e	0.08559869
161	0x3de8ddae	0.11370407
162	0x3da923ce	0.08258782
163	0x3d43f8cd	0.047844697
164	0x3e975bf2	0.29562336
165	0xbcaf8507	-0.021425737
166	0x3ea189a8	0.31550336
167	0x3cf2fa99	0.02966051
168	0xbe60e837	-0.21963583
169	0x3eec08cc	0.4610046
170	0xbd290b4d	-0.041270543
171	0x3ed34228	0.4126141
172	0x3defde2e	0.11712299
173	0x3e6f5097	0.23370586
174	0x3ebf20f4	0.3732983
175	0x3e334c99	0.17509688
176	0x3d5692ad	0.052385975
177	0x3e9f4306	0.31105822
178	0x3dc4b5a2	0.09604956
179	0x3e1ba7fd	0.15200801
180	0x3d325c4d	0.043545056
181	0x3ebb1f26	0.36547202
182	0xbebb6d0a	-0.36606628
183	0xbea8ba92	-0.32954842
184	0xbd26c6d0	-0.040716946
185	0xbefbe416	-0.49197453
186	0xbd900f90	-0.07034218
187	0x3e4d75a4	0.20064408
188	0x3e2d430d	0.16920109
189	0x3bd2049b	0.0064092404
190	0x3e833a30	0.2563033
191	0xbdec09b6	-0.1152529
192	0xbe4b9cc1	-0.19884016
193	0xbe5811c0	-0.21100521
194	0x3d946b16	0.072469875
195	0xbe4abec9	-0.19799341
196	0x3e34dfb0	0.17663455
197	0xbe3094e0	-0.17244291
198	0xbedee8ce	-0.4353699
199	0x3db1da48	0.08684212
200	0xbd437fb2	-0.0477292
201	0x3cc68666	0.024234008
202	0xbef54a86	-0.4790842
203	0x3eb273e8	0.34854054
204	0x3ecd72e4	0.40126717
205	0xbe5162f9	-0.20447911
206	0x3d6fde4d	0.058561612
207	0xbee37db0	-0.4443183
208	0x3ee1418a	0.43995315
209	0x3ea7e28c	0.3279003
210	0xbe13a33d	-0.14417739
211	0xbe84acc6	-0.25913066
212	0xbd07048d	-0.032963324
213	0x3e5260a9	0.20544685
214	0x3ee9f702	0.45696265
215	0xbe212ffb	-0.1574096
216	0xbdfbea8e	-0.12300597
217	0x3d23115d	0.03981148
218	0x3d2bed0d	0.041974116
219	0x3edc4ce0	0.430274
220	0xbe7d3f0c	-0.24731082
221	0xbecf1256	-0.40443677
222	0xbe8508b2	-0.25983196
223	0x3ef2c474	0.47415507
224	0x3ccd9bd9	0.025098728
225	0x3e79f38b	0.2440931
226	0x3e2a181b	0.16610758
227	0x3ef7f97c	0.4843253
228	0x3ee1e602	0.44120795
229	0x3e1a9945	0.1509753
230	0x3dba85fa	0.09107585
231	0xbeb33762	-0.3500319
232	0xbd3cc943	-0.046090376
233	0xbcb19167	-0.021675779
234	0x3ed07842	0.4071675
235	0x3e19d35f	0.15022038
236	0x3eaf51d6	0.34242123
237	0x3e94d148	0.2906592
238	0xbdbd1f9a	-0.09234543
239	0x3e8ca214	0.27467406
240	0xbe84cd3e	-0.25937837
241	0x3ea6ceb6	0.32579583
242	0xbe1b3774	-0.15157872
243	0xbec0dc50	-0.37668085
244	0xbd5aec03	-0.053447735
245	0xbea4b880	-0.32172012
246	0xbd54dc7d	-0.051968087
247	0x3ed991dc	0.42494094
248	0xbe4bb7ca	-0.19894329
249	0xbd8775ca	-0.06614263
250	0x3edde8ee	0.43341774
251	0x3ea81ce4	0.32834542
252	0xbe9f06f4	-0.31059992
253	0x3ecd6512	0.40116173
254	0xbbfa691a	-0.0076419236
255	0x3e809432	0.25113064

net.0.bias f4 [64]
0	0xbda0e80a	-0.07856758
1	0xbe162478	-0.14662349
2	0x3ec119bc	0.37714946
3	0x3e3ce358	0.184461
4	0x3e4b89e4	0.1987682
5	0x3e3d1221	0.18463947
6	0xbe67e3b9	-0.22645463
7	0xbee6b7a2	-0.45061976
8	0x3e2e1ff5	0.17004378
9	0xbe000a8d	-0.12504025
10	0xbe9c7874	-0.30560648
11	0xbeae5f84	-0.34057248
12	0x3ea83081	0.32849506
13	0x3eb2fa9a	0.3495682
14	0xbec48864	-0.38385308
15	0x3e9e1b98	0.30880427
16	0x3e5ca9b3	0.2154911
17	0x3ecd8288	0.4013865
18	0xbef30f5a	-0.4747265
19	0xbec0ba1a	-0.37641984
20	0xbe0044fc	-0.12526315
21	0xbedbd3aa	-0.42934924
22	0xbee69cf4	-0.4504162
23	0xbefdb6c8	-0.49553514
24	0xbeef22b4	-0.46706164
25	0x3e82f8c0	0.25580406
26	0xbecdfa7c	-0.40230167
27	0xbdf533a2	-0.11972739
28	0x3e9949aa	0.29939014
29	0xbd961cdf	-0.073297255
30	0x3e89777d	0.26848975
31	0x3efe45f2	0.4966274
32	0x3d54af5d	0.051925052
33	0xbe466bc1	-0.19377042
34	0x3e82ed24	0.2557155
35	0x3dc7c0ff	0.09753608
36	0xbe6fbba9	-0.2341143
37	0x3de9faa0	0.11424756
38	0xbe0566ed	-0.13027544
39	0xbe19057c	-0.14943498
40	0x3ef7b576	0.4838063
41	0xbebe136e	-0.371242
42	0x3e91fa8e	0.2851147
43	0xbe800a14	-0.2500769
44	0x3e08dad3	0.13364725
45	0xbe84ef46	-0.259638
46	0xbeaec208	-0.3413241
47	0xbe793797	-0.24337612
48	0x3e27c017	0.1638187
49	0xbd38c0e0	-0.045105815
50	0xbed3380a	-0.41253692
51	0x3e814b8a	0.25252944
52	0xbeac6eea	-0.3367837
53	0xbec05968	-0.37568212
54	0x3e6ba12f	0.23010705
55	0x3e985136	0.2974946
56	0x3e8096e0	0.25115108
57	0xbe80b590	-0.2513852
58	0xbe2d01e5	-0.16895254
59	0x3e8f3860	0.27972698
60	0xbeefaba3	-0.46810636
61	0x3ee52f6e	0.44762748
62	0x3e161967	0.14658128
63	0x3e17974b	0.14803807

net.2.weight f4 [16, 64]
0	0xbc718cb3	-0.014743018
1	0xbd0d0017	-0.034423914
2	0x3d0cca94	0.03437288
3	0x3dab90f0	0.08377254
4	0x3caca481	0.021074535
5	0x3cff0741	0.031131389
6	0xbdbcd700	-0.092206955
7	0x3d49cd13	0.04926784
8	0x3d10bee5	0.0353383
9	0x3df4e2da	0.11957331
10	0x3d166285	0.03671505
11	0x3ded00b0	0.11572397
12	0xbd13fcdb	-0.036129814
13	0xbd530013	-0.051513743
14	0x3db668be	0.08906697
15	0xbd90d5a2	-0.07071997
16	0x3dcf6f26	0.10128622
17	0xbdcd9026	-0.1003726
18	0xbd27e6c0	-0.040991545
19	0x3ddf998a	0.10917957
20	0xbd60029b	-0.054689985
21	0x3df80896	0.12111013
22	0xbdb43f46	-0.08801131
23	0xbcf0665f	-0.02934569
24	0x3c130e62	0.008975597
25	0xbbef0665	-0.0072944635
26	0xbbc6619b	-0.006054116
27	0x3dd45f24	0.10369709
28	0xbde1e1ea	-0.11029418
29	0x3dddc2c6	0.10828166
30	0x3d51beb4	0.05120726
31	0x3dab97ca	0.08378561
32	0xbdf27514	-0.11838737
33	0x3c83c579	0.016085373
34	0xbcb25a3f	-0.021771548
35	0xbd5baac7	-0.053629663
36	0xbc759813	-0.014989871
37	0x3c3b40c0	0.011429012
38	0x3cc7959d	0.024363333
39	0xbdd3004e	-0.103027925
40	0x3dac8b8a	0.084250525
41	0x3d119389	0.03554109
42	0x3df8dbb8	0.12151283
43	0x3dcd7846	0.10032706
44	0x3d2e6a99	0.04258213
45	0x3d8bdc13	0.06829085
46	0x3d82c0de	0.06384443
47	0x3cf5a08f	0.029983787
48	0x3b2f91c2	0.002678976
49	0x3dbea824	0.09309414
50	0x3de947b4	0.113906294
51	0xbc6dd3c3	-0.01451582
52	0x3d15274d	0.036414433
53	0x3d407a7f	0.04699182
54	0x3db0ccf8	0.08632845
55	0xbd9b2e84	-0.075772315
56	0x3c259002	0.010105135
57	0xbc5c36ec	-0.013440829
58	0x3dd3c84e	0.103409395
59	0xba10acdc	-0.0005518922
60	0x3d46faa8	0.04857889
61	0x3df50fca	0.11965902
62	0xbdf7de8c	-0.12102994
63	0x3d3d9709	0.046286616
64	0x3d6f3ba6	0.058406495
65	0xbdf40a0c	-0.11915979
66	0x3db01684	0.085980445
67	0xbd8221be	-0.06354092
68	0xbd0e719f	-0.034776326
69	0xbd9bf12a	-0.07614358
70	0x3d88debd	0.06683109
71	0x3de4fb79	0.11180777
72	0x3dae6010	0.08514416
73	0x3dadc5a0	0.084849596
74	0x3dd44292	0.1036426
75	0x3d6efb00	0.05834484
76	0x3a8e3b11	0.0010851343
77	0xbd662327	-0.056185868
78	0x3de179d1	0.11009563
79	0xbda5c498	-0.08094138
80	0x3c991271	0.018685551
81	0xbdad26ee	-0.08454691
82	0x3d94d938	0.07267994
83	0xbdbc0104	-0.09179881
84	0x3d344839	0.04401419
85	0xbd550ab8	-0.052012175
86	0xbd39bbb7	-0.045345034
87	0xbd98d8f2	-0.07463254
88	0xbdc760c0	-0.097352505
89	0x3dc01b1b	0.0938017
90	0x3cc9aa81	0.024617435
91	0x3d722f25	0.05912699
92	0xbdb8154a	-0.089884356
93	0xbdc5cffa	-0.09658809
94	0xbd7b5d9f	-0.06136858
95	0x3df69912	0.120409146
96	0xbdca5490	-0.0987941
97	0xbd786273	-0.060640763
98	0xbd2a36db	-0.04155622
99	0x3dd35ace	0.10320054
100	0xbc373038	-0.01118093
101	0x3c9176c0	0.01775682
102	0x3d2982f1	0.04138464
103	0xbd9a4b58	-0.07533902
104	0xbd417fcb	-0.047241013
105	0x3db812a0	0.089879274
106	0x3bd5b6c4	0.0065220315
107	0xbdaf3944	-0.085558444
108	0x3c6f7ff2	0.014617907
109	0x3d0bd57f	0.034139153
110	0x3d156e20	0.036481977
111	0xbda5d348	-0.08096939
112	0x3ddf0aec	0.10890755
113	0xbdda3f24	-0.10656574
114	0xbdad0918	-0.08449
115	0x3de79d8a	0.11309345
116	0xbc2cfcee	-0.01055835
117	0xba9179eb	-0.0011098956
118	0x3b9b7c65	0.0047450536
119	0x3d4acec0	0.04951358
120	0x3d98f380	0.07468319
121	0xbd8f1264	-0.069859296
122	0xbd82cc32	-0.063866034
123	0x3dfcbd2a	0.12340768
124	0x3d775d74	0.06039186
125	0xbd7e775b	-0.062125545
126	0x3d9641d8	0.073367774
127	0xbc87df77	-0.016586049
128	0x3dbecfd2	0.09316982
129	0xbdf81d4a	-0.121149614
130	0x3d1893cc	0.037250325
131	0x3da0cd58	0.07851666
132	0xbd824e72	-0.063626185
133	0xbde638c9	-0.112413
134	0xbdb707c0	-0.08937025
135	0xbd1c9467	-0.038227465
136	0x3c8161c7	0.015793694
137	0xbd51d49d	-0.051228154
138	0x3d6d3e0b	0.057920497
139	0x3ddfea20	0.10933328
140	0x3dad289a	0.0845501
141	0x3d9ce4a6	0.07660799
142	0x3befd4a5	0.0073190504
143	0xbd222f55	-0.03959592
144	0xbd959fdc	-0.073058814
145	0x3d9ce196	0.076602146
146	0xbce6d720	-0.028178751
147	0xbdca440c	-0.0987626
148	0x3df7f38a	0.12106998
149	0xbd9a4fbe	-0.07534741
150	0x3d85dd36	0.06536333
151	0x3d504883	0.050850403
152	0x3d6b55dd	0.057454932
153	0xbdf38f0e	-0.1189252
154	0xbcf10a57	-0.029423876
155	0xbd915e4c	-0.07098064
156	0xbdcd9f2c	-0.10040125
157	0x3de370bc	0.11105487
158	0xbcf51c84	-0.029920824
159	0xbd5ead8d	-0.05436473
160	0x3d84de9a	0.064877704
161	0x3d9dbf8a	0.07702549
162	0x3b4bc0f6	0.0031090355
163	0x3dc21cae	0.094781265
164	0x3de7af54	0.11312738
165	0xbbe91400	-0.00711298
166	0x3dbd1344	0.0923219
167	0xbd340715	-0.043952066
168	0x3dbc4636	0.09193079
169	0x3dcc0e60	0.09963679
170	0xbb689e8a	-0.0035494887
171	0x3de53772	0.11192216
172	0xbdb0817f	-0.086184494
173	0x3cebe1d2	0.028794203
174	0x3cf50a58	0.029912159
175	0x3da54406	0.08069615
176	0x3db09978	0.08623022
177	0xbddd95da	-0.108195975
178	0xbd21e585	-0.039525528
179	0xbbcf197b	-0.006320176
180	0x3d24dc07	0.040248897
181	0x3dbccbb2	0.09218539
182	0xbc844899	-0.016147899
183	0xbdab1fa8	-0.08355647
184	0xbc807d2a	-0.015684683
185	0x3dd2c146	0.1029077
186	0x3ce426a9	0.027850466
187	0x3d7c928f	0.061663207
188	0xbc72436a	-0.014786581
189	0xbde01abf	-0.109426014
190	0xbd9694f0	-0.07352626
191	0xbdc9c670	-0.09852302
192	0x3d689cdd	0.05679022
193	0x3e004a9d	0.12528463
194	0x3d0f2bf0	0.03495401
195	0xbdb55366	-0.088537976
196	0xbd9dd712	-0.07707037
197	0x3d71df85	0.059051055
198	0x3cea0809	0.028568285
199	0x3ddb627c	0.10712144
200	0xbd9413c4	-0.072303325
201	0xbd936f16	-0.07198922
202	0x3dab5c16	0.083671734
203	0x3cdbf7a8	0.02685149
204	0xbd83f23a	-0.064426854
205	0x3de1c368	0.11023599
206	0x3d362b05	0.04447462
207	0xbdc76354	-0.09735742
208	0xbce4a8d0	-0.027912527
209	0xbd5c45c3	-0.053777467
210	0x3d89d53e	0.06730126
211	0x3d531a22	0.051538594
212	0xbc49b93d	-0.012312231
213	0x3bc0fa20	0.005889192
214	0xbd515367	-0.05110493
215	0x3de0f5fc	0.10984418
216	0x3c184692	0.009294169
217	0x3df0e2e4	0.11762026
218	0x3dfdbd3e	0.12389611
219	0x3d58b97d	0.05291127
220	0xbdc3d832	-0.0956272
221	0xbc04b6cd	-0.008100224
222	0x3deff430	0.11716497
223	0x3d9425ba	0.07233758
224	0x3cdb7d59	0.026793169
225	0xbd47075b	-0.048591
226	0x3d92f9bc	0.07176539
227	0x3b18b705	0.0023302448
228	0xbd587a0f	-0.05285078
229	0x3dca93b0	0.098914504
230	0x3deb68e8	0.11494619
231	0xbd9da86f	-0.07698142
232	0x3ba47146	0.005018386
233	0xbdd216a8	-0.102582276
234	0x3d703582	0.05864478
235	0xbdafd9b2	-0.08586444
236	0xbd9dc316	-0.07703225
237	0x3de53ffe	0.11193846
238	0x3dfc3124	0.1231406
239	0xbb6f1176	-0.0036478913
240	0xbda68433	-0.08130684
241	0x3c5125b0	0.012765333
242	0x3c8b9280	0.01703763
243	0x3d54a7ad	0.05191772
244	0x3da40642	0.08009006
245	0x3d88d024	0.06680325
246	0x3d06ad69	0.03288022
247	0xbd706ad0	-0.058695614
248	0xbdc91fe2	-0.09820534
249	0xbdc87764	-0.09788397
250	0xbda8b754	-0.08238092
251	0xbdf8b796	-0.12144391
252	0x3d5f62ac	0.05453746
253	0xbd27a5bb	-0.040929537
254	0x3d783a65	0.060602564
255	0x3cd874b5	0.026422838

net.2.bias f4 [16]
0	0x3d3fc991	0.046823088
1	0x3c57ac33	0.013163614
2	0xbc5a8fad	-0.013339919
3	0x3d68e2d9	0.056856964
4	0x3d5e7ad0	0.054316342
5	0xbdc17781	-0.09446622
6	0x3d641ac4	0.05568959
7	0x3dd3cce4	0.10341814
8	0x3d730d47	0.059338834
9	0x3df2bed7	0.11852806
10	0xbdee36ff	-0.116315834
11	0xbd785c1b	-0.060634714
12	0xbdd93de8	-0.10607511
13	0x3d5619f8	0.05227086
14	0xbde63b46	-0.11241774
15	0xbca2f897	-0.019893927

heads.0.0.weight f4 [10, 16]
0	0x3e4dbe83	0.20092206
1	0x3cf4c2b9	0.029878007
2	0x3d52c805	0.051460285
3	0x3dda11b4	0.10647908
4	0x3dd952d4	0.10611501
5	0x3e62a609	0.2213365
6	0x3e317f94	0.17333823
7	0x3db19746	0.08671431
8	0xbe57e17b	-0.21082108
9	0xbe38cd47	-0.18047057
10	0xbe0045b2	-0.12526587
11	0xbe08a75b	-0.13345091
12	0xbde9667c	-0.113965005
13	0x3e3d62b6	0.18494686
14	0x3c18d912	0.009329097
15	0xbd426e93	-0.047468733
16	0x3dc866ca	0.097852305
17	0xbd15ed7d	-0.03660344
18	0xbd37b31b	-0.044848543
19	0xbe60134a	-0.21882358
20	0x3e297ea8	0.16552222
21	0x3e7a0361	0.24415351
22	0x3bc2c780	0.0059441924
23	0xbd09695a	-0.033547737
24	0xbe2e03bc	-0.16993612
25	0xbdbca862	-0.09211804
26	0x3a496403	0.00076824444
27	0xbcbff58a	-0.023432512
28	0x3e400f5e	0.18755862
29	0xbe612d46	-0.21989927
30	0x3df437e6	0.11924724
31	0x3e6f41cb	0.23364942
32	0x3db87836	0.090073034
33	0xbdc7f7ad	-0.09764037
34	0x3d009063	0.031387698
35	0xbe41cdc6	-0.18926153
36	0x3e446fba	0.19183245
37	0xbd395499	-0.045246694
38	0x3df266bc	0.11836001
39	0x3dabf4ea	0.08396323
40	0xbdebbe9b	-0.115109645
41	0xbe623523	-0.22090583
42	0x3d6cc4f5	0.05780502
43	0x3e237bb2	0.15965155
44	0x3d6b5990	0.05745846
45	0xbe6b78c0	-0.22995281
46	0xbe7d394c	-0.24728888
47	0xbe34250f	-0.17592262
48	0x3e1f682f	0.15567087
49	0x3e7160cd	0.23572083
50	0xbe7e1e35	-0.2481621
51	0x3e7e4c8c	0.24833888
52	0x3e1e9f16	0.15490374
53	0x3e1ae6df	0.15127133
54	0x3e55e0aa	0.20886484
55	0x3e79e9af	0.2440555
56	0xbda26fc6	-0.07931475
57	0xbe380075	-0.17968924
58	0xbe0597fa	-0.13046256
59	0x3e1382ad	0.14405318
60	0x3ccb7e20	0.024840415
61	0x3cb38730	0.021915048
62	0x3e0ef007	0.1395875
63	0xbe0b8687	-0.13625537
64	0xbe47624b	-0.1947109
65	0x3d82e716	0.063917324
66	0x3da05b36	0.07829897
67	0x3e0009bc	0.12503713
68	0xbe5e808c	-0.21728724
69	0xbc2470b3	-0.010036635
70	0x3d9f1b14	0.077688366
71	0xbe1ac793	-0.15115194
72	0xbe297e6b	-0.16552131
73	0x3e451981	0.1924801
74	0x3d1e3e50	0.038633645
75	0x3e448749	0.19192232
76	0xbda09038	-0.078400075
77	0x3e232614	0.15932494
78	0x3e6ac819	0.22927894
79	0x3ce44087	0.0278628
80	0x3dbf3062	0.093354
81	0xbe6e25e3	-0.2325664
82	0xbe0aa67f	-0.13540076
83	0x3b8865bc	0.0041625183
84	0xbe33d9d4	-0.17563564
85	0xbc878eca	-0.01654758
86	0xbda921e0	-0.08258414
87	0xbdd8119e	-0.10550235
88	0xbda9e08e	-0.082947835
89	0xbe366189	-0.17810644
90	0x3e6ac879	0.22928037
91	0xbe66d77d	-0.2254314
92	0x3e630a40	0.22171879
93	0x3e127f52	0.14306381
94	0x3e4f6981	0.2025509
95	0xbdfad20e	-0.12247096
96	0xbe6bfbe5	-0.23045309
97	0x3e36f38f	0.17866348
98	0x3e17188f	0.14755462
99	0x3e669425	0.2251745
100	0x3e3efb4c	0.1865055
101	0xbe4a5983	-0.19760709
102	0x3d9a975c	0.07548401
103	0x3e209803	0.15682988
104	0xbbd0519a	-0.006357384
105	0x3e2d503f	0.16925143
106	0x3da7bda9	0.08190472
107	0xbe444c1d	-0.1916966
108	0x3e0adf92	0.13561848
109	0x3e2893b4	0.16462594
110	0xbd9b38e6	-0.07579212
111	0x3df44c92	0.11928667
112	0x3e18ce77	0.1492251
113	0x3dd7f0e6	0.105439946
114	0xbe3fce2b	-0.1873099
115	0xbe46a056	-0.19397101
116	0x3d462138	0.048371524
117	0xbd67944b	-0.056537908
118	0x3dab2db0	0.083583236
119	0x3e5a8955	0.2134145
120	0x3c37d4d3	0.011220175
121	0xbe545f77	-0.20739542
122	0x3e2bca50	0.16776395
123	0x3cddc4ba	0.027071346
124	0x3d255d98	0.04037246
125	0x3e37b13e	0.17938706
126	0xbdc81ace	-0.097707376
127	0x3bac2925	0.0052539282
128	0xbe24e317	-0.16102253
129	0x3e35e29b	0.17762224
130	0x3e7d7a0b	0.24753587
131	0xbcf2b4ce	-0.02962723
132	0x3dc79150	0.09744513
133	0xbdc9a8a6	-0.0984662
134	0x3e2e776e	0.17037746
135	0x3dc0641e	0.09394096
136	0x3ddd749a	0.108132556
137	0xbbd73ae5	-0.0065683
138	0x3e3796b7	0.17928587
139	0x3e48939b	0.19587557
140	0x3d85a6a0	0.06525922
141	0x3e5c924e	0.21540186
142	0xbd628ba5	-0.055308957
143	0xbe764839	-0.24050988
144	0x3e1e0b6b	0.15434043
145	0x3dc5d166	0.0965908
146	0x3ddd4ac6	0.108052775
147	0x3c5ac688	0.013352998
148	0x3e163b8c	0.14671153
149	0xbe34d079	-0.17657651
150	0xbdc19508	-0.094522536
151	0x3da4f10e	0.0805379
152	0xbcd2edd9	-0.02574818
153	0x3e37e231	0.17957379
154	0x3cfa629a	0.030564595
155	0xbe49267b	-0.19643585
156	0xbe51b72c	-0.20480031
157	0xbd3217e0	-0.0434798
158	0x3d871e6a	0.06597598
159	0x3e6373c3	0.22212128

heads.0.0.bias f4 [10]
0	0xbdccc5da	-0.09998675
1	0xbe4a272d	-0.19741507
2	0x3e1617b7	0.14657484
3	0xbdf39d96	-0.118952915
4	0x3e55e1df	0.20886944
5	0x3e2e25a7	0.1700655
6	0x3e4a5a25	0.1976095
7	0xbd5151d3	-0.051103424
8	0xbe7bbaef	-0.24583028
9	0xbe0935a5	-0.1339937

heads.1.0.weight f4 [10, 16]
0	0x3e44790b	0.19186799
1	0x3e387a8d	0.180155
2	0x3ce2b6d7	0.027675075
3	0x3deec131	0.11657942
4	0xbda05260	-0.07828212
5	0x3e5fe711	0.21865489
6	0x3dff4d3c	0.12465903
7	0x3dce14ca	0.10062559
8	0x3df5965a	0.11991568
9	0x3e6efcdb	0.23338644
10	0xbd28b831	-0.041191284
11	0xbc2155cd	-0.009847117
12	0xbdcc29d4	-0.099689156
13	0xbbbcbc00	-0.005759716
14	0xbd92e3ea	-0.071723774
15	0xbdd831ca	-0.105563715
16	0xbd5de1cd	-0.05417042
17	0xbe126db1	-0.14299656
18	0x3d3b7f83	0.0457759
19	0xbe61878c	-0.22024363
20	0xbd333da8	-0.04375997
21	0xbb6a93cc	-0.003579366
22	0xbd4f4648	-0.050604135
23	0xbe4dff13	-0.20116834
24	0x3e24df21	0.16100742
25	0x3ca99f77	0.020705922
26	0xbe5df475	-0.21675284
27	0x3da05bd5	0.078300156
28	0xbe0d8850	-0.1382153
29	0x3dbba118	0.091615856
30	0x3e0223cf	0.12708972
31	0xbd8e80fe	-0.06958197
32	0x3c4adb8e	0.0123814475
33	0xbc3e0f13	-0.011600274
34	0x3e5e771b	0.21725123
35	0x3e50132b	0.20319812
36	0x3e748472	0.23878649
37	0x3e6b6f59	0.22991695
38	0x3e39f594	0.18160087
39	0xbd070035	-0.03295918
40	0xbcdcf116	-0.026970427
41	0xbd694bd5	-0.056957085
42	0x3e5eeab2	0.21769217
43	0x3dbf71b6	0.093478605
44	0x3dd31ce0	0.10308242
45	0x3e6ebb40	0.23313618
46	0x3dce399a	0.100695804
47	0xbe0f058d	-0.13966961
48	0x3de3b68a	0.11118801
49	0xbe19e407	-0.15028392
50	0x3d08c19b	0.03338776
51	0x3e751c34	0.2393654
52	0xbe0dcdde	-0.13848063
53	0x3e158c09	0.146042
54	0xbdd797cc	-0.10527
55	0x3d8eb282	0.069676414
56	0x3e014fef	0.12628148
57	0x3d84c2c2	0.064824596
58	0x3d0f74b9	0.035023425
59	0xbe6891af	-0.22711824
60	0x3e1f799e	0.15573737
61	0xbd964768	-0.073378384
62	0xbe3af5ed	-0.18257876
63	0x3e730c81	0.23735239
64	0x3c34d733	0.011037636
65	0x3e427547	0.1899005
66	0x3e3d46a7	0.18483983
67	0xbe51776c	-0.20455712
68	0xbe79483a	-0.24343958
69	0x3ba6ea65	0.00509386
70	0x3e5f76f2	0.21822718
71	0xbd0079d3	-0.03136618
72	0x3dce6136	0.10077135
73	0xbb206637	-0.0024474987
74	0xbe1c4114	-0.152592
75	0x3e779901	0.2417946
76	0x3c18bc00	0.009322166
77	0x3daa46e8	0.083143055
78	0xbd1731cb	-0.03691272
79	0xbdb0c0e2	-0.086305395
80	0x3dd941a2	0.106082216
81	0x3e5d62bb	0.21619694
82	0xbe0333b3	-0.1281269
83	0x3d21f8ad	0.039543796
84	0xbb1e5b80	-0.0024163425
85	0x3e727fb1	0.23681523
86	0x3e28371e	0.16427276
87	0xbe0ea411	-0.13929774
88	0x3d68802b	0.056762855
89	0xbe66a65d	-0.225244
90	0x3db5ae26	0.08871107
91	0xbe4f2172	-0.20227602
92	0xbd8e91e8	-0.06961423
93	0xbe1b3144	-0.15155512
94	0x3c9af405	0.018915186
95	0x3e178d1f	0.14799927
96	0xbe7d899f	-0.2475953
97	0xbe44ceb5	-0.19219477
98	0xbe197217	-0.14984928
99	0x3e6eca62	0.2331939
100	0xbdfd05b0	-0.123546004
101	0xbda09eb3	-0.078427695
102	0xbe60c562	-0.21950296
103	0x3e4c6f0d	0.19964238
104	0xbe5afeb7	-0.21386229
105	0xbe69cde3	-0.22832446
106	0xbe5e05ba	-0.21681872
107	0x3d88f9c1	0.06688262
108	0xbe2ff4f8	-0.17183292
109	0x3e5a09a6	0.21292743
110	0xbe6a7883	-0.22897534
111	0x3e07587f	0.13217352
112	0x3e31f90d	0.17380162
113	0x3b28c4b4	0.002575201
114	0xbd84e932	-0.06489791
115	0x3e597fda	0.21240178
116	0xbe24645c	-0.16053909
117	0x3e65ded5	0.22448285
118	0xbd0153a0	-0.03157389
119	0xbdbd05a2	-0.0922959
120	0x3b3589a5	0.002770045
121	0xbe0d61d7	-0.13806854
122	0xbe5f177c	-0.21786302
123	0xbdab0c82	-0.08351995
124	0xbe077800	-0.1322937
125	0x3d47e050	0.048797905
126	0x3ddb7f6a	0.10717662
127	0x3e795741	0.24349691
128	0xbd645d4b	-0.055753034
129	0xbda6a876	-0.081376
130	0x3e5d2565	0.21596296
131	0xbd9ba050	-0.075989366
132	0xbe7e5858	-0.24838388
133	0x3e17aba5	0.14811571
134	0x3df167c0	0.11787367
135	0x3db55aa2	0.088551775
136	0x3ce0428a	0.027375478
137	0x3c9c9549	0.019114153
138	0xbd87742d	-0.06613956
139	0x3bcd8c65	0.00627284
140	0x3e0d6f28	0.13811934
141	0x3e55d424	0.20881706
142	0x3d8ec112	0.06970419
143	0x3e253acd	0.16135712
144	0xbe70c8b1	-0.23514058
145	0xbde8cf87	-0.11367708
146	0x3d527733	0.05138321
147	0xbd2fae1c	-0.042890653
148	0xbbc77c00	-0.00608778
149	0x3c94fb86	0.018186342
150	0xbd8f38e0	-0.0699327
151	0xbdfe708a	-0.12423809
152	0x3d68589b	0.056725126
153	0xbdef0e42	-0.11672641
154	0xbe319729	-0.1734282
155	0x3e783f97	0.24243008
156	0xbda400a8	-0.08007938
157	0x3e002954	0.12515765
158	0x3e6c9bab	0.23106258
159	0xbdb69076	-0.089142725

heads.1.0.bias f4 [10]
0	0xbdb67526	-0.08909063
1	0x3e3b7b85	0.18308838
2	0x3e28229d	0.16419454
3	0xbd669a15	-0.056299288
4	0xbdd90d8e	-0.105982885
5	0x3c08500d	0.008319867
6	0xbe3d7877	-0.18502985
7	0x3e74137f	0.23835562
8	0xbe136ff5	-0.14398177
9	0xbe40fd15	-0.18846543

heads.2.0.weight f4 [10, 16]
0	0x3e35219d	0.17688604
1	0xbe2fc01f	-0.17163132
2	0xbde4b01a	-0.11166401
3	0x3d53ceef	0.05171102
4	0x3e7c9fc0	0.24670315
5	0xbda5a6b2	-0.08088435
6	0x3e6b6ada	0.2298998
7	0x3da3899e	0.07985233
8	0x3e59fec1	0.21288587
9	0xbe5bb201	-0.21454622
10	0xbc438076	-0.011932483
11	0xbd9d890b	-0.076921545
12	0xbd5abd08	-0.05340293
13	0xbd38cd88	-0.045117885
14	0xbd89e702	-0.06733514
15	0xbe741d55	-0.23839314
16	0x3e4fbe51	0.20287444
17	0xbdeb1fc3	-0.114806674
18	0x3cf5ba97	0.0299962
19	0xbe2e219b	-0.17005007
20	0xbd1f7c68	-0.038937002
21	0x3b481735	0.003053141
22	0xbd240a28	-0.04004875
23	0xbe66ef97	-0.22552334
24	0xbe3aba0b	-0.18235032
25	0xbe3e2335	-0.18568118
26	0x3e02eaa3	0.1278482
27	0xbe5c9bef	-0.21543859
28	0x3e0c79bc	0.13718313
29	0x3d96de08	0.07366568
30	0x3d908e42	0.070583835
31	0xbe25befb	-0.16186135
32	0xbe5be677	-0.21474634
33	0xbe19fb87	-0.15037356
34	0x3d89e24e	0.06732617
35	0xbe6003a4	-0.21876389
36	0x3d52e798	0.051490396
37	0xbe7080f5	-0.23486693
38	0x3e1f687a	0.15567198
39	0xbe69ae59	-0.22820415
40	0x3e2dcc63	0.16972499
41	0x3ded8ec6	0.115994975
42	0x3dcdd2f7	0.10050004
43	0x3e7528f5	0.23941405
44	0xbe7671e2	-0.2406688
45	0x3e15e986	0.14639863
46	0x3e070f3d	0.13189407
47	0x3cf9a3e7	0.030473663
48	0x3e04e203	0.12976842
49	0x3e4fd879	0.20297422
50	0x3e5cdeff	0.21569441
51	0x3e6c87e2	0.2309871
52	0xbe1a933c	-0.15095228
53	0x3d820602	0.06348802
54	0xbe7261da	-0.2367014
55	0xbd9ce382	-0.07660581
56	0xbe69b62f	-0.22823404
57	0x3d8b4362	0.067999616
58	0xbe1295e5	-0.14314993
59	0xbe4bc6bf	-0.19900034
60	0xbe389958	-0.18027246
61	0x3df8fb94	0.1215736
62	0xbc28f1f3	-0.010311591
63	0xbe5094f7	-0.20369326
64	0xbe769251	-0.24079253
65	0x3e62480d	0.22097798
66	0xbe3309a9	-0.17484154
67	0xbd0ade9b	-0.0339037
68	0x3e584d38	0.21123207
69	0x3e667341	0.22504903
70	0x3cc4ba00	0.024014473
71	0x3da36612	0.07978453
72	0x3e22d299	0.15900649
73	0xbe41a18d	-0.18909283
74	0xbc5d0506	-0.013489967
75	0xbde3d75b	-0.1112506
76	0x3e7b67dc	0.24551338
77	0x3c79a420	0.015236884
78	0xbdbd3522	-0.0923865
79	0xbe6d7cdd	-0.23192163
80	0xbe431ec7	-0.1905471
81	0x3df64a6f	0.12025916
82	0x3e5474d7	0.20747696
83	0x3df162b6	0.11786406
84	0xbe3750c0	-0.17901897
85	0x3e72bff5	0.23706038
86	0x3e76ec74	0.24113637
87	0xbe629e27	-0.22130643
88	0x3e03c66b	0.12868659
89	0x3e023459	0.12715282
90	0x3db072d5	0.086156525
91	0x3e3851c0	0.17999935
92	0xbd2eb370	-0.042651594
93	0x3e3246b8	0.1740979
94	0x3ca27c35	0.019834617
95	0xbd594fcb	-0.053054612
96	0xbe1c0313	-0.15235548
97	0xbe13cf01	-0.14434434
98	0xbe15ce6f	-0.1462953
99	0xbe5df60f	-0.21675895
100	0x3b829b00	0.0039857626
101	0xbdf2c966	-0.1185482
102	0xbd8a3d38	-0.06749958
103	0xbe5cb079	-0.21551694
104	0x3e480e0f	0.19536613
105	0xbe1ad6cb	-0.15121
106	0x3dcc07f5	0.09962455
107	0xbe052acf	-0.13004611
108	0x3e606640	0.21914005
109	0xbd9df0a4	-0.07711914
110	0x3e43cad5	0.19120343
111	0x3e3afb07	0.18259822
112	0xbab3956d	-0.0013701149
113	0x3e4e108f	0.20123504
114	0x3df6f4c2	0.120584026
115	0xbd462006	-0.048370384
116	0x3e36504c	0.17804068
117	0xbd7dd7b3	-0.061973285
118	0x3e2622c0	0.16224194
119	0x3e352ce5	0.17692907
120	0xbda9dbd6	-0.082938835
121	0x3d9e771a	0.077375606
122	0x3c78f103	0.01519418
123	0xbd7a9433	-0.06117649
124	0xbe700e40	-0.23442936
125	0x3e36e67e	0.17861363
126	0x3d2b87e5	0.041877646
127	0x3dc79efa	0.09747119
128	0x3d0ca653	0.034338307
129	0xbdf36f8e	-0.11886512
130	0x3e62e074	0.22155935
131	0xbe0968fc	-0.13418955
132	0xbd096de0	-0.03355205
133	0xbc8c04f9	-0.017092215
134	0xbe2352c8	-0.15949547
135	0xbe3046a3	-0.17214446
136	0x3dda0dc6	0.10647158
137	0xbdbdccda	-0.09267588
138	0xbe1cc1e6	-0.15308341
139	0x3e1d16b7	0.15340696
140	0xbc4e2860	-0.012582868
141	0x3e207bc4	0.15672213
142	0xbe3bac1d	-0.18327375
143	0x3e550fcc	0.20806807
144	0x3d9ae9a2	0.07564093
145	0x3e27c423	0.16383414
146	0xbdb5e2ba	-0.08881135
147	0x3e3a7cc4	0.18211657
148	0xbe2938cc	-0.16525573
149	0xbd2ffdab	-0.042966526
150	0x3db34b38	0.08754581
151	0xbda8069e	-0.08204387
152	0xbe4348f5	-0.190708
153	0x3e0933f3	0.13398723
154	0x3e279fea	0.16369596
155	0x3e2a00ed	0.16601916
156	0xbe097852	-0.13424805
157	0xbe0f576a	-0.1399819
158	0xbe46a1bb	-0.19397633
159	0x3e61dc1d	0.22056623

heads.2.0.bias f4 [10]
0	0xbe371c21	-0.17881824
1	0xbd998b66	-0.07497291
2	0xbd828e92	-0.063748494
3	0xbdba3d2a	-0.09093697
4	0x3d97ce92	0.07412447
5	0xbd8ffcbe	-0.070306286
6	0xbe7c3525	-0.24629648
7	0x3deb2652	0.114819184
8	0xbe1175ad	-0.14205046
9	0x3d60469d	0.054754842

heads.3.0.weight f4 [10, 16]
0	0xbe37f1ad	-0.17963286
1	0xbe678473	-0.22609119
2	0x3e42e23f	0.19031619
3	0xbe3728f3	-0.17886715
4	0x3e28d30a	0.16486755
5	0xbe64f66b	-0.22359626
6	0xbe301ab8	-0.17197692
7	0xbe740079	-0.23828305
8	0x3de8e4d2	0.11371769
9	0x3e442579	0.1915492
10	0x3e4c9d2c	0.19981831
11	0xbe37470a	-0.17898193
12	0xbe1d0d6e	-0.15337154
13	0x3dc3f0dc	0.09567425
14	0xbd8e3db3	-0.06945362
15	0x3dabf1b4	0.083957106
16	0xbd11822d	-0.035524536
17	0xbd1879fd	-0.037225712
18	0xbd5af5f5	-0.05345722
19	0x3db36360	0.08759189
20	0xbe7d35fa	-0.24727622
21	0xbe06e0c7	-0.13171683
22	0xbe649f28	-0.22326338
23	0x3e51d907	0.20492946
24	0x3e5cfdbd	0.21581168
25	0x3e572863	0.210115
26	0x3cd9aded	0.026572192
27	0x3e72454f	0.23659252
28	0x3e315ed0	0.17321324
29	0x3db92280	0.090397835
30	0xbdc2a8aa	-0.09504826
31	0xbe11d73b	-0.1424226
32	0x3ca2b719	0.019862698
33	0xbddce136	-0.10785143
34	0x3dee822a	0.116459206
35	0xbe322bbc	-0.17399496
36	0x3c832a50	0.016011387
37	0x3e652e33	0.22380905
38	0x3d4211f8	0.047380418
39	0x3e094619	0.13405646
40	0x3d65b36a	0.056079306
41	0xbe276c2b	-0.16349857
42	0x3dd2ced3	0.10293355
43	0x3c27282d	0.01020245
44	0x3de999f0	0.114063144
45	0xbe54c53c	-0.20778364
46	0xbe149b1d	-0.14512296
47	0x3d876602	0.06611253
48	0xbe6a76e5	-0.22896917
49	0xbe3690cf	-0.17828678
50	0xbc3582d3	-0.011078554
51	0xbd23f9d1	-0.040033165
52	0x3df232d8	0.11826104
53	0xbd659485	-0.056049842
54	0xbded6054	-0.11590639
55	0x3e32cbfd	0.17460628
56	0xbe30444b	-0.17213552
57	0x3e1fb833	0.1559761
58	0xbe40d99d	-0.18833013
59	0x3e107e01	0.14110567
60	0xbd08f728	-0.03343883
61	0x3d9d77f0	0.07688892
62	0xbdb98eaa	-0.09060414
63	0xbe4449b1	-0.19168736
64	0x3df3b266	0.11899261
65	0xbe73bb15	-0.23801835
66	0x3daee942	0.08540584
67	0xbd9348f8	-0.07191652
68	0xbdcf2da8	-0.1011613
69	0x3d8390e9	0.06424124
70	0xbe5578de	-0.20846888
71	0x3b848b59	0.004044932
72	0x3e0d5fdb	0.13806097
73	0x3cb5812a	0.022156317
74	0x3e657a1c	0.22409862
75	0x3e7130cd	0.23553772
76	0x3d4694f8	0.04848191
77	0xbbc41240	-0.005983621
78	0x3e3e5e94	0.18590766
79	0x3c7e4fcd	0.015521956
80	0xbe28ef21	-0.1649747
81	0xbde952ce	-0.11392747
82	0x3e594c1d	0.21220441
83	0xbe288101	-0.16455461
84	0xbe774fd6	-0.24151549
85	0x3e4e6c1f	0.20158432
86	0xbe52f106	-0.20599756
87	0xbc40d852	-0.011770325
88	0x3d785fa3	0.06063808
89	0xbd8ccdd2	-0.068751946
90	0xbd94af49	-0.072599955
91	0x3dc2f939	0.09520192
92	0x3e79dbd6	0.24400267
93	0xbd49be40	-0.049253702
94	0x3e0b3c6b	0.13597266
95	0xbe77ae85	-0.24187668
96	0xbe21a34d	-0.1578495
97	0x3dbffdaa	0.093745545
98	0xbe05fbef	-0.13084386
99	0x3e1479e6	0.14499626
100	0x3db52e38	0.08846706
101	0xbde71fe2	-0.11285378
102	0x3e3a6d82	0.18205836
103	0x3e74b575	0.23897345
104	0x3e1e6deb	0.15471618
105	0x3e3765ed	0.17909975
106	0xbdfd06f7	-0.12354844
107	0xbd6645db	-0.056218963
108	0xbe54fcc0	-0.20799541
109	0x3c1d8c40	0.009615958
110	0x3dcbc1e6	0.099490926
111	0xbdecb752	-0.11558403
112	0xbda4cc8e	-0.08046828
113	0x3e5c5b85	0.21519287
114	0xbdd267ee	-0.10273729
115	0xbd08daf2	-0.033411928
116	0x3df60a70	0.120137095
117	0x3e07eeb7	0.13274656
118	0x3d2401d0	0.04004079
119	0xbe512b37	-0.20426641
120	0x3e00eb91	0.12589861
121	0x3d8a68da	0.0675828
122	0x3d512773	0.051063012
123	0x3e5d4371	0.21607758
124	0x3d975054	0.07388368
125	0x3e2561d6	0.16150603
126	0x3d0df9db	0.03466211
127	0x3c74110d	0.014896643
128	0x3e23f85d	0.16012712
129	0x3dcc748e	0.099831685
130	0xbe04fe7d	-0.12987705
131	0xbc427362	-0.01186833
132	0xbe668eae	-0.22515365
133	0x3c7e72f2	0.015530335
134	0x3e070b40	0.13187885
135	0x3e651f51	0.22375228
136	0xbe615813	-0.22006254
137	0xbd097133	-0.03355522
138	0xbe674f88	-0.22588933
139	0x3dbfc112	0.09362997
140	0xbe6551b0	-0.22394443
141	0x3dba2500	0.090890884
142	0x3cd32809	0.025775926
143	0x3cfffda9	0.031248884
144	0xbe1ce1ef	-0.15320562
145	0x3de5aa42	0.11214115
146	0x3e27c531	0.16383816
147	0xbd011898	-0.031517595
148	0x3e6577be	0.2240896
149	0x3caea2a7	0.021317793
150	0x3e062682	0.13100627
151	0x3e0c15e9	0.13680233
152	0xbd7a91a5	-0.061174054
153	0xbdafcebe	-0.08584355
154	0xbdbf24ca	-0.09333189
155	0x3e20dc4f	0.15709041
156	0x3c5b6da0	0.013392836
157	0xbda7cb98	-0.08193129
158	0xbe4fc0fb	-0.2028846
159	0xbc58bef5	-0.013229121

heads.3.0.bias f4 [10]
0	0x3e39e953	0.18155412
1	0xbda3b00e	-0.07992564
2	0x3dd667a6	0.10468988
3	0x3e25c153	0.16187029
4	0xbe6baf7f	-0.23016165
5	0xbe176e43	-0.14788155
6	0xbaf4a96b	-0.0018666213
7	0x3e261279	0.16217984
8	0x3e5169ab	0.20450465
9	0x3e0e6c73	0.13908558
