results/regression_policy_model.ckpt (torch, 11713 bytes, 12 tensors)

net.0.weight f4 [64, 4]
00000000: 6aa2 90be aefa fa3e b975 ff3d ee89 a9be
00000010: 4ca6 8c3e 94a2 bfbe fb04 ec3e a810 a4be
00000020: f9d4 113e 99ed 1c3e 519d f53d f2d1 d33e
00000030: b0a8 54be b426 58be a0d7 ddbe 4019 a8bc
00000040: a491 73be c550 ac3c d7de cfbd 00e7 2a3e
00000050: b6f8 dd3e a01a 183e 6ce9 23be 6436 7abe
00000060: 7ec8 dfbe fee5 d63e e208 c4bd cfa6 cc3d
00000070: db52 8f3c 02a7 a3be 96a9 8f3e 88f4 8e3e
00000080: 4046 ce3c 627b 91be 5c8d 59be 00a0 e13b
00000090: 2843 92be 5ad6 8ebe 40bf 98bd 3c6e 13be
000000a0: 996b fd3d 908d 05be 58b2 85bd c46b 43be
000000b0: b26f e9be c8c6 df3e 3f50 c13d d568 e43e
000000c0: 6807 a5bd 14ac 00be ccaa f0be 545c 42be
000000d0: be63 a83e e039 fabe 941a 34be 5875 9b3e
000000e0: 4c08 933e 9307 3c3e 69be ccbd 6329 1fbd
000000f0: 2f83 c4bd 90c4 3dbe 6ba5 543e 8063 2ebe
00000100: dad0 8fbe 184e e83d d009 b9be 6889 dabd
00000110: dc54 833e 5453 3e3e 3a6e d93e b41d afbe
00000120: 8073 8e3b ec31 17be 622f 8fbe 8203 90be
00000130: e803 023e 015e 5a3d b029 82be 9bee b3be
00000140: 7e9d d4be 7262 fa3e 8a95 b0bd 3ad5 eebd
00000150: 8845 3cbe de0a 80be 781d eabe 8049 96be
00000160: 8afc 9c3e ea7b e23d a396 33be 9777 40be
00000170: 3c06 a33e 580c b93e 9020 f63e 9560 163e
00000180: 7b60 783e 4975 20bd 9d27 95be 6ccc fabe
00000190: 886a 9b3e 1ae2 96bd 8960 533e 9a6b c13c
000001a0: 20ee eebe 402f 7bbe a504 0f3e 1042 cfbd
000001b0: 97b2 f6be 8083 323e 9ae5 943c 2492 25be
000001c0: 33cf 4d3e 6e23 d63d e4d9 3dbe 1477 e53e
000001d0: 24f1 803e c99f 823d d79c c2bd 8854 d8be
000001e0: cc23 c53e fd23 05be 1cf2 a5be 769f a33e
000001f0: 80dc 363e b974 ff3d bffd c8bd d1cd 20be
00000200: 26b9 ab3d e697 c53e cf97 903d 451f 73be
00000210: 9ecb fd3e b3d1 1e3c 4adc c93e 6685 f73d
00000220: 8cf4 e43e a037 943e f600 82be 2e57 b43e
00000230: 00cd 523b e27e cdbe 3893 d6bd 9611 e7be
00000240: 58a2 84be 0e5c b5be 6294 ae3e 5821 d7bd
00000250: baf8 b2bd 9355 743e 4f58 4f3e ba76 a9be
00000260: 6faa 3b3e 337c 583e 5c0f ccbe 5a10 de3e
00000270: 7a48 9cbe f43d 49be 2260 d3be 6477 e93e
00000280: 1909 c53d aa12 d83e dfa3 013d 9ca2 8a3e
00000290: 6479 23be 063b ccbe 1255 a23d 40a3 36bd
000002a0: 4eb0 4abd 456d 7abe 09f9 393c e50f 143e
000002b0: cfad 373e 88bc cebe 6355 763e 7e81 4e3d
000002c0: 450e b03e 2268 b43e 7e17 c9be 9c5a f63e
000002d0: 8046 fcbe 56a7 923e fd0c 0c3d 4742 713e
000002e0: bbf2 8abe f064 993e db60 7ebe 0247 e2be
000002f0: 9d8f 2c3e ae9c 8b3e 2240 fd3e 5323 5abd
00000300: 2ac1 f53e bcf3 a33e 23f5 7ebe e6f9 c5be
00000310: d617 903e 86be 8bbe e7d3 693e 85c2 dbbe
00000320: 2a48 bb3e c17a 1a3e 0d59 67bd 6fd7 6b3e
00000330: 2242 b6be 80da dfbd 1463 c13b 74ec 93be
00000340: efd9 03be 4cc7 5bbe 407d f43e 3efe d93e
00000350: 964e dd3e 06c0 d13e 36a9 f4be 094a 2c3e
00000360: ccbd 3d3e 4042 bbbe f98e 503e dc65 8abe
00000370: 90e1 a43d 099d 2a3e c269 dd3e 14ca 85be
00000380: 26ed c9be a85a ec3e f5f1 573e 55e1 793e
00000390: 2347 373e 7d40 36be 047c 993e 4002 e0be
000003a0: d774 8c3d 9b6b 663e 326c af3e 63a7 7ebe
000003b0: 1a07 adbe a8e9 3f3e 584e cbbe 8ec0 d4be
000003c0: ba39 e6be 5c49 78be 7875 c3bd fc99 97be
000003d0: ac7c 58be 46af e2be 5adc 9d3e 986c eabd
000003e0: 9202 a1be 1c47 043e b8e6 bebe a2b5 b33e
000003f0: 4ab7 933e ec0f fbbe 286f c8be e6cc a8be
-0.28248912 0.49019378 0.12473626 -0.33113045 0.27470624 -0.37428725 0.4609755 -0.32043958
0.14241399 0.15325011 0.11992896 0.41371113 -0.20767474 -0.21108514 -0.4332857 -0.020519853
-0.23786026 0.021034608 -0.10149925 0.16689682 0.43353814 0.14853907 -0.16007012 -0.24434811
-0.4370765 0.41972345 -0.09572007 0.09992754 0.017495563 -0.31963354 0.2805907 0.27920938
0.025179982 -0.28414446 -0.2124533 0.0068855286 -0.2856686 -0.27897912 -0.07458353 -0.1439752
0.12374038 -0.13042283 -0.06528157 -0.19084078 -0.4559303 0.43706346 0.09439134 0.4461123
-0.08058053 -0.12565643 -0.47005308 -0.18980533 0.32888597 -0.4887228 -0.17588264 0.30362964
0.28717268 0.18362264 -0.09997255 -0.03885783 -0.09595334 -0.18532014 0.20766227 -0.17030144
-0.2808903 0.1134302 -0.361403 -0.106707394 0.2565068 0.18586475 0.4246691 -0.3420235
0.0043472648 -0.14765137 -0.27965838 -0.28127676 0.12696803 0.053312305 -0.2542243 -0.3514298
-0.41526407 0.48903233 -0.08622272 -0.116617635 -0.18385899 -0.2500829 -0.45725608 -0.2935295
0.30661422 0.11058791 -0.17537932 -0.1879562 0.31840694 0.3614223 0.48071718 0.1468528
0.24255554 -0.03917435 -0.29131785 -0.48984087 0.30354714 -0.07367344 0.20642294 0.023610879
-0.4666605 -0.24529743 0.13966615 -0.10120022 -0.48183128 0.17432976 0.018175889 -0.1616903
0.20098571 0.104559764 -0.1854015 0.44817412 0.25183976 0.06378133 -0.09502571 -0.42251992
0.38503873 -0.1300201 -0.32411277 0.31957597 0.17857552 0.12473435 -0.09814023 -0.15703513
0.08384924 0.38592452 0.07060205 -0.23742397 0.4956941 0.009693551 0.3942588 0.120859906
0.44717824 0.28948689 -0.25391358 0.35222763 0.0032165647 -0.40135866 -0.104772985 -0.45130605
-0.25905108 -0.35421795 0.34097582 -0.10504407 -0.08738847 0.23860769 0.20248531 -0.33098394
0.18326734 0.21141128 -0.39855468 0.4337185 -0.30524045 -0.1965254 -0.4128428 0.455989
0.09620876 0.4220174 0.03165042 0.27077186 -0.15964276 -0.3988878 0.07926382 -0.04458928
-0.049484544 -0.24455746 0.0113508785 0.14459188 0.17937396 -0.40378213 0.2405601 0.050416462
0.34385887 0.35235697 -0.39275736 0.48116004 -0.49272537 0.28643292 0.034192074 0.23560439
-0.27138314 0.29959822 -0.24841635 -0.441948 0.16851659 0.27267975 0.49462992 -0.053256344
0.47998935 0.32021892 -0.248982 -0.3866722 0.28143185 -0.27293795 0.2283474 -0.42921844
0.36578494 0.1508589 -0.05648141 0.230314 -0.3559733 -0.109303474 0.0059017036 -0.28891337
-0.12876104 -0.21462744 0.47751808 0.42576784 0.4322402 0.40966815 -0.47785348 0.16825117
0.18529433 -0.36573982 0.2036704 -0.27030838 0.08050835 0.16661467 0.4324475 -0.26130736
-0.39438742 0.46162915 0.21088393 0.24402364 0.1789823 -0.17798038 0.2997743 -0.43751717
0.06858223 0.22501986 0.34262234 -0.2486854 -0.3379448 0.18741477 -0.3970821 -0.41553158
-0.44965917 -0.24246734 -0.0954389 -0.29609668 -0.21141309 -0.44274348 0.30832177 -0.11446494
-0.31447273 0.12917751 -0.372854 0.35099512 0.28850776 -0.49035585 -0.39147305 -0.32968825

net.0.bias f4 [64]
00000000: 9c11 8abe 089f 7b3d a6a2 fcbe 38ca bdbe
00000010: c1d8 6a3e 98a9 26be a0c2 4cbe c64b d4be
00000020: fc84 4f3e 309f 103d 28e1 44be 1e42 9cbe
00000030: c8c6 d93d b955 0c3e 9c3b 623e d921 173e
00000040: d834 9cbd 0eaf c6be c4f8 a23e 335c 57bb
00000050: 76a5 aabe 96c5 dc3e 863e 8f3e beb5 c9be
00000060: 82ad 7ebe 8342 2fbe e14b 94be c412 6e3e
00000070: 1424 b7be 326e ee3e b4a6 54be 5c9f 973e
00000080: fc4b 833c 7032 62be c070 aa3e 2c56 c3be
00000090: f8f4 87be ce60 713d fa90 ca3e a364 5cbe
000000a0: d55f 9bbe 43f2 a3be 81b4 60be f8e2 31be
000000b0: 248f f0bd 9425 92be cdff 1e3e f196 483b
000000c0: 35c6 a7be 5cb4 92be d0e1 da3d a048 c9bb
000000d0: 05b2 b53e b82f 99bd c2df cebe 2cd4 bcbe
000000e0: c542 15be 28d7 e4bd 58d1 6d3d 28a7 e5bd
000000f0: 70ea 3c3e 4b42 29be 7867 bc3e 713f ed3d
-0.2696656 0.06143096 -0.4934284 -0.37068343 0.22934248 -0.16275632 -0.19996119 -0.4146406
0.20265573 0.035308063 -0.19226515 -0.30519193 0.10633618 0.13704576 0.22093052 0.14759006
-0.07627267 -0.3880543 0.31830418 -0.0032861352 -0.33329362 0.43119496 0.2797739 -0.3939647
-0.24870875 -0.17115216 -0.2896414 0.23249346 -0.35769713 0.46568447 -0.20766717 0.2961377
0.016027443 -0.22089553 0.33289146 -0.3815168 -0.26554084 0.05893021 0.39563733 -0.21522765
-0.30346552 -0.3202077 -0.21943857 -0.17371738 -0.11746052 -0.28544295 0.15527268 0.0030607546
-0.32768407 -0.28653228 0.106876016 -0.006142691 0.3548738 -0.07479805 -0.4040509 -0.36880624
-0.14576252 -0.1117385 0.058060974 -0.11213523 0.18448806 -0.16529195 0.3679769 0.11584366

net.2.weight f4 [16, 64]
00000000: cb80 21bd 0532 e63d a13a fd3c 9cf9 adbd
00000010: ed85 90bd c477 9e3d c1be 653d d7d5 c53d
00000020: 9051 1dbc 3a0d b33d 5553 813d 613e 1a3d
00000030: 2800 edbc 3cd4 f83d 4907 c73c d401 00bd
00000040: 00f1 e8ba c69c f93d 50f1 ab3d 6921 28bc
00000050: f2ec f83d 5cd6 603d c658 8abd 9206 ebbd
00000060: bfd1 963d 8409 ee3d a51a 93bd c862 563d
00000070: a59a 8d3b 1d24 e3bc 6b50 0fbd dd57 0a3d
00000080: 218e d93c 4cdb aa3d 8155 373d 44fd 683d
00000090: 51e1 e33d 5155 1b3d 29d0 8f3c 397f 3ebd
000000a0: 1eb3 b93d a56a 9f3c 2df6 a23d e540 f93d
000000b0: 6f36 edbc aa33 b23d 7925 d8bc 58f9 e43d
000000c0: ca72 c73d 506c 33bd ca42 643b 0c81 5bbd
000000d0: 472c 53bd c784 d7bc 60f2 1a39 5f93 36bd
000000e0: 2ab6 f3bd 3ce2 9cbd cd64 3fbc 2872 23bd
000000f0: 3625 be3d ab23 d23d 3e0a a13d 79b2 663d
00000100: 44e6 c8bd 18dc f13d b28a dfbd d052 28bd
00000110: f720 b2bd 1136 3c3d 3df9 d2bd 3151 78bd
00000120: 389d a2bd 0c5c 9dbd d802 6fbd 62b3 fd3d
00000130: e046 27bc 0a2b 203d 4114 fcbd 0a9d e33d
00000140: 80fb debc fbe4 e8bd c06c b03d 1071 0abd
00000150: 9f87 ea3d 28e2 adbd 7aa1 ebbd e045 bebd
00000160: 8cc9 5d3d f54a 55bc d029 edbd f0dd bd3c
00000170: 8651 e4bb 54f8 383d 912c 80bd 1fb5 b4bd
00000180: 8b88 b03d 5d47 72bd 9820 b63d f890 cf3d
00000190: 7a07 b3bd 780d 6cbd 3676 833c 6453 efbd
000001a0: cb55 213d b854 55bd 6802 63bd 70db c3bd
000001b0: 7b9e 733d 5616 a1bd 0c9f ccbd 298c 02bd
000001c0: bc77 8cbd f6e1 f8bd 7b70 523d 68cc 42bd
000001d0: 005e b53d 3440 b63d f044 a3bd 6731 93bd
000001e0: 59a4 31bd 0af4 953d 1975 58bb c8e8 36bd
000001f0: 4a96 9e3d d2c6 f23d e54e bf3d bec3 c3bd
00000200: 4ee0 dcbc 4439 bcbc 506c d83d c467 84bd
00000210: f2c4 94bd d089 7a3a de10 f6bc 9ae5 453d
00000220: 30f0 783c 7ad8 98bd 6c26 ba3d 784e 9d3d
00000230: f83d e03c f2a9 e5bd ad80 6c3d 8126 ac3d
00000240: 948a 0e3d 9301 4abd 505a 093c 8cb0 44bd
00000250: dbf6 ee3d 9c32 f73d cf0b 7fbc be48 aebd
00000260: b897 963d 1f9c 803d 5cbf 893d 7994 bebd
00000270: 2584 293d 8f97 5ebd c3f6 debd 8fce b4bd
00000280: b5f1 543d fd95 3b3d 10bb e2bd f02b 913d
00000290: 9734 c63d ef49 c03d 2380 8e3d fdef a8bc
000002a0: 247d a93d 1377 ca3d f77e 873d 8114 b6bd
000002b0: a3c9 36bd 8ac2 c83d 182b c33d d84c a13d
000002c0: 7617 5abd 059c c2bc 3cc5 c0bd edd8 8fbd
000002d0: 5c77 c23d d92a d4bd 46dd f4bc da2b d13c
000002e0: b2a6 9bbd 13e3 f63c f6cd acbc ccc2 4c3d
000002f0: 4073 c4bd 1482 953c 1d73 ebbd 0ad2 9e3d
00000300: 7d9f f63d 17d7 3abd 6d9c 9f3c d4e4 83bd
00000310: 20b6 a1bd 9e35 7fbd d502 78bd d391 ca3c
00000320: a0c1 6abc 2099 0f3c 8b3a c6bd 0de2 a2bd
00000330: dc9f ddbd 4ff3 b5bd 3d6d d83d e91f 3a3d
00000340: 9e25 f4bd 141a b3bc 305d 243c 24cf 8a3d
00000350: 027a ef3d 6845 f73c 1f62 b63d a218 32bd
00000360: 8699 a6bb 997d 98bd 14b5 e33c 1841 ea3d
00000370: 81cf a23d f864 003e 049b 62bd e9dd 6fbc
00000380: 706a db3c 6fdd cf3d 1947 e9bd e872 7bbd
00000390: 9a59 8c3c 5404 96bd e95b 433d 3f7a f6bb
000003a0: d993 00bd 3a3f 873d 0101 b93d d6f5 f63d
000003b0: 5df3 6b3d 75c7 90bb f45a d33d 12b0 c93d
000003c0: a181 7cbd 6a1e 653d 762e 803c 175e 61bd
000003d0: b80d fcbc e9fd f9bc a530 b5bd f355 20bd
000003e0: 1e32 283d d7e2 b93d c72e 0b3c 2ae9 f7bd
000003f0: b094 873d fb04 1fbd 3cab e63d 616a f9bd
-0.039429467 0.11240009 0.030911746 -0.08494875 -0.07056794 0.07737687 0.05609012 0.09659927
-0.009601966 0.08742757 0.063147224 0.037657145 -0.028930739 0.121498555 0.024295466 -0.031251743
-0.0017772019 0.12188105 0.08395636 -0.010261872 0.12154569 0.05489193 -0.067552134 -0.114758626
0.07364225 0.11622909 -0.071828164 0.0523403 0.0043214136 -0.027727181 -0.034988802 0.0337752
0.02655703 0.08342609 0.044759277 0.056882158 0.1112696 0.03792316 0.017555313 -0.046508048
0.09067367 0.019460032 0.079571106 0.12170581 -0.02895662 0.087012604 -0.026385056 0.11180371
0.09738691 -0.043804467 0.0034829848 -0.053589866 -0.051555898 -0.02630843 0.00014776876 -0.044574138
-0.118999794 -0.07660338 -0.011681748 -0.03990379 0.09284441 0.102607094 0.07863282 0.05632255
-0.09809545 0.11809558 -0.10915126 -0.0410946 -0.08697694 0.04595 -0.10301445 -0.060624305
-0.07940143 -0.07683572 -0.05835232 0.1238773 -0.010209769 0.039103545 -0.123085506 0.11113937
-0.027219534 -0.113717996 0.086144924 -0.03379923 0.11451649 -0.084904015 -0.115054086 -0.09290671
0.05414729 -0.013018359 -0.11580241 0.023177117 -0.006967726 0.0451587 -0.062585 -0.088236086
0.086197935 -0.05915009 0.088929355 0.101350725 -0.087416604 -0.057630032 0.016047578 -0.116858274
0.03938846 -0.052082747 -0.055422217 -0.09563339 0.05947731 -0.07865588 -0.09991273 -0.03187195
-0.06858775 -0.12152474 0.0513768 -0.04755822 0.0885582 0.088989645 -0.07972133 -0.07187157
-0.043369625 0.073219374 -0.003302878 -0.04465559 0.07743509 0.11854328 0.0934122 -0.09558819
-0.026962426 -0.022976525 0.10567534 -0.06465104 -0.07264127 0.0009557279 -0.03003734 0.04831467
0.015193984 -0.07463165 0.0908936 0.07680982 0.027373299 -0.11214055 0.057739902 0.084057815
0.034800127 -0.049317908 0.008383349 -0.04801993 0.11668178 0.120702 -0.01556678 -0.08509968
0.07353157 0.06279778 0.06725952 -0.09305663 0.04138579 -0.054343756 -0.1088691 -0.088284604
0.051988322 0.045797337 -0.110708356 0.070884585 0.096779995 0.09389102 0.06958034 -0.020622248
0.08275822 0.09885993 0.066160135 -0.088906296 -0.04462589 0.098027304 0.09529704 0.07875985
-0.05324503 -0.023756037 -0.094126195 -0.07023797 0.09495422 -0.10359735 -0.029890668 0.025533605
-0.07600154 0.030137574 -0.021094304 0.04999046 -0.09592295 0.018250503 -0.114965655 0.077549055
0.12042139 -0.045615282 0.01948377 -0.0644013 -0.07896066 -0.062306993 -0.060549576 0.024727738
-0.01432839 0.008764535 -0.09679135 -0.07953272 -0.108215064 -0.08884298 0.105677105 0.04544059
-0.119212374 -0.021863021 0.010031983 0.0677779 0.11693193 0.030184463 0.08905434 -0.043480523
-0.0050842194 -0.07445831 0.027796306 0.11438197 0.079497345 0.12538517 -0.055323616 -0.01464031
0.026784152 0.10149657 -0.11390514 -0.06138888 0.01713257 -0.07325044 0.047695074 -0.007521897
-0.031391 0.066038564 0.090333946 0.12058608 0.057605136 -0.0044183084 0.10320082 0.09848036
-0.06164706 0.05593721 0.015647154 -0.05502137 -0.03076826 -0.030516582 -0.08847169 -0.039144468
0.04106342 0.090764694 0.008495039 -0.121050194 0.06620157 -0.03882311 0.11263129 -0.12178493

net.2.bias f4 [16]
00000000: e67b df3d a7c2 f03d 5792 98bd c006 59bb
00000010: cf95 003e 0126 a4bd 123b 98bc 2ebb b1bd
00000020: 0cb8 b83d eace 9d3c 790c 513d 71a6 b53d
00000030: d3a9 aabc f8e4 ffbd ecce a73b 19e0 2ebc
0.109123036 0.11755877 -0.07449787 -0.0033115596 0.12557147 -0.08015061 -0.018582854 -0.0867828
0.09019479 0.019263703 0.051037285 0.08869637 -0.020832932 -0.12494844 0.0051211026 -0.010673546

heads.0.0.weight f4 [10, 16]
00000000: debb bb3d 900b f13d 1f8e fcbd 83a0 c7bd
00000010: 8067 223e 81cd 933d daab 6e3d 6102 e63d
00000020: 6c13 ee3d 3bf3 37be 65ba ab3c 5ffa cb3c
00000030: 5f43 76be 184f 593d fa13 19bb 3198 473e
00000040: b153 73be a4d5 713e ef82 f8bd d8d6 173e
00000050: 3526 3e3e 58e8 f5bc 6cff 03be 7a1a 2ebd
00000060: 1ca8 1fbe 38ab 023d fc43 d93d 7fb9 573d
00000070: 9772 14be f2e0 0b3e 30f1 6b3e 1bbc 99bd
00000080: 41e8 033e 0f2f 8fbc 5353 cc3d 2999 37be
00000090: 5e9f 5bbe a9aa 04bc 17ba 58be ab63 b63d
000000a0: 76a6 6f3e 4beb 4cbd ad08 b93a 05d2 1f3d
000000b0: a577 f9bd c090 51bc 63f3 853d a400 4e3e
000000c0: 825d 53be 2064 81bb cad4 4fbe ef1f adbc
000000d0: 1846 b7bb 0073 d3bd cefe 1b3e 509e 2e3e
000000e0: ac9f c6bd bfa9 0abd b9df 9abd 1468 fd3b
000000f0: 07b6 a63d aaae 6c3e aac9 69be cdfd d13d
00000100: 0b24 19be 0108 50be f82b 463e 637d 96bd
00000110: 2287 0ebe 0580 8e3d dffa 50bd 564c 69be
00000120: 0c88 05be 2b3f d6bd ec88 97bc acf9 27be
00000130: 1087 75be 2c62 0e3e 70ce 5abe 6bbf efbc
00000140: efb7 5a3e a17f bebd 9551 2abe 32ac 863d
00000150: f460 5e3e 060c eabc b208 81bc 132f ed3d
00000160: 4044 003d 5511 403d 0972 063e e9c3 ea3d
00000170: 9b4f 36be 8820 cabd d1db 2d3e 85eb 193d
00000180: 4ba2 723d 04ea 763e f87c 1f3e 595b ce3d
00000190: 04fe 753e be29 60be 33d0 1a3d c0bb 873d
000001a0: 100e 32bd 0f62 eebd 5b1c 413d ad95 52be
000001b0: e913 d8bd c46c 423e 0610 babd fb5a 91bd
000001c0: a5b3 e73d 30f8 7ebd ab7d 1a3d 1d71 80be
000001d0: 0fbf 103e 2eb8 62be 0980 0c3d 28f6 7cbe
000001e0: 64b8 5bbe d3f8 4e3e 69f0 0bbe 3ebf 1dbc
000001f0: 18d9 463c 628e 6b3e 1681 a53d a9f8 fb3d
00000200: 7bfd d8bd ac80 adbd b53e 3b3e 00bf bd3d
00000210: 1fb4 7c3d 5807 40be 214a 4bbe f0d8 523d
00000220: ce1c 40be 2583 343e e656 563e 7f00 d2bd
00000230: 43fa 23be 16d1 773e 2a8f 07be ac03 4bbe
00000240: f5c7 38be 41fa 353d ebf3 4a3d 1d54 263e
00000250: f62c 4f3e 0567 dc3d fa46 163d 133d 683e
00000260: 604b d3bd 9579 2fbd e3cd 593e 2b48 aabd
00000270: 1646 0a3e 789a 5b3d aac5 b63d 2508 66bd
0.09166692 0.117697835 -0.12331795 -0.09747412 0.15859795 0.07216931 0.05826936 0.112309225
0.11624798 -0.17963879 0.020962903 0.02489966 -0.24049138 0.053053945 -0.0023357854 0.1949165
-0.23762394 0.23616654 -0.121343486 0.1482805 0.18569262 -0.030018017 -0.12890404 -0.04250572
-0.15591472 0.03190157 0.1060867 0.052667137 -0.14496838 0.13660029 0.23041224 -0.075065814
0.12881567 -0.017478494 0.0997683 -0.1792952 -0.21447513 -0.008097329 -0.21164738 0.08905729
0.23403344 -0.05002908 0.0014116965 0.03901865 -0.121810235 -0.012790859 0.06540563 0.20117432
-0.20641139 -0.0039487034 -0.20296016 -0.021133391 -0.0055930726 -0.10324669 0.15233919 0.17052579
-0.09698424 -0.03385329 -0.07562203 0.0077333543 0.08140188 0.23113504 -0.22830835 0.10253487
-0.14955156 -0.20315553 0.1935271 -0.07348134 -0.13918737 0.069580115 -0.0510205 -0.22783026
-0.13040179 -0.10461267 -0.018497907 -0.16403836 -0.23977304 0.13904637 -0.21367812 -0.02926608
0.21359228 -0.09301687 -0.16632684 0.065758124 0.21716672 -0.028570186 -0.015751217 0.11581244
0.03131509 0.04689153 0.13129438 0.11463148 -0.17803805 -0.09869486 0.16978385 0.037578125
0.059236806 0.24112707 0.15575016 0.10076017 0.2402268 -0.21890923 0.03779621 0.06627607
-0.043470442 -0.11639797 0.047146183 -0.2056491 -0.105506726 0.18986803 -0.090850875 -0.07097431
0.11313561 -0.06224841 0.037717503 -0.250863 0.14135383 -0.22140571 0.03430179 -0.24703276
-0.21457058 0.20212106 -0.13665928 -0.009628115 0.01213672 0.23003533 0.08081262 0.123032875
-0.105952226 -0.08471808 0.1828564 0.09264946 0.061695214 -0.18752801 -0.19852497 0.05147642
-0.18760988 0.17628153 0.20931587 -0.10254001 -0.16013436 0.24200854 -0.13238207 -0.1982562
-0.18045028 0.044428114 0.049549025 0.16243024 0.20231995 0.10761837 0.036688782 0.22679548
-0.10317111 -0.04284056 0.21269946 -0.08314546 0.13503298 0.05361411 0.0892442 -0.05616011

heads.0.0.bias f4 [10]
00000000: 9d03 59be 019a 383e 4bc0 513e f743 4abe
00000010: 3393 edbd 7352 1d3c b9bb ff3d 16d8 0cbd
00000020: 676d debd 413d 483e
-0.21192785 0.18027498 0.2048351 -0.19752489 -0.11600342 0.009602177 0.12486977 -0.034385763
-0.108607106 0.19554617

heads.1.0.weight f4 [10, 16]
00000000: 0f8a 01be af95 673e 4215 ac3b 835e 053e
00000010: 01db 743d 8823 303d 8267 3d3e f8e4 3cbc
00000020: fc9f 343e 60fa a63d 1be9 0fbe 46d1 283e
00000030: 6ada 34be 7649 053e c949 57bd ebd2 9c3d
00000040: 5cdd ecbc 5f82 4e3d 91b0 9cbd 843d d63d
00000050: 53f2 ec3d 3c22 69be 50af 603e 766b 4dbe
00000060: 0487 e4bd 6d9b cb3d cafa 6c3e 9f87 a83d
00000070: 39d4 0dbe c033 343d 6f9b 18be 18ec f23d
00000080: 0cbc 613c 76ed cf3c f358 43be 5aa6 093e
00000090: 0b34 723e 7292 30be 5d35 b03d a7bc dfbd
000000a0: a43b 89bd 81a9 633e 8d97 6ebe 7745 3dbd
000000b0: 7c31 ba3d a889 e83d 5511 c6bd abbb 0abe
000000c0: 655b 4a3d ba06 68be 490b 0c3d 23f0 22be
000000d0: 2933 3fbd 4f69 653e fb9a 55be 8e48 ffbd
000000e0: def3 44be 4b8f 173e 6678 543e 9286 24be
000000f0: af8c 223e c4fb 233e d9ed 5abe 37a9 ac3d
00000100: b2c1 ea3d dba4 32bd 593d 2d3e 76ea 6dbc
00000110: dadb 00bd 8da5 103e 6d09 69be cd69 7abe
00000120: f03d 3e3d 56df e93c 153b 993c 44d3 1bbe
00000130: dc05 4d3e 684c 1ebe 0465 e0bd 2d0b 57be
00000140: 4ff0 7dbe 97a1 733d db46 ccbd ddb6 1d3e
00000150: a21c 763e a357 a83d ced7 603e 4829 31be
00000160: 1edb 063e 0f2b 0c3e 11fa cebd 8e2b 89bc
00000170: 2e98 18be 1040 c53c 378a 73be 45d4 17be
00000180: 44a7 5bbe fb3f fabc c5ee d83c b8cc 4cbe
00000190: c212 babd 37b1 183e 67ca 563c 3282 373d
000001a0: 901b e2bd 5b8a 94bd 91ef 61be 467f 6f3e
000001b0: 2f17 f13c ccd2 eb3d feae 163e 9a7a 613e
000001c0: 208f 2fbe 46f3 903d 09ea 5ebe 3b8b bc3d
000001d0: bc63 04be f96c c93d bb75 3bbe a07b 083e
000001e0: da52 373e fabe 0d3e e5ef 55be 2911 1f3e
000001f0: 386a 21be 3870 6fbe ef9d 253e d548 2a3d
00000200: 5640 b0bd 42bd 5ebe e5ad 853d 2b46 dbbd
00000210: 67f7 49be ccd8 f8bc 87fc 58be 4947 fe3d
00000220: f6ad 28be 4f3a acbd 433b 7cbe d155 0abd
00000230: f50b 9cbd 5442 0d3e d79e 63bd 015c 2d3e
00000240: 8b7a 5e3e 0fc6 4c3d 0288 b1bd 6ded 53be
00000250: 7a16 32be fd88 aebd 0775 21be fd85 063e
00000260: 0c4d a5bd 6d51 26bc 340d 1a3c 563a 5ebe
00000270: 5b71 543e 24af c3bd df30 4ebe 194e a2bb
-0.12650321 0.22615694 0.0052515576 0.13024335 0.05977917 0.043002635 0.18496516 -0.0115292
0.17639154 0.08153224 -0.14053766 0.16486081 -0.17661443 0.13016304 -0.0525606 0.07657417
-0.028914146 0.0504173 -0.07650865 0.10460952 0.11569657 -0.22766966 0.21941876 -0.20060524
-0.11158565 0.099417545 0.23142543 0.08228993 -0.13850488 0.043994665 -0.14903043 0.118614376
0.013777744 0.025381785 -0.190769 0.13442364 0.23652665 -0.17243364 0.08603928 -0.109246545
-0.06700829 0.2223263 -0.233 -0.046208825 0.0909147 0.11354381 -0.096712746 -0.13548152
0.049403567 -0.22658816 0.03419045 -0.15911917 -0.04667965 0.22403453 -0.20859902 -0.124650106
-0.19233653 0.14800756 0.20749053 -0.1606696 0.15873979 0.1601401 -0.21379794 0.08430713
0.11462726 -0.04361425 0.16917934 -0.014521232 -0.031459667 0.14125653 -0.22757502 -0.24454422
0.046445787 0.028548878 0.01870493 -0.1521731 0.20021766 -0.15458834 -0.10956767 -0.21000357
-0.24798702 0.059480276 -0.09974452 0.15401788 0.2403436 0.082198404 0.21957323 -0.17300904
0.13169524 0.136883 -0.1010629 -0.016744401 -0.14901802 0.024078399 -0.23783194 -0.14827068
-0.21450526 -0.030548086 0.026481042 -0.19999969 -0.09085609 0.14911352 0.01310978 0.0448019
-0.110404134 -0.07252952 -0.22064044 0.23388395 0.02943 0.11514816 0.14715192 0.22019425
-0.17144442 0.07077651 -0.21768965 0.092062436 -0.1292867 0.09835238 -0.1830663 0.13328409
0.17902699 0.13842383 -0.20892294 0.1553389 -0.15763175 -0.23382652 0.16173528 0.041573364
-0.08606021 -0.21751884 0.065273084 -0.10706743 -0.19723283 -0.030376814 -0.21190082 0.1241594
-0.16472611 -0.08409559 -0.24631982 -0.033773247 -0.07619468 0.13794833 -0.055571403 0.16929628
0.21726434 0.04999357 -0.086685196 -0.2069604 -0.17391387 -0.08522222 -0.15767299 0.1313705
-0.08071336 -0.010151249 0.009402562 -0.21701941 0.20746367 -0.0955489 -0.2013583 -0.0049531576

heads.1.0.bias f4 [10]
00000000: fbfd 5fbe b1dc 033d bba1 24be 2baa 64bd
00000010: a68a 94bd 6148 3a3e 8c96 463e 84c1 7c3e
00000020: 66cb e93c 9f44 223e
-0.2187423 0.03219289 -0.1607732 -0.055826347 -0.072530076 0.18191673 0.19393367 0.24683195
0.02853937 0.1584649

heads.2.0.weight f4 [10, 16]
00000000: 6610 51be f8b3 2abe a3bf 083e 6809 653d
00000010: f7c1 8f3d 665d 133e 1c4b 213e 11a9 f23d
00000020: 34ab bdbd a523 a0bd 9ac1 5b3d 20b7 533e
00000030: 5e60 a3bc 8467 98bd 6975 0e3e 8cb0 283e
00000040: 9ad5 b8bb b173 99bd c604 7ebe 3443 6b3c
00000050: effe 9e3d 17f8 3cbe 600a 3dbe fbe8 7ebe
00000060: 7007 483e 9bf6 6e3e 9554 7c3e 4485 633e
00000070: 62b8 cfbc 60ba e33d 788c 183e 7ed1 8abd
00000080: c777 12be e01e 563e cb6b cebc 91d8 be3d
00000090: 587a f1bd c808 03be 87a5 39bd 5225 ee3b
000000a0: 0c73 173e 3353 273e eb21 f9bc 38b5 7c3e
000000b0: f742 07be 00a8 893c d86b 1fbe 2bba 2b3d
000000c0: 4359 6a3e 9ec8 54be 1afb 743d 653f 6abe
000000d0: 761e 69bd 7c95 eebd ee4e ba3a 5ca2 30be
000000e0: 4c08 823d 8388 70be 2962 5c3d ce62 c3bd
000000f0: b42d 18be f006 593e 0449 e53c 5d6f 28be
00000100: 1f45 0fbe 6864 e2bd d974 16be fab7 023d
00000110: 6119 943b f933 603e c8f9 073c 4388 07be
00000120: 2c20 5c3e 82ce 823d adda 58bd 7baf 343e
00000130: fbe3 523e 2a84 57be 101d 52be 9b5f 27be
00000140: 3b20 5bbe a090 97bd 2179 bd3d ab80 68be
00000150: 432e 79be dd69 5bbe 298c 04be 6b87 213e
00000160: 72f8 623e 6357 7f3e 2a06 743b 94cb 57be
00000170: 40ac 7a3e 1e15 2cbe b85b c33d 85fd 003e
00000180: 0056 a03d 7c08 ab3d b5c9 6dbe 7c79 aabd
00000190: 1aa3 23be 2ec7 2f3e 966c 10be 3435 a3bb
000001a0: fa8a 633e 8a0f 433e 9829 37be b388 54be
000001b0: 66a4 4b3e dc59 933d 183f 43be 9e60 5e3e
000001c0: 89d6 39be 32a3 5e3e 1ba3 363e e166 353e
000001d0: 788e 48bd cbcc a93c 35cb 56be 4d31 0f3e
000001e0: 002c 6c3c 378b 3c3e e5e0 d9bd 3351 783e
000001f0: 939e 293e 046c 8fbd 43bd 893d 5dc7 3bbe
00000200: 7c77 2bbe 6961 2ebe 5c09 12be 5b4c 8c3d
00000210: 0fb7 debd 80ca aebd f31c 343e 5e09 253d
00000220: 0889 f9bd fce6 88bd 4b8f 84bd 4113 f13d
00000230: 133a 353e 54fd 4b3e c625 2dbe 0c99 d2bc
00000240: 2a76 743d 7b0d c6bd 774d 273e 427e dbbc
00000250: 49bb e23c c2e2 5bbe 96f3 373e 3e9b 28be
00000260: c001 c5bb 6ed4 51be e4bc 413e 8f22 7d3c
00000270: 6b87 e43d 3837 49be 8c4f b63c 0fb7 cf3d
-0.20416412 -0.16670215 0.13354354 0.055917174 0.07019418 0.14391097 0.15751308 0.11848653
-0.0926117 -0.07819299 0.05365143 0.20675325 -0.019943412 -0.07441619 0.13911976 0.16473597
-0.0056406977 -0.074927695 -0.24806508 0.014359284 0.077634685 -0.18454014 -0.18460989 -0.24893562
0.19534087 0.2333626 0.2464164 0.22218806 -0.025356475 0.111195326 0.14897335 -0.06778239
-0.14303504 0.20910215 -0.025197884 0.093186505 -0.11790913 -0.12796319 -0.045323875 0.0072676325
0.1478998 0.16340332 -0.030411681 0.24678504 -0.13209139 0.016803741 -0.15568483 0.04192559
0.22885613 -0.20779654 0.05980978 -0.22875746 -0.056913815 -0.11649606 0.0014214197 -0.17249435
0.06349239 -0.23489575 0.05380455 -0.0954033 -0.14861184 0.21194053 0.027988918 -0.16448732
-0.13991211 -0.11054307 -0.14693011 0.031913735 0.004519627 0.21894826 0.008299299 -0.13235573
0.21496648 0.063870445 -0.05294292 0.17645065 0.2059478 -0.2104651 -0.20518899 -0.16345064
-0.21399014 -0.07400632 0.09251619 -0.22705333 -0.24334054 -0.21427102 -0.12944092 0.15774314
0.22165087 0.24935679 0.003723512 -0.21073753 0.2447977 -0.1680493 0.09538978 0.1259671
0.07828903 0.08351228 -0.23221476 -0.083239526 -0.15980187 0.17165825 -0.14103922 -0.0049807075
0.22220984 0.19048896 -0.1788696 -0.20755272 0.19886932 0.07194874 -0.19067037 0.21716544
-0.18148245 0.21741942 0.17835657 0.17715026 -0.048963994 0.020727536 -0.20975955 0.1398365
0.014414787 0.18412481 -0.10638598 0.24249725 0.16564398 -0.07003024 0.06725552 -0.1833777
-0.16744798 -0.17029347 -0.14261383 0.06850501 -0.108747594 -0.085347176 0.17589168 0.040292136
-0.1218434 -0.06684682 -0.064726435 0.117712505 0.17697935 0.19920856 -0.1690894 -0.025707744
0.059683003 -0.0967054 0.16338144 -0.026793603 0.027677195 -0.2147322 0.17964014 -0.1646547
-0.0060121715 -0.20491192 0.18919712 0.015450134 0.111586414 -0.1964997 0.022254728 0.101423375

heads.2.0.bias f4 [10]
00000000: 47c3 333e d11d 3b3e c5b9 32bd dbd1 c7bc
00000010: 6a29 ac3d 420b b6bd 204b cebd 59b7 6cbe
00000020: 4105 7abe 34d2 07be
0.17554961 0.18273093 -0.043634195 -0.02439206 0.084063366 -0.08888866 -0.10072923 -0.23116817
-0.24416067 -0.1326378

heads.3.0.weight f4 [10, 16]
00000000: 3a82 f73c c243 ad3c 1a1d 9c3c 6d41 153d
00000010: 5305 39bd cdf1 7dbe a592 633e 7c57 3cbe
00000020: 80db 3fbb 7e62 c93d 894d 853d 806d e0bd
00000030: db7d 5fbe ccf9 4c3e 181b 053c f972 683e
00000040: 54d4 ec3d bfad d83d 1bac 613d 78da 62bd
00000050: 1b03 15be cc83 f03c 4306 773e 437f 1a3e
00000060: bc93 683e 600e 6f3e 1f01 473e 39aa 0ebe
00000070: ea64 0abe 6084 0cbc ba5f 03be b1f8 8cbd
00000080: 8f56 adbd 1c09 613e bc85 81bc 56d3 783e
00000090: 0087 47be 7a7f 7bbe ba81 163d 3029 503d
000000a0: 609b cebd 7387 00be 01e0 933d ca94 5d3c
000000b0: e416 05bd 9ef6 013e f4b0 d7bd 6565 4a3e
000000c0: db9b 2fbe e73d 06be e960 b33d 5759 1e3e
000000d0: 0312 85bb 9cfb 49be 6002 34bc 08e7 aebd
000000e0: c499 a3bd 9a5e 41bd 6e45 723d f943 6abd
000000f0: 2b80 32be b0a3 ffbd 1167 55be 5a5d 80be
00000100: a57a f93d 3010 103e 547a 423e 2351 aa3c
00000110: db8b d0bd e0f1 18be 8387 003e f2af 19be
00000120: e44f 3f3e 3bd2 09be a4ca 6dbe 3256 37be
00000130: 0f86 513e 023b 413e c906 7e3d d049 de3b
00000140: 2586 5c3e bc82 1b3e 6599 183e 8b36 2dbe
00000150: 17f3 273d cbf6 683e 9f4f 33be 6908 803e
00000160: 96ac 27be 3267 94bd 74c3 30bc f93b 873d
00000170: a064 9f3d fa6a 12be cd64 ec3d 0e8d 893d
00000180: 572b ecbc 4acd 7fbe 2557 7c3e 5d64 bfbd
00000190: ec6d 07be 1e79 7c3e 0cc1 02be 6e0c 2c3e
000001a0: 9e36 1c3e a2a6 27be 307a 4fbe e925 0abe
000001b0: 0333 9e3d b87c 713e 9ffd 52bc 59f8 9abd
000001c0: ca57 95bd 3343 31be 34cf 7e3e a63a 73bb
000001d0: c89b 4bbe eedd 2dbe a949 203e bf98 f53d
000001e0: 3828 253e 6519 e0bc a639 46bd 35b5 a53d
000001f0: b1c3 bdba 88d4 a4bd 571a 703d fdeb 12be
00000200: 733a 30be 7942 5ebd aa77 35be cac2 f03b
00000210: c40e 1d3d a2b0 7b3e 189b 953d 70d0 f2b9
00000220: 240e 3abe d7bf cbbd e6d6 22bd e94e 37be
00000230: 3a6d 4b3d 6c3f 383e 3780 133e 3f4b d2bd
00000240: db6b 7ebd 441e 803e 51dc 1fbd eff0 66be
00000250: 5aaa 9cba 1cde 3f3c ed41 c0bd 6680 e6bc
00000260: 1ec1 50be eb9e 9b3d 39b0 32be 5644 b23d
00000270: addd 3f3e 9845 25be 546d c6bd 84c8 bc3c
0.030213464 0.021150474 0.019056845 0.036439348 -0.045171093 -0.24799271 0.22223909 -0.18392748
-0.002927512 0.09833239 0.06508929 -0.109583855 -0.21825354 0.20017165 0.008124135 0.22700109
0.11563936 0.105800144 0.055095773 -0.05538413 -0.14551966 0.02935972 0.24123482 0.15087609
0.22712606 0.23345327 0.19434021 -0.13932122 -0.13515058 -0.008576483 -0.12829486 -0.068833716
-0.08463775 0.21976131 -0.01581084 0.24299368 -0.19485092 -0.24560347 0.03674481 0.05082053
-0.10088229 -0.1255167 0.0722046 0.013524244 -0.032492533 0.12691733 -0.10531798 0.19765241
-0.17149298 -0.13109551 0.087587185 0.15463768 -0.004060985 -0.19724888 -0.010986894 -0.085401595
-0.07988313 -0.04720936 0.059148245 -0.05719373 -0.17431705 -0.12482393 -0.20840098 -0.25071222
0.12181596 0.14068675 0.18991977 0.020790642 -0.10182925 -0.14936018 0.12551694 -0.15008524
0.1868282 -0.13459103 -0.23221833 -0.17903975 0.20461296 0.18870166 0.06201819 0.0067837015
0.21535547 0.1518659 0.14902265 -0.16915338 0.041003313 0.22750394 -0.17510842 0.25006416
-0.1637443 -0.072462454 -0.010788787 0.06603236 0.077828646 -0.14298621 0.11542664 0.06716357
-0.02882926 -0.24980655 0.24642618 -0.09345315 -0.13225526 0.24655578 -0.12768954 0.16801617
0.1525521 -0.16372159 -0.20261455 -0.13491024 0.077245735 0.23582733 -0.012877851 -0.075669
-0.07292135 -0.1731079 0.24883729 -0.0037113815 -0.19883645 -0.1697919 0.15653099 0.11992025
0.16128623 -0.027355859 -0.04839482 0.08091203 -0.0014477876 -0.080483496 0.05861887 -0.14347835
-0.17209797 -0.054262612 -0.1772143 0.0073474394 0.03834416 0.24579099 0.073049724 -0.00046313135
-0.18169457 -0.099487 -0.039755724 -0.17901196 0.049664713 0.17992944 0.14404379 -0.10268258
-0.062114578 0.2502309 -0.03902847 -0.22552846 -0.0011952624 0.01171067 -0.09387574 -0.028137397
-0.20386168 0.075986706 -0.17450036 0.0870444 0.18736906 -0.16139829 -0.096888214 0.023044832

heads.3.0.bias f4 [10]
00000000: 9029 d0b9 f01e 173e 372e 65bc 6e72 213d
00000010: 677a 8bbd 8eeb aa3d dba4 983d d724 4fbe
00000020: 95ec 083e b2f2 55bd
-0.00039703818 0.14757895 -0.013988069 0.03941577 -0.06810456 0.0834571 0.07453319 -0.20228897
0.13371499 -0.052233405
